1000itr lr=0.1 expc=1.85.pt (torch, 51657 bytes, 8 tensors)

weight f4 [64, 42]
000000 df c2 b8 3e 56 66 08 bf f1 75 0f 3e cb a8 fa 3e
       0.36086175 -0.5328115 0.14009835 0.48956904
000010 a3 16 b3 3e a7 af 2c 3f 59 4e ce 3e d6 c4 4c 3d
       0.34978208 0.67455524 0.4029415 0.049992405
000020 44 38 a1 bc 2b b6 d2 3e a3 4e 1f 3e 2e cc 18 bf
       -0.01968015 0.41154608 0.15557341 -0.59686553
000030 8f 1b a8 be ef ab 04 bf 23 91 73 be 35 b5 d3 3d
       -0.32833526 -0.5182485 -0.23785834 0.10337297
000040 8a ea ef be 4f 17 a6 be 91 06 65 be 45 04 b4 bc
       -0.46858627 -0.32439658 -0.22365786 -0.021974692
000050 97 c6 1f be df 54 5a 3e f2 f3 2b be 4c b6 9e 3e
       -0.156031 0.21321438 -0.16792277 0.30998456
000060 f5 69 d0 3e 72 4e 41 3f 5b da cb be 16 ff 7a bf
       0.4070584 0.75510323 -0.3981503 -0.9804548
000070 68 b3 3c 3f d2 2f 52 3f 3e ac 8d 3f 70 bd 1b bc
       0.7371125 0.8210422 1.1068189 -0.009505615
000080 8b a7 cd be 79 af 61 bd d0 e6 ad bc 28 e2 cb bd
       -0.40166888 -0.055098984 -0.021228224 -0.09955245
000090 67 8f 22 be 16 f0 41 3f 52 c3 8c bf 5f 17 ea bf
       -0.15875016 0.7575697 -1.0997107 -1.8288382
0000a0 91 e9 eb 3e 66 c1 4f 3f 08 16 48 be 93 1f 93 be
       0.46076635 0.8115448 -0.19539654 -0.28735027
0000b0 80 d5 fb bd 31 eb 48 bd 91 0c fb 3d 00 78 81 3d
       -0.12296581 -0.04905242 0.12258256 0.06321716
0000c0 47 4d d4 be eb 92 5c 3e 75 c0 e6 3e 73 a3 3e bd
       -0.41465208 0.2154042 0.45068708 -0.046542596
0000d0 d2 f7 1d 3e b7 99 05 be ae c1 b0 3e 29 c8 f5 bd
       0.15426567 -0.13046919 0.34522766 -0.12001068
0000e0 c7 3c 84 bf 7a f0 20 bd ba 82 9b 3e 84 26 e4 3e
       -1.0331048 -0.039291836 0.30373174 0.44560635
0000f0 50 bd da 3c 5d 2f 92 be 84 dd e7 3e 75 03 92 be
       0.0267016 -0.2855176 0.4528619 -0.28518263
000100 c4 33 1e be b3 f4 85 3e 1a fb e5 be c0 d1 3a bf
       -0.15449435 0.26163253 -0.44918138 -0.72976303
000110 a7 f8 8e 3e 54 db 00 3d 07 35 da be 6a c5 9c 3e
       0.27924082 0.031459168 -0.42618582 0.30619365
000120 66 83 07 bd 1d d3 4c be f4 37 e0 3e 9a 95 04 3f
       -0.033084296 -0.20002408 0.4379269 0.51790774
000130 d9 3c 38 bf 8e 40 19 3d 3f 5e fa 3d 4c 4e c8 3f
       -0.71967846 0.03741508 0.12225007 1.5648894
000140 b1 18 96 3d c8 73 1e 3e 64 63 76 be dc ec 0c bf
       0.07328928 0.15473855 -0.24061352 -0.5504892
000150 be e9 6c 3e ec eb 02 3e bc 1c 81 be 51 68 34 bd
       0.2313604 0.1278531 -0.25217235 -0.044044796
000160 ea ec ac 3e fd e1 71 bd 21 40 bc be 95 9d 3f be
       0.337745 -0.05905341 -0.36767676 -0.18712457
000170 27 07 89 3d f4 f8 05 3e 94 0f 49 3d 4d 2c a0 3d
       0.06690817 0.1308325 0.049087122 0.0782095
000180 18 33 d3 be 82 c8 aa 3e 47 04 c8 be e9 b3 b4 3e
       -0.4124992 0.333561 -0.39065763 0.3529351
000190 9c 44 fd 3e 53 d1 9c 3e d8 c7 81 be 83 ed a5 3e
       0.49466407 0.30628452 -0.2534778 0.3240777
0001a0 29 57 a2 3e a2 c3 c2 be a8 05 97 bd c4 63 65 be
       0.31707123 -0.3803988 -0.07374126 -0.22401339
0001b0 5b 2a ce be fe d1 49 3d ed 49 df 3e 3d 75 da bc
       -0.4026669 0.04927253 0.43611088 -0.026667232
0001c0 14 39 80 3e d7 b0 93 be 4b 8b 8e bd fd 6c 56 3e
       0.25043547 -0.28845856 -0.06960162 0.20940013
0001d0 61 bb 72 3f b8 3b b6 be ee 80 3c 3e 16 fb 5b be
       0.9481717 -0.35592437 0.18408558 -0.214825
0001e0 b8 69 a6 3b 7d 79 40 bf 3f 39 47 3d 42 ba 31 3f
       0.0050785206 -0.75185376 0.04863858 0.6942483
0001f0 89 20 67 be d4 3e ea 3e d1 53 f7 3e ee 89 85 bd
       -0.22571005 0.4575106 0.48306134 -0.065204486
000200 cf 74 92 3e ce 7e ea 3e 33 4f ee be a6 a4 3f bd
       0.28604743 0.4579987 -0.465448 -0.04678788
000210 70 49 d7 3e ad a9 b7 be 9d b3 bd 3e 7f de f4 bc
       0.42048216 -0.3587164 0.37051097 -0.02989125
000220 19 a4 8c be fb 14 b3 3e dc 1d 6a be 15 5f 27 bf
       -0.27468947 0.34976944 -0.22862953 -0.6537946
000230 50 c8 73 3f e9 6d 28 3d 6c 47 a9 3e 58 07 17 bf
       0.9522753 0.041120443 0.33062303 -0.5899558
000240 e5 8f 25 bf cf 97 f8 3e 43 42 f3 3e 70 af af be
       -0.6467269 0.4855332 0.4751149 -0.34313536
000250 c7 8b 27 bf af 07 7b bf 46 09 c3 3c 50 14 e4 bd
       -0.6544766 -0.980586 0.023808133 -0.11136687
000260 f0 d2 27 3d dc 90 4b 3f 11 9c fa be 26 0a 58 3d
       0.04097265 0.7951791 -0.48947194 0.052744053
000270 70 37 4a be 44 87 e5 be 1f 0a 8c 3f 08 fa 4b 3c
       -0.1974771 -0.44829762 1.0940589 0.012449749
000280 69 7f 3b be a6 75 87 3f 65 41 d8 bd f2 d0 06 bf
       -0.18310322 1.0582778 -0.10559348 -0.52662575
000290 0a 76 8b 3f 8e 65 49 bf 6d fc e1 bf 64 67 b2 3c
       1.0895398 -0.78670585 -1.7655159 0.021777816
0002a0 18 48 86 3e c5 77 25 be ad 9a 4e bd 7e 11 05 be
       0.26226878 -0.1615897 -0.05044048 -0.12994954
0002b0 f9 67 3e 3e 98 84 a3 be 75 06 01 bf 8d e9 0c 3e
       0.1859435 -0.31937099 -0.5040048 0.13760968
0002c0 f1 03 ac bc c4 16 19 be 21 0b 97 be e5 b6 32 3c
       -0.020997973 -0.1495009 -0.29500678 0.010907863
0002d0 2b 9f 10 3e 6c 4a d8 3e bc 6d 02 bf 90 de bc bc
       0.14123218 0.4224428 -0.5094869 -0.023055345
0002e0 27 36 11 3e 2f 9d 86 3e ae 8f 7b be 37 4b 70 3e
       0.14180814 0.26291797 -0.24566528 0.23466192
0002f0 ad 12 10 3f ad c2 f8 3d fa 6c 4c be ef 08 b3 3e
       0.56278497 0.121465065 -0.19963446 0.34967753
000300 ba f0 50 be 88 a0 8a be fe b0 31 bf 89 95 36 bf
       -0.2040433 -0.270756 -0.69410694 -0.7132192
000310 49 46 11 3e 8f 4a 09 3f 69 f6 f1 be 95 77 55 bf
       0.14186968 0.5362939 -0.4725831 -0.8338559
000320 18 0b bc 3c 64 d5 19 3f 03 81 93 3d f8 34 84 3f
       0.022954509 0.60091233 0.072023414 1.0328665
000330 4a 18 64 bd a0 d1 35 be 69 18 57 bf d2 25 a1 3f
       -0.055687226 -0.17755747 -0.8402162 1.2589667
000340 fe 59 93 3e ee ea 08 bf c2 6f 16 3f 7c 8c 99 3e
       0.28779596 -0.53483474 0.5876428 0.29989994
000350 00 37 8d 3e 43 6f 75 bf 08 61 d3 3e 16 d7 c7 be
       0.27581024 -0.95872897 0.41284966 -0.39031285
000360 5b cc f0 be d8 79 6d be 11 2f a1 be 13 e9 bd be
       -0.4703091 -0.23191011 -0.3148122 -0.37091884
000370 ef 56 66 be 27 7c 9e 3e 43 8a 21 3f b4 42 c7 bd
       -0.224941 0.30954096 0.63101596 -0.097295195
000380 d0 05 f5 3e ec 60 ac 3d 7a a9 17 bf 24 06 aa bd
       0.47855997 0.08416924 -0.59242976 -0.083019525
000390 cd 40 26 bd 43 b1 8f 3f 57 fa 3b 3f 65 db fd be
       -0.040589143 1.1225971 0.73428863 -0.49581447
0003a0 51 10 a8 bd 2a 61 23 bf 48 66 db 3d 5d 63 2c bf
       -0.08206237 -0.63820136 0.10712868 -0.67339116
0003b0 0a 3d 20 bf f5 fc a6 3e c3 5e e2 3f 77 a8 1d bf
       -0.6259314 0.32614866 1.7685169 -0.6158518
0003c0 7c bb 6a bf 4c 38 1c bf 3a 79 a3 3f 7b fd a0 3f
       -0.9169233 -0.610234 1.277137 1.2577356
0003d0 6b e5 3f c0 ed 32 af bf a1 aa ca bf 4d 5b 99 3f
       -2.9983776 -1.3687416 -1.5833322 1.1980988
0003e0 51 d3 b6 3f 37 c6 2b bf 4b fd e9 bd 7f e0 85 bf
       1.4283239 -0.67099327 -0.11425265 -1.0459136
0003f0 51 04 44 3e f6 f1 27 3e 3e ee 46 3b 0d 86 ca be
       0.19142272 0.16400895 0.0030354406 -0.39555398

bias f4 [64]
000000 ee 68 b1 bf 86 2b 5d be 51 98 a6 bf a3 19 d1 3d
       -1.3860147 -0.21598634 -1.3015233 0.10209968
000010 21 41 26 bf 0d 82 b4 bf db 03 55 bf 83 5e 90 bd
       -0.6494313 -1.4102188 -0.8320901 -0.07049277
000020 92 23 87 bf 79 cb 99 bf 20 da 69 bf 54 0b 9c be
       -1.055773 -1.201522 -0.9134846 -0.30477393
000030 9d 56 1b bf d1 b6 41 bf 86 d4 1d c0 ff cc 7a bf
       -0.60679036 -0.7566958 -2.4660964 -0.9796905
000040 92 39 86 bf 8c 0f 07 c0 ac 9c 81 bf b1 a8 fa bf
       -1.0486319 -2.110324 -1.0125937 -1.958273
000050 2c 1e c4 be 0f 80 11 bf 72 10 83 bf 3f 7a 20 bf
       -0.3830427 -0.56836027 -1.0239394 -0.6268653
000060 50 7b 50 bf 00 1a 7e bf 3d 59 23 bf 7e ed 62 bf
       -0.8143816 -0.9925842 -0.6380804 -0.88643634
000070 ff 39 cd bf 1c 70 78 bf 7f bb 4e bb e0 ce a5 bf
       -1.6033324 -0.97046065 -0.0031544862 -1.2953758
000080 f2 e2 69 bf c5 e2 6f 3f 15 96 b5 bf ea 0c 94 bf
       -0.91361916 0.937054 -1.4186426 -1.1566441
000090 9f 31 d4 bf ef 3b 72 bc 41 09 f9 bf 3b b4 b3 3e
       -1.6577643 -0.014784797 -1.9455949 0.35098442
0000a0 36 65 6c bf 14 04 56 3e ce a7 0d bf 14 d0 aa bf
       -0.92341936 0.20899993 -0.55334175 -1.334475
0000b0 5d eb 6d bf 65 d4 f3 bf 3e a4 81 3e 31 cc e3 bf
       -0.9293726 -1.9049193 0.2532062 -1.7796689
0000c0 75 2c ef be 2a 8f 21 bf 50 25 05 c0 97 2b 48 bf
       -0.46713606 -0.63109076 -2.0804024 -0.7819151
0000d0 8a 46 f7 bf 51 1f 37 bf dc a0 12 bf 34 91 51 bf
       -1.9318402 -0.7153216 -0.572767 -0.8186219
0000e0 c7 73 8c bf c4 69 da be 4b 8f 88 bf 38 3f 78 bf
       -1.0972832 -0.42658818 -1.066873 -0.96971464
0000f0 30 bc 83 bf b4 85 47 bf 7b 66 2f bf 94 91 34 bf
       -1.0291805 -0.7793839 -0.6851575 -0.70534635

weight f4 [64, 64]
000000 09 3e 03 bc f8 52 b7 3e 89 ee 37 bd 11 ba 86 3d
       -0.008010396 0.35805488 -0.04490522 0.06578458
000010 e1 cf 29 3d df d7 4b bf 30 ba 24 3d b4 53 77 bd
       0.041458014 -0.7962627 0.040216625 -0.06038256
000020 66 0b 25 bd 59 58 00 3e 9d fc a4 be 1d e0 e4 be
       -0.040294074 0.12533702 -0.3222398 -0.44702235
000030 88 00 bc be c1 3f ff bd 8b e7 d3 bc fb b4 53 3c
       -0.36719155 -0.12463332 -0.025867244 0.012921567
000040 3e f0 c4 bd 5c 01 7f be ce f8 d8 bd 73 03 de 3d
       -0.09616135 -0.24902862 -0.10594331 0.10840502
000050 38 44 59 bd 94 cc 88 bd 6b a1 79 be 94 0b 0b be
       -0.053043574 -0.06679645 -0.24377982 -0.13578635
000060 3b f1 11 bf 73 1f 07 bd 81 dd 0a bf 08 40 cd bd
       -0.57008713 -0.032988977 -0.5424424 -0.100219786
000070 1a 1a 18 be 14 85 17 bd 65 35 ac 3e 9a a8 40 be
       -0.14853707 -0.036992148 0.33634487 -0.18814316
000080 6c 1a 88 be dc 42 af be c1 33 db bd ea 52 5a be
       -0.26582658 -0.34230697 -0.10703231 -0.21320692
000090 0b fe 17 bf e4 c1 93 bb 02 9a 30 bf 0e bb 31 be
       -0.59372014 -0.0045091975 -0.68985 -0.17356512
0000a0 81 ee f0 bd d4 1f cd bd 66 7b 1a be ec ef d9 bd
       -0.11764241 -0.10015836 -0.15086135 -0.106414646
0000b0 35 2a ff bd 15 ea 70 bd c5 8c 04 bf 89 e6 2c bf
       -0.12459222 -0.058816988 -0.517773 -0.6753927
0000c0 b1 d1 12 3d 81 64 99 3d 40 00 e2 bd 7d 84 53 bd
       0.03584451 0.07489873 -0.11035204 -0.051640023
0000d0 c0 0a bd bc 22 f8 4f be 34 04 f1 bd bc b5 3d bf
       -0.023076415 -0.20309499 -0.1176838 -0.7410543
0000e0 58 89 8b 3c 15 ed 4e be 40 e3 7d bd 49 d5 2f bd
       0.017033264 -0.20207627 -0.0619843 -0.042928014
0000f0 61 28 26 be 70 06 6a be 1a e3 81 be 66 b3 98 bd
       -0.16226341 -0.22854018 -0.25368577 -0.074560925
000100 e5 51 c3 be cb 7f f0 be 14 08 5e be ff a7 36 bc
       -0.38148418 -0.46972498 -0.21682769 -0.011148452
000110 72 9c 8d bd 40 ae 54 be 7a cc f5 bd 92 57 8e be
       -0.06914605 -0.20769596 -0.120018914 -0.27801186
000120 2b 69 aa bd be b7 87 3d 0d 82 87 be a1 f6 e8 3e
       -0.083208404 0.06626843 -0.26466408 0.45500663
000130 2d 33 e7 3c 92 44 e3 3c aa 30 a1 be 5c e1 35 be
       0.028222645 0.027742658 -0.3148244 -0.17761749
000140 6a 24 de 3d 1b 88 7e be 52 7e 09 3e df 25 f6 bd
       0.10846789 -0.24856608 0.13427094 -0.12018942
000150 9b 23 7a 3e e7 b3 05 bd ab ba 7c be 12 0a 02 3d
       0.24427645 -0.03264227 -0.24680583 0.031747885
000160 81 b4 51 be dc 33 78 be 61 28 9a bd 03 c4 bb 3b
       -0.20479013 -0.24238533 -0.07527233 0.0057301535
000170 86 3c 82 be 25 b3 06 be 43 e8 dc be 3b 6b 29 be
       -0.254368 -0.13154276 -0.43145952 -0.16544811
000180 ca d8 c6 be e3 d5 fe 3c c1 41 63 be a2 19 90 be
       -0.38837272 0.031107849 -0.22193052 -0.28144556
000190 16 ba bf be d3 7e 24 be 2f 3b b7 be 18 b9 e3 bc
       -0.3744666 -0.16064005 -0.3578734 -0.02779822
0001a0 45 2e 1d bd 92 b9 39 be 8e 11 97 bd dc 62 62 be
       -0.038374204 -0.18137196 -0.07376395 -0.22108024
0001b0 8b e0 3f be bf 04 9f be 23 6d 42 bf c7 5d 6b bd
       -0.18738 -0.31058308 -0.7594778 -0.05746248
0001c0 39 77 d7 3b 45 28 26 be 91 8b c4 3d 39 c4 4c bd
       0.0065754917 -0.16226299 0.09596933 -0.04999182
0001d0 3d 3e c5 be 53 6e 0b bf 5b 00 2f be 4d f9 71 be
       -0.38524047 -0.54465216 -0.1708998 -0.23630257
0001e0 3c 78 43 bc b3 78 72 bc a3 8c 21 3d fe 14 60 be
       -0.011930522 -0.014799285 0.039440762 -0.21883008
0001f0 47 21 5e be bb ee 1f bd 30 b2 06 bf 7c 3e bf bd
       -0.21692382 -0.03904603 -0.5261564 -0.0933809
000200 63 2f c0 3d 07 c3 20 be d8 cb db 3c 34 c4 42 be
       0.09384038 -0.15699397 0.026830599 -0.19020158
000210 00 47 84 bd f0 67 84 bd 79 dd 95 bd d0 fa 3e 3e
       -0.06458855 -0.06465137 -0.07317633 0.18650365
000220 93 5f d0 bc 01 80 13 be 7c 59 ac bd 8e dd dc bd
       -0.025436198 -0.14404298 -0.08415505 -0.10784446
000230 61 67 a4 be 70 a2 98 bd 24 fb c6 bc 57 3d 8a be
       -0.32110122 -0.074528575 -0.024289675 -0.26999924
000240 9e d3 ce bc 5c 00 00 be 99 e2 9c bd c7 ef 72 3d
       -0.025247391 -0.12500137 -0.076604076 0.0593107
000250 35 14 53 3e ba d6 00 3d 45 61 88 be 36 95 a2 bd
       0.20613177 0.03145478 -0.2663671 -0.07938616
000260 96 ae 80 be 56 b4 ad 3d a5 19 47 bd 35 ec c5 3d
       -0.25133198 0.08481662 -0.04860844 0.096641935
000270 0d 50 0a 3e a1 97 09 bd d2 4b 67 be 9d a7 cd bd
       0.135071 -0.03359187 -0.22587517 -0.10041735
000280 0b 0e e1 be 4d 2c 84 3c 25 17 fa bd 5e 6f 31 be
       -0.43956026 0.016134406 -0.12211446 -0.1732764
000290 74 7d 65 bd 38 93 f5 3d a4 1f 8c be f6 56 85 be
       -0.056027845 0.119909704 -0.2736789 -0.26042908
0002a0 63 26 37 bd e9 73 86 bc d2 09 21 bd 7e 62 94 bd
       -0.044714343 -0.016412692 -0.039316006 -0.072453484
0002b0 55 48 8a be 39 f0 33 be f5 7a 43 be ad ac 2a 3c
       -0.2700831 -0.17572106 -0.19089873 0.010417146
0002c0 e7 41 f2 bd a4 92 0d 3d 19 fb 12 3d 06 fc 55 bd
       -0.11828976 0.034563676 0.035883997 -0.0522423
0002d0 cc 1f e7 3c a5 f8 11 be 02 e7 e0 bc 25 1d d2 3d
       0.028213404 -0.14255007 -0.027453903 0.10259465
0002e0 c2 8d e7 bd c0 66 b1 3d d2 d3 8d be 62 2d f6 bc
       -0.11306335 0.08662176 -0.2770067 -0.030050937
0002f0 c1 ac 9d bd 9b 14 52 be be 29 29 3d c5 56 f2 3d
       -0.07698966 -0.20515673 0.041299574 0.11832956
000300 80 e8 a3 3d fe 00 1e be a0 b4 db be 91 11 45 be
       0.0800333 -0.15430066 -0.42911243 -0.19244982
000310 f0 b8 c7 be 0d dc 0a bb 2c d0 65 be 05 e3 50 bd
       -0.39008284 -0.002118829 -0.22442693 -0.050997753
000320 a3 24 6d be a7 41 11 be 89 5d be 3d 77 fb cb bd
       -0.23158507 -0.141852 0.09295184 -0.099600725
000330 bf 9e f7 bc 03 77 a8 be 8e fa b5 be 76 dd dc 3d
       -0.030227063 -0.329033 -0.3554272 0.10784428
000340 39 33 9c bd b6 0e c3 be 3c 27 de be c5 df 34 be
       -0.076269574 -0.3809716 -0.43389308 -0.17663486
000350 bc a3 01 bf c8 df af bd c1 5a 53 bd a9 d6 1e be
       -0.50640464 -0.08587605 -0.05160022 -0.15511574
000360 83 34 ee bc 4e 1a 17 bf ba 9d ab 3e 6d e8 a0 bd
       -0.029077774 -0.5902451 0.33518773 -0.07856832
000370 84 35 7f bd 52 e8 0d be d8 3a a6 bd 7d da 69 bf
       -0.062306896 -0.13858154 -0.08116692 -0.9134901
000380 98 20 e9 3c ac 6f cd bc c4 50 99 3e 57 5c c8 3e
       0.028457925 -0.025077663 0.29944432 0.3913295
000390 b5 4b 06 be b0 6e 86 bc 69 d7 e3 be ee 81 50 be
       -0.13114817 -0.016410202 -0.44500282 -0.20362064
0003a0 e4 a1 1c 3e 4a 9c 99 be 7e c3 36 bd c0 6b df be
       0.15296131 -0.30002052 -0.04462003 -0.43636894
0003b0 55 67 1b be ec 44 a7 bf 08 29 e3 be e4 12 f7 be
       -0.15176137 -1.3067908 -0.44367242 -0.482566
0003c0 63 e5 20 bd f6 e7 5b bd 49 8e 3d 3e 12 90 d4 be
       -0.03928126 -0.053688012 0.18511309 -0.41516167
0003d0 8c 00 61 bf 1c 1c 85 be ce 24 54 be 7f d9 d2 bd
       -0.8789146 -0.25998008 -0.20717165 -0.1029539
0003e0 8a 6b 44 be 0c f8 78 be d9 66 09 3e 80 7e 87 be
       -0.19181648 -0.24313372 0.1341814 -0.264637
0003f0 f6 34 17 bd a8 7e 33 be 3e e4 47 be da 6a 13 be
       -0.03691574 -0.17528784 -0.19520661 -0.1439623

bias f4 [64]
000000 c2 b0 b9 be 3d eb d7 be 21 82 08 bf 53 07 e3 be
       -0.36267668 -0.4217166 -0.5332356 -0.44341525
000010 ab 9d e7 bd 12 7d c2 bd f7 02 1c bf ba 50 0b be
       -0.1130937 -0.094965115 -0.60942024 -0.13605013
000020 c0 da b6 be c3 a8 0c be 7b fc 86 be 09 c3 55 be
       -0.35713768 -0.13736252 -0.26364502 -0.20875181
000030 3b 74 2f bf 63 01 c2 bd 6b 05 8e be f8 d6 18 bf
       -0.6853673 -0.09472921 -0.2773851 -0.59703016
000040 58 c6 ac be 4d 17 f5 be cb 17 ac 3d 9f 81 96 bf
       -0.33745074 -0.4786934 0.08402976 -1.1758307
000050 c4 54 e8 bd d9 1c df be e8 66 f5 be bf f7 e6 be
       -0.11344293 -0.43576697 -0.47930074 -0.4511089
000060 84 bf 25 bc 87 ba c8 be da ea 26 bf c7 d7 65 bf
       -0.010116462 -0.3920481 -0.65202105 -0.89782375
000070 4a 33 63 bf ad fd a0 be 5a f0 7d bd e7 59 ae be
       -0.88750136 -0.3144354 -0.061996795 -0.34052965
000080 ad c2 2c be 14 94 82 be 45 cd aa bf 42 69 d6 be
       -0.16871138 -0.255036 -1.3343893 -0.4187718
000090 3d 1b 8b be e5 78 5d be bc 09 04 bf 9f 2a c9 be
       -0.2716922 -0.21628149 -0.51577353 -0.3929033
0000a0 60 4c 6c be 8f 6d f8 be 79 e3 01 be 3e 0e 10 be
       -0.2307601 -0.48521087 -0.1268443 -0.14067933
0000b0 70 b6 8a 3f 4e e5 35 be 6c f6 16 be 6b 56 af be
       1.0836926 -0.17763254 -0.1474244 -0.3424562
0000c0 21 5b b9 be 59 ad 8c bf 1a b1 80 be e2 e9 88 bd
       -0.36202338 -1.0990402 -0.25135118 -0.066852346
0000d0 7f 4b 02 bf 2f 5a 84 bd 29 f3 c0 be 4e f5 8e be
       -0.5089645 -0.06462514 -0.37685516 -0.27921528
0000e0 6b b7 24 bf c4 ce de be 96 e8 7d be 42 7c 41 be
       -0.64342374 -0.43517125 -0.24795756 -0.18895057
0000f0 53 a8 91 bf 01 4c bd be 08 62 ac be de 4e 5f bf
       -1.1379493 -0.3697205 -0.33668542 -0.87229717

weight f4 [64, 64]
000000 3f ba 1e be ba be 9f bd 06 e1 31 be 8d 4f bd 3e
       -0.15500735 -0.0780005 -0.17370996 0.36974755
000010 fa cb e2 bc 50 ef 75 3d aa 80 0e be a9 53 67 bd
       -0.027685154 0.06004268 -0.13916269 -0.05647627
000020 d8 87 17 3d b6 ab 00 be 6c 79 9f 3e 01 28 1e be
       0.036994785 -0.12565503 0.31147325 -0.15444948
000030 ec 1e 9a 3e 15 6a ff be fc bc 83 3d d3 5d 80 be
       0.30101717 -0.49885622 0.0643253 -0.25071582
000040 d4 24 a5 3d 36 82 6d bd ef 9b 9f 3c ec 25 ce bb
       0.08063665 -0.057985507 0.019483535 -0.0062911417
000050 5a 70 9e 3d 4b da e9 bc cf c4 29 be 6f cc 53 be
       0.07736273 -0.028546473 -0.16578983 -0.20683454
000060 94 65 10 be 0c 13 49 3d 95 33 5c be 10 f8 ac be
       -0.14101249 0.04909043 -0.21504052 -0.33783007
000070 0e 18 a7 be f3 36 0b be c7 65 8b 3d 86 ce c2 bc
       -0.3263554 -0.1359518 0.06806522 -0.023780119
000080 f2 59 50 be 67 68 1a be bc bf 67 be 00 22 18 3c
       -0.20346811 -0.15078889 -0.22631735 0.00928545
000090 c3 e6 64 3e 21 1b 97 3e 19 7c b0 be fa ce d9 3d
       0.22353654 0.29512885 -0.3446968 0.10635181
0000a0 cc d2 42 bd dc f4 8a bd dc 9d 4e bc 74 ac aa bc
       -0.047564313 -0.067849845 -0.012610879 -0.020834185
0000b0 ef a8 94 be 71 c3 59 3d 83 a4 0e be 07 11 16 3c
       -0.29035136 0.053164903 -0.13929944 0.009159333
0000c0 91 21 18 be 72 ad c4 3b f1 cb 94 be fa 92 2f 3d
       -0.14856555 0.0060021216 -0.29061845 0.042864777
0000d0 57 43 0b be 3d 3e 63 be 27 9f b7 3c fb 4b 02 3e
       -0.13599907 -0.22191711 0.022414757 0.12724297
0000e0 9c 58 84 be e4 be 56 be 04 47 b9 bd 66 19 c7 be
       -0.25848854 -0.20971256 -0.09046748 -0.38886565
0000f0 6f 3d bf bb 15 f4 f2 3d 78 9d 6a be 0c 6b 74 be
       -0.005836181 0.11862961 -0.22911632 -0.2386896
000100 ed 22 cc bd 28 fb 7c bd b3 e8 fd bd 8f 06 77 bc
       -0.09967599 -0.06176296 -0.123978995 -0.015077247
000110 35 92 3f be 6f b1 e4 bd ee ad 94 be 2c bc 73 3d
       -0.18708117 -0.11166655 -0.29038948 0.059505627
000120 1c 9e 17 be 28 b0 b7 bd 03 04 e8 bd dc c5 f0 3d
       -0.14806408 -0.08969146 -0.1132889 0.11756489
000130 fe 5b 33 be a1 5b 74 bd a9 8f f5 bd 5d f9 12 be
       -0.17515561 -0.059657697 -0.119902916 -0.14352937
000140 2b a6 9d bd 4c 62 1e be 3a 59 28 be a3 0b 39 3b
       -0.0769771 -0.15467185 -0.16440287 0.0028235696
000150 47 e9 83 3c 1d af 53 bd 46 c4 5a be 0e ab 57 be
       0.016102446 -0.051680673 -0.21363935 -0.21061346
000160 ff ab db 3c 36 5d 17 bd 73 d9 9d be 00 0f 10 be
       0.026815413 -0.036954127 -0.30829963 -0.14068222
000170 69 94 13 be 4a 0e 3d 3d 72 9d 97 bd 7d 42 6f 3d
       -0.14412083 0.046156205 -0.07403077 0.058413018
000180 89 4c 31 be b0 60 9e bd 34 36 3f bc ff 30 58 bb
       -0.17314352 -0.077332854 -0.011670638 -0.0032988188
000190 59 6c 94 bd ee 4c 78 be 4b 0c 94 bc 98 bc 48 3d
       -0.07247228 -0.24248096 -0.018072268 0.049007982
0001a0 32 d2 71 be db e8 29 be d6 e6 d5 3c a5 aa 92 bd
       -0.2361534 -0.16592734 0.026111048 -0.07161454
0001b0 64 68 1d be 10 1a b7 bd 95 aa 9a bd 17 17 0e 3d
       -0.15371853 -0.08940518 -0.07552067 0.03468999
0001c0 67 05 f4 bd b4 75 e9 bd 25 48 dc 3b 9f 9f 1d 3d
       -0.11915093 -0.11399403 0.0067224675 0.038482305
0001d0 82 9b 15 be f1 48 4f bd cb 75 92 bd c8 28 5c be
       -0.14610103 -0.05060667 -0.071513735 -0.21499932
0001e0 17 ae 64 be 53 43 87 bd 03 8b 64 bd a5 36 9f be
       -0.22332035 -0.06604638 -0.055796634 -0.31096378
0001f0 99 10 20 bd 71 0f 02 be 2e 44 97 bd 84 c3 44 be
       -0.03907833 -0.12701203 -0.07386051 -0.19215208
000200 73 5b 98 bd b0 26 21 be 3e 9a 36 3e d3 a9 6f bd
       -0.074393176 -0.15737414 0.17832276 -0.058511566
000210 4f e7 b4 be c0 14 c7 bd 1c cc 3d be cc 01 da bd
       -0.35332724 -0.097207546 -0.18534893 -0.10644874
000220 82 1c 51 be 84 bb f3 bb 23 db 01 bf b2 d1 46 bd
       -0.20421031 -0.007438125 -0.50725 -0.048539825
000230 0a b1 ac be 73 32 dc be 2d aa 3c 3d 83 e0 21 bd
       -0.3372882 -0.4300724 0.04606073 -0.03952075
000240 3e 50 60 be 50 ac 01 be 43 fc bb 3b 18 b9 7e bd
       -0.2190561 -0.12663388 0.005736859 -0.062188238
000250 ad 1e 07 be 97 00 d1 be ba c2 74 be 05 d9 1e be
       -0.13195296 -0.40820763 -0.23902407 -0.15512474
000260 be 53 c2 3e 25 4c 53 3d bb 78 d9 bd 4d c1 c9 bf
       0.37954515 0.05158629 -0.10618731 -1.5762116
000270 b6 74 1f bf ed b2 27 3d 41 dd 10 3d 1d 7d c9 3d
       -0.6228746 0.04094212 0.035367254 0.098383166
000280 68 93 0c be e4 62 b9 be 0a d2 ab bf 57 90 95 be
       -0.13728106 -0.3620826 -1.3423474 -0.29211685
000290 0c 2f 65 be 5e a2 f8 be a9 b7 0b 3d 38 9f a3 3d
       -0.22381228 -0.48561376 0.0341107 0.07989353
0002a0 9d 6c 44 be c6 58 8b be af 87 0c bd 4d 78 86 bd
       -0.19182058 -0.27216166 -0.034309085 -0.06565914
0002b0 5d d3 6b be a6 14 4f bd 86 4a 8f be 66 6b 6e bd
       -0.23029847 -0.0505568 -0.27986544 -0.058207892
0002c0 5a d0 3c be 2b 34 c2 be 86 fb 86 be 1a 5f d6 bd
       -0.18438855 -0.37930426 -0.26363772 -0.10467358
0002d0 28 85 2a 3e bb 52 0f bc cf 31 7e bd 58 0f b2 bd
       0.16652358 -0.008747752 -0.06205922 -0.08694333
0002e0 39 9f 19 be 45 a2 e6 3b c6 ab 9c bd aa 95 2d bf
       -0.15002145 0.007038387 -0.07649951 -0.67806494
0002f0 c9 9d cf bc a8 35 89 3c 9e c9 2f bd 42 5f b9 3b
       -0.025343793 0.016749218 -0.042916887 0.0056571076
000300 54 6d 58 be 64 17 ef bd 31 2d e8 bc 29 af 6c 3c
       -0.21135455 -0.11674383 -0.028341861 0.014446058
000310 a3 63 c6 be 2f 25 0b 3e 87 31 ad bd b4 a6 dc be
       -0.38747892 0.13588403 -0.08456712 -0.43095934
000320 1c 07 e5 bd a6 20 d0 bd 64 7b 4e be 36 db 7c bd
       -0.11182997 -0.10162477 -0.20164257 -0.061732493
000330 39 55 bb be 74 7c d0 be 30 67 f1 bd af ff 3a be
       -0.36588457 -0.4071995 -0.117872596 -0.18261598
000340 ad 7f f4 3d 9e b2 30 be fb da 38 be 98 e0 51 bd
       0.11938415 -0.17255637 -0.18052284 -0.05123958
000350 d4 aa 96 3d 07 a4 87 bd 67 80 50 be 39 49 8a be
       0.07356802 -0.066230826 -0.20361482 -0.2700899
000360 63 e9 5f bd 4f 69 63 3a 83 f5 60 bd 13 d6 6e be
       -0.054665934 0.0008675055 -0.05492164 -0.2332385
000370 29 a4 80 be 0b 38 4f bd cf ec e6 bd da 5d d6 bd
       -0.25125244 -0.050590556 -0.112756364 -0.104671195
000380 d0 f9 9d bd b5 56 c8 be ca 73 b1 be d2 3d 98 be
       -0.077136636 -0.39128652 -0.34658653 -0.29734665
000390 29 73 f2 3d 6f 24 23 bf 58 e7 b6 3d 41 33 2c bd
       0.11838371 -0.6372747 0.08930844 -0.042041067
0003a0 5e 91 9e 3d 45 ab 2f be 9a e3 3f bd 66 ff 3d 3d
       0.0774257 -0.17155178 -0.046847917 0.046386145
0003b0 94 68 23 3e 33 11 1a bd d0 4c 06 bd 82 b5 ef bd
       0.15957862 -0.03761406 -0.032788098 -0.11704542
0003c0 77 b4 69 bd ce 1b 19 be 04 b5 f7 bd 9f 86 e2 3c
       -0.05705687 -0.14952013 -0.12095073 0.027652083
0003d0 85 38 85 bd 03 cd 99 be 2e 6f ed bd 3c 6a 13 be
       -0.06504921 -0.30039224 -0.115934715 -0.14395994
0003e0 07 84 81 be 34 e2 9e bd 29 b2 28 be 39 44 ac be
       -0.2529604 -0.077579886 -0.16474213 -0.336458
0003f0 25 21 9c be a8 99 b0 3d 4f 19 a5 be ef 0c 3f 3e
       -0.30494037 0.086230576 -0.3224587 0.18657278

bias f4 [64]
000000 38 31 02 bf bf ec 1b bf ed 49 7c bf 5b d8 e6 be
       -0.5085635 -0.6090812 -0.985503 -0.4508694
000010 73 06 87 be 30 9a c1 be dd 0b 00 be bf 71 00 bf
       -0.26372108 -0.37812948 -0.12504525 -0.5017356
000020 6e 17 39 bf a8 7c b8 be 40 96 12 bf db 13 e4 be
       -0.72301376 -0.36032605 -0.57260513 -0.445464
000030 8d 7a a2 be d0 7e ea be 11 52 1c bf 5c 7b 96 be
       -0.31734124 -0.45799875 -0.61062723 -0.2939099
000040 66 87 0a bf c8 d6 df be b0 0e b0 bf 21 09 14 bf
       -0.5411285 -0.43718553 -1.3754482 -0.5782643
000050 65 4c 98 be 14 cf 8e bf 44 86 4b be 21 d4 3c bf
       -0.29745784 -1.1156945 -0.19875437 -0.73761183
000060 2f 00 9c bf f6 0e f3 be a1 0e 1d bf 9c 88 b7 be
       -1.2187556 -0.47472352 -0.61350447 -0.35846412
000070 2e 37 91 bf 83 87 0f bf 7b ae 5a bf 30 9e 16 bf
       -1.1344965 -0.5606615 -0.85422486 -0.58835125
000080 38 66 9f be 99 ab 61 bf d6 55 1b bf 2c 3c 1c bf
       -0.31132674 -0.8815246 -0.6067785 -0.61029315
000090 74 a7 d9 be 6f 03 e8 be 16 e1 a1 be 40 c9 3f bf
       -0.4251057 -0.4531512 -0.3161704 -0.7491646
0000a0 19 cc 7d be c9 5a 41 bf fe 9d bc be ec 9c ca be
       -0.24784888 -0.7552915 -0.36839288 -0.39572847
0000b0 a4 a0 a8 bf 33 ee 8d be 04 36 1b be 46 37 1d bf
       -1.3174024 -0.27720794 -0.15157324 -0.61412466
0000c0 bc e0 43 bf e0 32 c6 be 4e 08 27 bf cd 53 42 bf
       -0.7651479 -0.3871069 -0.65247047 -0.7590912
0000d0 61 1a 9e be 4d 44 02 bf b5 f4 3d bf 2f 56 8c be
       -0.308795 -0.5088547 -0.7420152 -0.27409503
0000e0 dd 32 03 bf c3 9b cb be 0a 12 11 bf e3 73 96 be
       -0.51249486 -0.39767274 -0.5666815 -0.2938529
0000f0 75 90 03 bf 6d d7 90 be 74 1e 1c bf 6d d6 1b bf
       -0.513923 -0.28289357 -0.6098397 -0.6087406

weight f4 [8, 64]
000000 50 dc 58 3b fb 4d 2c be d0 a1 88 3d ac de 4f 3e
       0.00330903 -0.16826622 0.06671488 0.20299786
000010 ca 95 6c be 6f fc bf bd 9b 02 ef 3e f0 98 cd 3c
       -0.23104015 -0.0937432 0.46681675 0.02509734
000020 0f 9a 0e 3e f1 3a a4 bc 25 10 05 bd 5a 75 26 be
       0.13925956 -0.020047637 -0.0324861 -0.16255704
000030 1d c0 5a bd 1f ea 90 bd 5d 44 96 be e7 4d 82 bd
       -0.05340587 -0.07075905 -0.29349032 -0.06362515
000040 48 f4 0b be a5 c8 72 be 22 a2 68 be 89 de c0 bf
       -0.13667405 -0.23709352 -0.22718099 -1.5067912
000050 cb 5f f1 3d c1 56 03 3f 72 62 1a 3e eb 49 04 3e
       0.11785849 0.5130425 0.15076616 0.12918822
000060 1f 82 7b 3e 37 3d 9e bd e4 4a 5c be 14 d3 05 3d
       0.24561356 -0.077265196 -0.21512944 0.032672003
000070 dd 8f de be 8f 3c d0 3d fd fd 5b be f1 a1 5d bc
       -0.43469134 0.10167801 -0.21483608 -0.013527379
000080 56 42 84 be c4 5d ef 3e 53 a5 aa 3d 75 dc a7 bd
       -0.2583186 0.46751225 0.08332314 -0.08196346
000090 dd 99 17 bd 16 25 48 be 68 26 bc bd 7d df 3b 3e
       -0.03701197 -0.19545397 -0.09187013 0.18346973
0000a0 70 e1 8a 3d 1b 50 05 3e 79 17 e6 3d 5a 41 7a 3d
       0.0678128 0.13018839 0.11234946 0.06109748
0000b0 75 5e 81 3e f8 4b a1 3c 8b 23 87 3d f2 9e 27 3e
       0.25267377 0.019689545 0.06598576 0.16369227
0000c0 7f e4 8c 3e 8b 8e b7 3e ba 01 a8 bd 80 41 28 3d
       0.2751808 0.3585094 -0.08203454 0.04107809
0000d0 84 7d 88 3d 84 17 0e 3d 5e 4a a3 be ec 81 83 bc
       0.06664565 0.034690395 -0.31892675 -0.016053163
0000e0 b2 9e 11 be 10 a2 c6 3c 88 d5 0b 3e 3a e3 11 be
       -0.14220694 0.0242472 0.13655674 -0.14246836
0000f0 4c f3 46 3d 92 2a c5 bd 99 10 12 be a5 bd 8b bd
       0.04857187 -0.0962726 -0.14264144 -0.06823281
000100 8d 26 3c be 94 ab 40 3a 17 90 02 3e 71 c4 91 be
       -0.18374081 0.0007349786 0.12750278 -0.28470185
000110 1e ed 73 be 3c e6 c8 bd 28 50 30 be 2a 63 9b be
       -0.23820922 -0.09809539 -0.17218077 -0.30349094
000120 35 c2 f0 3c ea 78 aa bd 3a 16 70 bc c1 87 39 3d
       0.02938948 -0.08323844 -0.014653737 0.04529548
000130 35 c0 a8 bd d5 51 0b be 37 d9 cd bd 83 33 8c bb
       -0.082397856 -0.13605435 -0.10051196 -0.0042786016
000140 9c 55 0e be b6 08 30 3c 9e 21 86 bd 8a 71 08 be
       -0.13899845 0.010744264 -0.06549381 -0.13324562
000150 5b 6d a0 3b 91 f4 d3 3b d7 e6 55 3e 72 a9 75 be
       0.0048958487 0.0064683636 0.2088884 -0.2399042
000160 4b f6 8b be 33 cd 19 bd 39 fe 00 bd 20 26 15 3e
       -0.27336344 -0.03754921 -0.031492446 0.14565325
000170 80 fd 66 3d 24 3f 1d bd 07 99 e5 be e2 ad be 3e
       0.0563941 -0.038390294 -0.44843313 0.37242037
000180 a0 32 84 be 37 bc 06 3e de d1 7b bd 4a ac d7 3d
       -0.25819874 0.13157736 -0.06147944 0.105309084
000190 07 42 0e 3e 14 80 27 3e 25 e2 55 3d 5c 96 13 3e
       0.13892375 0.16357452 0.05221762 0.14412826
0001a0 22 d8 45 bd 5d 62 58 be 03 73 9b 3d cc fc b5 3d
       -0.048301823 -0.21131273 0.07590296 0.08886108
0001b0 56 b0 4c bf e5 e5 42 3e 42 36 38 3d 0c 17 5b 3c
       -0.7995657 0.1903301 0.04497362 0.013372194
0001c0 7f ff 96 3e d5 fe 0e bd 69 25 41 bd 65 b5 35 3e
       0.29491803 -0.034910996 -0.047154818 0.17744978
0001d0 ed 39 d1 3b f4 dc c2 3d bf 6f de bc b9 f2 fc 3d
       0.006385079 0.095148 -0.027152894 0.12350983
0001e0 95 2b 6e bd d7 64 f0 be 0f 23 72 bc c6 44 ae bd
       -0.05814703 -0.46951935 -0.014778866 -0.08509211
0001f0 4e 7a 48 3e c4 0d c8 3d 39 70 0c be 6b 34 f8 3d
       0.19577906 0.097682506 -0.13714685 0.12119373
000200 19 bb 87 3e ed 0d 13 3e 0e b7 10 be c0 f5 91 bd
       0.26509932 0.14360781 -0.1413233 -0.07126951
000210 52 83 36 3d f1 58 9c 3d cb 2c 53 bd 7f d5 1e 3e
       0.04455883 0.07634152 -0.05155639 0.1551113
000220 43 51 c1 3d 32 74 0b be 35 69 d0 bc bd 72 6c 3d
       0.094393276 -0.13618544 -0.025440792 0.05772661
000230 96 d2 84 3d c5 84 9b bd ff 96 b3 3c 8d bc 89 bc
       0.064854786 -0.07593683 0.021922586 -0.01681354
000240 bc ad a5 bb 41 3f a0 bd 24 7e a3 bd cf ed e7 3f
       -0.005056111 -0.07824565 -0.07983044 1.8119448
000250 a4 2d 85 bc ef 22 14 3f cc d4 03 3e ae cf ab bd
       -0.016257115 0.57865804 0.12874144 -0.08389221
000260 3c 2f 80 3f e2 16 9b bd 37 be 02 be 3f 05 bd 3d
       1.0014415 -0.07572724 -0.12767874 0.09229516
000270 dd e1 f1 be f3 e5 15 be 68 e2 b1 bd 43 84 8b 3e
       -0.47242633 -0.146385 -0.08685762 0.27249345
000280 39 6f af 3b 85 68 e8 3e 6e 6c e6 3d a4 95 b1 3e
       0.005353835 0.45392242 0.1125115 0.3468448
000290 2f 8c fd be 22 69 6f 3d 4e ff c3 3c 22 b5 24 be
       -0.49521014 0.05844987 0.02392545 -0.16084722
0002a0 69 92 41 3d 10 82 cc 3d 4d a0 c5 bd 56 d3 bf bd
       0.04725877 0.09985745 -0.096497156 -0.09366481
0002b0 62 04 fe bd 8b ac 39 be f9 45 0e 3c 5a 01 8b 3b
       -0.1240318 -0.18132226 0.008683675 0.0042421045
0002c0 ef c1 aa 3e 51 7c e6 bd bd 43 26 c0 ba db b3 3c
       0.33351085 -0.1125418 -2.5978844 0.02195536
0002d0 cc 03 c7 bd 41 3e 0a be 19 cb 94 bd 5c f2 79 3c
       -0.09717521 -0.1350031 -0.072653 0.015255537
0002e0 53 91 0f 3e c2 73 cc 3e de 51 6e 3d 7f f4 f9 bc
       0.1402028 0.39932066 0.058183543 -0.030512093
0002f0 cc 25 b9 3c fe 0e ea 3c cf 8b 34 3d 7f 1c 03 be
       0.02260103 0.028571602 0.044078644 -0.12803839
000300 96 f1 23 3e d3 e8 d3 bd 06 d8 3e bd 69 87 0b be
       0.16010126 -0.10347142 -0.046592735 -0.13625874
000310 27 03 fc 3d 53 7d 77 bd 4d d9 82 3d 33 13 36 be
       0.12305289 -0.060422253 0.06389103 -0.17780761
000320 72 df e4 be f0 b2 3f b9 ed e2 41 3e 28 0a 18 3d
       -0.44701725 -0.00018281839 0.18934222 0.03711906
000330 71 f1 96 3c c6 31 ed bd 2b 82 f8 3d cc 5f c3 3c
       0.018425675 -0.11581759 0.121342026 0.02384939
000340 09 6a a4 3e 16 2e 47 3e 04 74 58 3e 87 16 b7 3d
       0.32112148 0.19451174 0.21138006 0.089398436
000350 a6 b7 05 3e 74 06 62 3f e1 79 80 3d 00 1c a0 bd
       0.13058338 0.88291097 0.062732466 -0.078178406
000360 dc f4 69 3f 97 4c 52 bd 75 26 ac 3e 7f 3f 79 bd
       0.9138925 -0.051342573 0.3362309 -0.06085157
000370 c7 af 29 3e a2 f3 ef 3c d4 a9 c9 bc 86 ef b3 bd
       0.1657096 0.029290978 -0.024617113 -0.0878592
000380 de 17 af 3d 82 5c 3c 3f 6a 66 7a bd 7d 5d bc 3e
       0.08549474 0.73578656 -0.061132826 0.36790076
000390 58 4b 87 bd 61 bc 2c 3e d9 fe 1c 3e 2d a9 f1 3c
       -0.066061676 0.16868736 0.15331592 0.029499615
0003a0 50 d5 98 ba 33 45 84 be 27 a7 02 be 02 04 04 3e
       -0.0011660252 -0.25834045 -0.12759076 0.12892154
0003b0 03 e3 79 40 20 aa 0d bd 28 76 34 3d 0d 35 ec bc
       3.9044807 -0.034586072 0.044057995 -0.02883389
0003c0 0b ab 94 3f 12 34 16 3e fb 80 ef 3e da 44 91 bc
       1.1614698 0.14668301 0.46778092 -0.017733026
0003d0 cd 3f b0 3e a0 4b de 3d c9 fd 50 be 37 51 d0 3d
       0.34423676 0.10854268 -0.20409311 0.101717405
0003e0 d9 9b 82 be 8e 25 3c 3d f3 c2 58 3e ce b4 7c 3f
       -0.25509527 0.045934252 0.21168117 0.98713386
0003f0 36 67 2d be 88 d0 2b bd f0 7b 86 3d 7f 70 97 3d
       -0.16933903 -0.041946918 0.06566608 0.07394504

bias f4 [8]
000000 48 9e 68 bc c8 f2 4d bf 17 c5 46 3e 34 87 6e 3e
       -0.014197893 -0.8044858 0.19411121 0.23293763
000010 71 70 53 3e 34 d3 9e 3e 4c fb 58 be 02 f7 08 bd
       0.20648362 0.3102051 -0.21189612 -0.03343869
