awesome_parameters.pt (torch, 51495 bytes, 8 tensors)

weight f4 [64, 42]
00000000: bba7 8fbd 1060 983c 265f c5bd 1903 bdbb
00000010: 65af be3d 093f 733d 3dec 3cbc da1b 0d3c
00000020: c581 413d 6c06 483e e235 203e 6624 ca3d
00000030: c26c 4cbc 563c 183c eb94 d23d e1cf f1bb
00000040: 38d4 72bd 48c9 f5bd f628 0cbe 91ad 9ab9
00000050: 545e 74bd 96a3 133d beab b8bd d956 93bd
00000060: 80b4 47be cd3b d9bc 8f77 b33c fbee 8b3e
00000070: d207 503d d3c1 e4ba 7fc5 d23c 8ce1 21bd
00000080: 176f e73d b868 d6bd f614 333c 7632 e83d
00000090: 0b20 b13d 7399 e3be a1b6 eabe 4f3b a23e
000000a0: 76f1 aabe 3355 b8be 4214 b6bd 1e19 7ebd
000000b0: c08f 9dbd 2f8d 6a3d 683b 00be d9d0 cf3d
000000c0: 274d 8ebc 940d 5ebb 7ce6 1e3d 7f89 353c
000000d0: a980 68bd 6539 c9bd 775b 2a3d b50e e13d
000000e0: 11ae 52bd 73c2 42be 67a4 e8bd 0b36 2cbd
000000f0: 3dec 09be ced8 503d 4cdd 9d3a 888f 2c3d
00000100: e2a6 5b3d efca 193e 6464 10bd d79d 5f3e
00000110: d41a ea3d 798d d93d 7eee 043c 1e02 e23d
00000120: 1798 92bd 96cd 743d 1643 b0bc 161b cdbd
00000130: 4025 9d3c b6e3 d63c 450a 0dbe f32b 5d3e
00000140: c4ef eb3c 29a9 3abd bc01 9cbd f802 8c3e
00000150: 38bd 563d 0d91 dd3b 2237 e43d 3b36 89bd
00000160: bb7a 43bd 54b4 9d3d 0db1 96bc 29c8 23be
00000170: f56a e73d 7559 17be c46a a2bd 6a8b 683d
00000180: ac1e dfbb 8cc1 b73d cd3a a63d e622 dbbc
00000190: 3a87 ad3a bcdb dfbd ffe4 f53d 8d67 37bd
000001a0: 5f56 28be 3d3c e03c bb3d f8bd baa9 1d3e
000001b0: f4c6 f23d 54fb 2cbd 55eb e0bd 8acd 97bd
000001c0: 1fae 38bd eae9 50bd 6cea d0bd a57e 513d
000001d0: ff6d 8abd 9a73 62bc 44cf 873c 55cf ecbd
000001e0: 9bc0 07be a179 e13e d3a3 873e c17f 48be
000001f0: ab12 ba3d 8ddc ac3c 7124 8abd c763 1d3e
00000200: cd14 03be 5bb4 8c3c fda2 cc3d 51e4 c6bc
00000210: 07cc 633d 8ff9 efbd 0743 4e3d fe7c 233e
00000220: 351e 493e ab95 54bc 414f 06bd 32d9 ad3c
00000230: d3c4 e3bd 844e 23be c9a6 8cbd 5e53 febe
00000240: c637 fabd 1d6b 05be c76b 01bd d622 b3bd
00000250: f6f7 343e 3370 b13b df64 233e 0ee4 253e
00000260: 506b 2bbd dff7 d3bc 9456 0b3e f6b1 af3c
00000270: d9d9 373d 908a 603e d2f8 063e d61e 153e
00000280: b037 cb3d cc5e 0d3c 6f0d f33d 1942 fdbd
00000290: 98ca 3cbd a5e9 573c 61f0 a4bc cace e23b
000002a0: 8a39 033e b865 ccbd aab8 17be 1752 26bd
000002b0: 1760 dfbc 782b 063e 35e7 453d e681 e03d
000002c0: 7e6f a6bd e510 ee3a 7ed6 55bd deff edbd
000002d0: a2cf 96bd 7c37 ce3d b463 6b3d f061 70bd
000002e0: 1ae2 043e 3a6f 0e3e f6fb 97bd a67a e23d
000002f0: 4a81 04be 3015 babc 94b2 cd3d f2d0 583e
00000300: 4f8c c43c 843b 09be 4925 303d d2f5 36bd
00000310: 1d16 30be 723c 14be 488a b13b 0418 63bd
00000320: 981c bbbd 3353 96bd 1767 11be 3a18 573b
00000330: 531c 083e 9009 0dbe 8df5 343e 63c7 403e
00000340: fcc4 05bd a733 a43d c77c 3fbe 15f1 56bd
00000350: 9954 03bd fbdc 13be 6000 3dbd 2a55 28bd
00000360: 9c74 35bc 41b9 f53d 7f5b 963d 4188 4abc
00000370: df90 debd c7d7 2dbd 04ef 913c 1814 25be
00000380: ff3f a7bd 11bd c63d b0e7 1a3e 6bfa ca3e
00000390: 55a7 35bd 4cfc 05be ad56 d63d 66b9 b3bd
000003a0: c1f1 1cbe 6ba1 02bd 8195 553e 8b01 2d3e
000003b0: c4ec 193d 3201 423d 5c73 993b a162 593d
000003c0: 8319 433d 26bf bb3d 33bb 923d 4dcf babd
000003d0: 89b6 c2bd 36d7 3f3b 2cdc 1dbd a531 033e
000003e0: 6489 6f3d a644 40be 0677 c2bc c3aa 033e
000003f0: e5c0 eebd df4b 80bd 2a5f a238 dc9e 48bd
-0.07014414 0.018600494 -0.09637289 -0.0057681915 0.093107976 0.059386287 -0.011530933 0.008612597
0.0472429 0.195337 0.15645555 0.09870224 -0.012477102 0.009291729 0.1028231 -0.0073795174
-0.05928442 -0.12001282 -0.136875 -0.00029502486 -0.05966027 0.03604468 -0.09017132 -0.07194299
-0.19502449 -0.026517773 0.021907596 0.27330765 0.050788708 -0.0017452784 0.02572894 -0.03952174
0.113004856 -0.10469192 0.01093029 0.1133775 0.0864869 -0.4445301 -0.4584246 0.31685874
-0.33387345 -0.36002502 -0.088905826 -0.062035672 -0.07693434 0.05726355 -0.12522662 0.101472564
-0.017370773 -0.0033882605 0.038794026 0.011080145 -0.056763325 -0.098254 0.041591134 0.10989133
-0.051435534 -0.19019489 -0.11359482 -0.042043727 -0.13469024 0.05098801 0.0012044101 0.04212907
0.05362595 0.1501882 -0.03525199 0.21837555 0.11430898 0.10622687 0.008113502 0.1103556
-0.07157915 0.059766375 -0.021516364 -0.10014932 0.019182801 0.026231628 -0.13773449 0.21598797
0.028800853 -0.04557148 -0.07617518 0.27346015 0.052426547 0.006761676 0.11143328 -0.06699797
-0.047724467 0.077004105 -0.018394971 -0.15994324 0.11299697 -0.14780219 -0.0793052 0.05677358
-0.0068090763 0.08972463 0.08116684 -0.02675004 0.0013239153 -0.10930583 0.12006568 -0.044776488
-0.16439198 0.027372474 -0.12121149 0.15396777 0.118543535 -0.042231873 -0.10982386 -0.0741225
-0.04508793 -0.051004328 -0.102009624 0.05114617 -0.06759261 -0.013821507 0.016578324 -0.11562983
-0.13257067 0.44038108 0.26492175 -0.19579984 0.09085592 0.02110126 -0.06745232 0.15370093
-0.12800904 0.017175844 0.09992025 -0.024278792 0.055614498 -0.117175214 0.05035689 0.1596565
0.1964043 -0.012975137 -0.032790426 0.02122173 -0.111215256 -0.1594792 -0.06867749 -0.4967298
-0.12217669 -0.13029142 -0.031596925 -0.08746879 0.17672715 0.0054149865 0.15956448 0.16200277
-0.041850388 -0.02587503 0.13607246 0.021447163 0.04488549 0.21927857 0.13180855 0.14562544
0.09922731 0.008628558 0.11867797 -0.12366123 -0.046091646 0.013178264 -0.020134153 0.006921624
0.12814918 -0.09980339 -0.14816537 -0.04060563 -0.027267499 0.1310252 0.0483162 0.10962276
-0.08126734 0.0018162994 -0.05220651 -0.116210684 -0.073638216 0.100691766 0.05746813 -0.05868715
0.12976876 0.13909617 -0.074211046 0.110585496 -0.12939945 -0.022715181 0.10043827 0.21173456
0.023992686 -0.1340161 0.043004308 -0.044668026 -0.17195936 -0.14476183 0.0054180957 -0.055442825
-0.09136313 -0.07340088 -0.14199482 0.0032820837 0.13292055 -0.13773179 0.17671795 0.1882606
-0.032658562 0.080176644 -0.18699943 -0.052476007 -0.0320631 -0.14439766 -0.046142936 -0.041096844
-0.011075165 0.11998225 0.0734167 -0.012361587 -0.10867476 -0.04244211 0.017814167 -0.16120946
-0.08166503 0.0970403 0.15127444 0.3964418 -0.044349033 -0.13084525 0.10465751 -0.08775596
-0.15326597 -0.03189222 0.20857812 0.1689512 0.037579313 0.04736442 0.0046829414 0.053072575
0.04763175 0.09167318 0.07164612 -0.09121571 -0.09507472 0.0029272563 -0.03854005 0.12811907
0.058480635 -0.18776187 -0.023738395 0.12858109 -0.116578855 -0.06264471 7.742488e-05 -0.048979625

bias f4 [64]
00000000: 1794 ca3e 0ae8 79bb 9194 183e 3b98 c1bc
00000010: 8da6 3c3e 1ff6 633d 383a 03be d7f3 cb3e
00000020: 6cb9 2c3e 46db 903e d107 133e aae5 25bc
00000030: 9b3d 423e 8555 dc3c d98e bf3c ec11 8b3e
00000040: 7329 343e 470d 49bb 4e8c c83e 2654 0bbd
00000050: 3891 983e e908 27be 2f73 9c3e 9d8d 4e3e
00000060: 1d9b a43c 5d19 ab3d 6e26 e63d 67b2 303e
00000070: 6109 493e ea8c 083f d495 3fbe abef 583d
00000080: 96c7 fa3d 02a2 f03e 68d2 733e 6619 003f
00000090: c390 2f3e 6ff3 bdbc 54dd 543e fd55 88bd
000000a0: ef92 6fbd c9ca 413e ea92 f13e 8440 2b3c
000000b0: 5364 a03e 1f89 4a3e 6dae bf3e f53d 0b3e
000000c0: c8a7 76bc 2ffd aa3e 60eb 053e 7fba e83c
000000d0: 7e38 3b3e 691a 0f3f b851 adbc 26ee 463d
000000e0: 742b 893e 90b4 c33e 028c f6bc 88d7 edbd
000000f0: 3bd0 0ebe 48fb 793e e345 753d 112e 91bc
0.3956611 -0.003813269 0.14900424 -0.02363216 0.18422909 0.05565464 -0.12815177 0.39834473
0.16867608 0.28292292 0.1435845 -0.010125557 0.18968813 0.026896248 0.023383545 0.2716211
0.17593937 -0.003067808 0.39169544 -0.034015797 0.29798293 -0.16311993 0.30556628 0.20171209
0.020093495 0.08354447 0.11237799 0.17255555 0.19632484 0.5334002 -0.18709499 0.05296294
0.12245099 0.46998602 0.23810732 0.50038755 0.17145066 -0.023187367 0.20787555 -0.06657026
-0.058489736 0.18925013 0.471824 0.010452393 0.3132654 0.1977887 0.37437764 0.13597853
-0.015054651 0.3339629 0.1307807 0.02840924 0.18283269 0.55899674 -0.02115713 0.04856696
0.26790965 0.38223696 -0.030096058 -0.11613375 -0.13946621 0.24412262 0.059881102 -0.017722161

weight f4 [64, 64]
00000000: 9830 133e 840a b43d abb6 f8bd acd9 63bb
00000010: 5cf1 443e 29cb 143d b619 dfbd 79cb 15bd
00000020: 7807 e73d ffec 573e 27fe 003c 3539 333d
00000030: 9213 92bb 4e18 8dbd 3816 ef3d 9755 f4bc
00000040: 3093 9dbc 6888 a6bd 2196 e33d 881f 203e
00000050: e4a9 ae3d a8ee 003d 4ac4 21bb 0728 67bd
00000060: dadc 0c3e 7616 bf3c 9ede cc3d ac2e 6ebd
00000070: 6fd7 4e3e 08e2 0b3e fa6d 193e eb6f e9bd
00000080: dd7f 3ebd c5ae e9bb f5e1 98bd 8689 76bd
00000090: cec3 dd3d 002e d3bd c20f 993d dd42 8d3d
000000a0: dc17 a23d 52fb ec3d 0ffd 05be 6f68 12bd
000000b0: c27d f4bd 15fc 3d3e d0e4 b53d 7907 543e
000000c0: 2774 61bd 70f1 1cbe 6c4f 8d3d 76c4 db3d
000000d0: 3162 43bd 625c 8d3e b4aa a5bc 9c52 4a3d
000000e0: 017b 453e e151 5d3e aa79 18bd f2f4 243e
000000f0: 2374 8fbd 6358 efbd ea24 923d 9eb4 03be
00000100: b37f 49bd 3a4e 003e ac43 133d 141b 3ebd
00000110: 0663 acbd 7729 223e 7730 95bc 5851 0fbd
00000120: 9bad 2a3d 0af6 4e3d 883f ca3c 254b 86bc
00000130: 11ab 053c e956 073d bf6b 243e dc3e 2e3d
00000140: c577 ebbb a2d8 4c3d c7fd a7bb 6abc 4dbb
00000150: 7150 673d c050 cc3c 716a c83d 42c6 e43d
00000160: 2b91 8c3d fc65 273e 4e7d 843c b4eb 63bd
00000170: 3c6e bebd 4d0f 85be dc3e 98bd aa64 ee3d
00000180: 8d19 0c3d 2d34 d5bd ee2d 8a3d 3272 acbc
00000190: 0758 e13d 3622 81bd 588d 853d dd65 a63d
000001a0: 361a 393e b032 4c3d 1500 d7bd 1f18 94bd
000001b0: 2180 293d 5d4d 793d 5c83 08bd 9194 343d
000001c0: b425 71bd e71f a6bd 50a3 093e 4fd2 753c
000001d0: 643e 4bbc 984a 3abd f436 aebd 12a1 5ebd
000001e0: 3e15 3d3d 4caf a9bd 7e82 273e 75fb b3bd
000001f0: 7b4b 8d3d 96a4 33bd 632f 0b3e 872f c7bd
00000200: 4a9c f43d 61db cdbd 6080 8d3d d810 f83c
00000210: 23be ad3d a719 95bd df47 fa3d ab22 cabd
00000220: 766d 8d3c 5b76 63bd d17a 403d 88e5 cfbd
00000230: aa34 4abd 40a3 5ebd b4d6 b2bd 3915 453c
00000240: c498 acbd 7b6a ee3d adfb 95bc 1f93 993d
00000250: bbb9 163e 2953 483d 8c20 2dbd 5add f3bd
00000260: 0637 353d 8c51 91bd 4155 a8ba c530 4d3a
00000270: 9706 78bd 03c8 0abe c580 ce3d 8f9d c0bb
00000280: 9cd9 52ba 2b5a b73d a23f 90bb 5a4a 0c3e
00000290: 04f4 243d e5b3 283d 47c8 c9bd 216c 0b3e
000002a0: a63b 09bd 8346 b9bd 8abe 0dbd 80a2 93bd
000002b0: aa8c 723d 85c4 a5bd 7df1 94bd 9576 fe3d
000002c0: 16f0 fc3d a027 a23c 2972 c1bd 58b9 173c
000002d0: dc6f d2bd 197e b1bd d63e b0bc b626 cb3d
000002e0: cd0d d6bc b103 bdbd 24a2 c33d 38b6 43bc
000002f0: e77f 09bd afd3 dbbd d4f7 e9bd cc21 bd3d
00000300: 84c0 b33c f81e b43d 8869 833d 9c31 abbd
00000310: 37fb 2f3d 8889 bdbd 0780 03bb 24a7 bcbd
00000320: 11ce cebd d9cf a53d 7a00 20bd 458c b73c
00000330: f13b 05bd 8bc6 353d 15a5 a13d ab90 c8bd
00000340: 9a5e 86bd c9a3 cd3d 7bc3 0d3d dac3 f0bd
00000350: 7ef6 47bd 150f 9b3d 9765 34bd 9621 99bd
00000360: 8123 6b3d d927 ec3d 1580 acbd c644 fbbc
00000370: 27f0 a0bc 3d68 b7bc 5ef2 f8bd 65b4 93bc
00000380: b5b7 7f3d 1a73 5e3d 59cc 243d 9055 01bd
00000390: b133 53bd bc32 cdbd 9381 93bd 9686 0e3d
000003a0: f9f0 61bd 4e18 c83b d953 8abb ca57 c4bd
000003b0: 3eaa 283d e902 723d cb5d babc 43f4 223d
000003c0: eac2 af3d 09d9 ddbd 3eaa c5bd 5413 453d
000003d0: 0b0f 0cbd 0f14 c9bd 361e a43d 129a 07be
000003e0: 57cb 38bd 542e 91bd 64ca ecbd 0f93 58bd
000003f0: 1f54 aabd 8fb0 0d3e e93e 533d d9c9 74bd
0.14374006 0.08791068 -0.12144216 -0.0034767194 0.19232696 0.03632656 -0.10893576 -0.036571
0.112807214 0.210865 0.007873095 0.04375573 -0.0044578994 -0.068894014 0.1167416 -0.029825969
-0.019235224 -0.08131486 0.11112619 0.15637028 0.08528498 0.0314776 -0.0024683648 -0.056434657
0.13756123 0.02332614 0.10003398 -0.05814998 0.20199369 0.13660443 0.14983359 -0.113983
-0.04650866 -0.00713143 -0.07464973 -0.060189746 0.108283624 -0.10311508 0.07473709 0.06897519
0.07914707 0.11571373 -0.13084815 -0.035744127 -0.11938049 0.18553193 0.08881533 0.20705976
-0.055042412 -0.15326476 0.06899914 0.10730831 -0.047701064 0.27609545 -0.020223 0.04939519
0.19285204 0.21613266 -0.037225403 0.16109064 -0.07004573 -0.1168678 0.07135947 -0.12861869
-0.04919405 0.12529841 0.03595321 -0.046412542 -0.08417325 0.1583613 -0.018211586 -0.034989685
0.04166947 0.05052761 0.024688497 -0.016393254 0.008158461 0.03304187 0.16056727 0.042540416
-0.0071859085 0.050011285 -0.005126688 -0.003139282 0.0564732 0.024940848 0.09785927 0.11170627
0.06863626 0.16347498 0.016173031 -0.055644706 -0.09298369 -0.25988236 -0.074338645 0.11640294
0.034204055 -0.10410342 0.06747042 -0.021050546 0.11003118 -0.06305353 0.065211 0.08124898
0.18076405 0.049853027 -0.104980625 -0.07231163 0.04138196 0.060864795 -0.0333284 0.044086996
-0.058873847 -0.08111554 0.13441205 0.015003755 -0.012405012 -0.045481294 -0.08506575 -0.054352827
0.046162836 -0.08285388 0.16358373 -0.08788196 0.068991624 -0.043858133 0.13592295 -0.09725862
0.11943872 -0.10051609 0.06909251 0.03028147 0.08483531 -0.072802834 0.122207396 -0.09869894
0.01726411 -0.055532794 0.046992127 -0.101512015 -0.04936663 -0.054354906 -0.087323576 0.012028986
-0.08427575 0.11641403 -0.018308485 0.07498764 0.14719288 0.048907433 -0.042267367 -0.11907454
0.044241928 -0.07095632 -0.001284279 0.00078273966 -0.06055316 -0.13552861 0.100831546 -0.0058781574
-0.00080432906 0.08952745 -0.004402117 0.13700238 0.040271774 0.041187186 -0.09852653 0.13615467
-0.03350415 -0.09046652 -0.03460554 -0.07208729 0.05921618 -0.08094124 -0.07272623 0.124249615
0.1235048 0.019794285 -0.094456024 0.009260498 -0.10275242 -0.08666629 -0.021514338 0.09919493
-0.026129628 -0.0922922 0.0955241 -0.0119453 -0.033569243 -0.10733735 -0.114242226 0.09234962
0.021942385 0.08794969 0.06416613 -0.083590716 0.042964187 -0.09254748 -0.0020065324 -0.09211567
-0.10097898 0.080962844 -0.039062954 0.022405753 -0.032527868 0.0443788 0.07892815 -0.09793218
-0.065610126 0.10041005 0.034610253 -0.11756106 -0.048819058 0.07571236 -0.044042196 -0.07477109
0.057406906 0.11531038 -0.08422867 -0.030672442 -0.019645764 -0.022388572 -0.12155603 -0.018030355
0.062431056 0.05430899 0.040233944 -0.03157574 -0.05156297 -0.100194424 -0.07202449 0.03479632
-0.05516145 0.006106413 -0.004221421 -0.09587057 0.04117798 0.059084807 -0.022749802 0.039783727
0.08582099 -0.10832412 -0.09651612 0.048114136 -0.034194034 -0.09818279 0.08013575 -0.13242367
-0.045115795 -0.070889145 -0.115620404 -0.05287462 -0.08316826 0.13836883 0.051573668 -0.05976281

bias f4 [64]
00000000: bc0b 36bd ca8f 21bb fb7e dc3d ebb3 d2bd
00000010: b506 123d ad60 8d3e 9733 793e 3ac9 0ebd
00000020: 6196 8cbc d4be 8d3c a02d bc3b 0b3a a9bc
00000030: dba5 623e db61 893d 3fdd 5bbd adda 333e
00000040: 2970 5d3e 6285 a13d b234 59bd 0d3d 863d
00000050: fecc 72bd 2122 dcbd 1244 e23c e31f 813e
00000060: 8732 243d 4f31 08bd 60fc 5e3e bc83 343e
00000070: df83 2f3e d9ea 34be a334 123e 4299 9a3c
00000080: e76e 76bd bbbc e13e 18b7 0e3e be33 f53d
00000090: a92e 743e 1bf4 69bd 6c8c cfbc 4487 2a3d
000000a0: 0307 023d 2f41 b0bc df32 693e 467d 373e
000000b0: 1191 b13d c818 5ebe 8536 f03c 084e 133b
000000c0: ac2c 7b3e eede 263e 5722 8b3d e1a9 f83b
000000d0: 950a 603e fb36 8e3c b516 433e 91ff 6ebc
000000e0: f278 503e ae51 e2bd d6a4 2f3e 0ebf f93c
000000f0: 1463 f53d 90f3 e0bd da4f 723e 191c d73c
-0.044444785 -0.0024652355 0.10766407 -0.10288223 0.035650928 0.2761282 0.24336086 -0.034859873
-0.01716155 0.017302908 0.0057427436 -0.02065756 0.22133581 0.067081176 -0.053677794 0.17563887
0.21624817 0.07886769 -0.05302877 0.06554613 -0.059277527 -0.10748697 0.02762035 0.2521964
0.04008725 -0.03325015 0.21775961 0.17628378 0.17140149 -0.17667712 0.14277892 0.018871907
-0.06016436 0.44089302 0.13937032 0.1197276 0.23845924 -0.057117563 -0.025335513 0.041632906
0.03174497 -0.021515457 0.22773312 0.17918882 0.08670247 -0.21689141 0.029322872 0.002247693
0.2452876 0.16295978 0.06793659 0.0075886105 0.21879037 0.017360201 0.19051631 -0.014587299
0.20358637 -0.110507354 0.17152724 0.03048661 0.11981788 -0.10983956 0.23663273 0.026258515

weight f4 [64, 64]
00000000: 7a5e b1bd 1baf b7bd 0051 c0bd 5813 b4bd
00000010: 36f8 1d3c d103 c63d ec6a ffbc 5622 713d
00000020: 3cbf e2bd 396a e33c 38ed 9ebd c183 e0bd
00000030: ac78 8bbc fe51 0e3e bfe8 8f3d 9d06 babc
00000040: 2447 5abd fac2 d2bd a4d0 d6bd 8308 78bd
00000050: 04e4 3c3d 4a19 e43c 594c dc3c cae3 ef3d
00000060: 28e7 3cbd a0e2 abbd 39f8 a43d 895f 013c
00000070: 0461 e7bd 4913 173c b7af 023b 5e8e aabb
00000080: 8a5e 173d 7ec6 053d bd62 6c3d 566c 8bbd
00000090: 05b4 c33d d806 aebd 8cd4 75bd 962b e73d
000000a0: 18de a63d 7ca1 d4bd d9dc 443e ee09 db3d
000000b0: 766d ce3d 5e4d 1ebd f491 24be 3ffa 48bc
000000c0: 1c1f 3aba 2c00 2dbd 47ee e7bd 45c4 923b
000000d0: 714f 113d 85ad b3bd 8b85 b1bc 6815 2dbe
000000e0: 9177 103e e9de 8d3d e070 02bd c4aa 6e3d
000000f0: 39e7 d93d 80fe 5bbd 970e c03d 1a29 9ebd
00000100: eb16 44be 52c0 2d3e 7706 0e3e a50a 94bd
00000110: 7657 fa3d 9214 bd3d 2c55 3d3e 1614 703d
00000120: b125 6abb e85c 5b3e afe4 243d 7d29 11be
00000130: 1cd4 66bd c9a6 973d 523a a73c 31fb 39bc
00000140: af4f 593d cb44 d2bd c2ab 26be 528a 6fbd
00000150: 36fe 96bd 2ee4 f83c ddda 843e 865c 14bd
00000160: ee9c 07be ebcc c53d 587f 163e e546 acbc
00000170: 9de9 d5bc 8b63 4bbe 9f21 c03c ffc6 c9bd
00000180: 566c 8dbd 7d89 7c3e e60d 5abd b9a9 e93d
00000190: b2f0 03be ad26 1abe 99e9 c7bd 6cd3 f0bd
000001a0: e60b 3abc d86d 81bd e156 463d 38f4 6f3e
000001b0: ea62 a93d 4821 773e 7328 75bc 8ea7 3dbd
000001c0: 52f2 ab3a 24fd 573e 6541 1ebe 8f27 b33d
000001d0: 763d 283c a235 8b3c f969 373e 677f 773b
000001e0: 3d55 4ab9 21bf 623d 791e d3bc c534 3e3e
000001f0: 1cf2 20bd 8e3e 34bd 507b 4d3d a6a1 79bc
00000200: 87af eabc 8898 b43b 0cab 5c3d 6a71 b5bd
00000210: ecf8 6abb f5aa e4bd 9555 87bc 78d2 623d
00000220: 3a12 8cbc e643 c53d 9233 8f3b 349b 90bd
00000230: 97d1 193c 383d febd f1b7 e9bd c770 d2bd
00000240: 28d9 a2bc ba64 993d 326e a7bb aadd e8bd
00000250: 30a8 e9bd 060d b9bc 3c2f d8bd ec1e a03c
00000260: b86e 6bbb 7c1b a13d 7cdc ecbc d934 de3d
00000270: 02dd 77bd 7947 d6bd 75b8 10bd 9af2 813d
00000280: 78ac ce3d 6ab2 b83c d598 793d 6bda b4bd
00000290: 0539 4b3d a763 193d 5a3b 34bd c75d a93d
000002a0: b216 bc3d e7d9 a03b fe75 c0bd 7a5c d43d
000002b0: ea6e dabd 52c3 d5bb 484c d2bd 19e3 c4bd
000002c0: 4f0c edbc 45d6 e9bc 0bac 1abd ca38 d0bd
000002d0: abd9 e2bd af89 b13d d95e b3bd 316b 1eba
000002e0: cd6a 383d 18b9 9abd 2a72 973d 9fba 6bbd
000002f0: 933a bb3c 9236 303c 0ffe 92bd de39 b43d
00000300: 8cea c1bd 41fb d03d 9918 0e3e 39c2 df3d
00000310: 17e9 4f3d 7efa 963b 487c 1f3d a272 2a3e
00000320: 4ba8 a33c 08eb c3bc 2865 80bd bae1 97bc
00000330: f1d1 e33d a497 df3d 93d1 a13d 349e 73bc
00000340: bbe7 60bd 1ed9 193e eae4 a8bd 9448 bdbd
00000350: f29b ffbd 48bb c4bd 5ee8 ebbc f582 0fbd
00000360: 9c2b bd3b fd50 003e 653c 61bc ab07 a23b
00000370: db27 73bc 4bcc 3d3e 57c5 203e d7a0 dabd
00000380: e46e bcbd c0ce 24bd 6874 afbd 506c 263d
00000390: 12a8 d4bb abdf 173d 29e8 f33d e993 85bc
000003a0: d840 10bd 77e1 a73d edd1 79bd 501a 533d
000003b0: 2b90 e83d b784 2e3e 6eac 3ebc 67e7 27bd
000003c0: c01a 87bd f23d 213e fe97 abbc d91a 303e
000003d0: b8d5 9e3d 46e2 b73c ff23 983d 6f6e 683d
000003e0: ad56 2c3e 457a 043c dfb8 eb3b dcad 9cbd
000003f0: 3820 79bd 2aeb c43d be42 7d3d 310e c7bd
-0.08660598 -0.089689456 -0.093904495 -0.08792752 0.009641698 0.09668697 -0.031178914 0.058870636
-0.11071631 0.027760612 -0.0776009 -0.1096263 -0.017025314 0.13898465 0.07026815 -0.022708232
-0.0532905 -0.10291095 -0.10489014 -0.060554992 0.04611589 0.02784409 0.026891874 0.11713369
-0.046118885 -0.08392835 0.08055157 0.0078963125 -0.11297801 0.0092209065 0.001994116 -0.00520496
0.036955394 0.03266 0.05771135 -0.06807773 0.095558204 -0.08497399 -0.060017154 0.1128761
0.0814783 -0.10382363 0.19224872 0.10695253 0.10079472 -0.038648 -0.16071302 -0.012266695
-0.00070999726 -0.042236492 -0.11324745 0.0044789636 0.03547615 -0.087733306 -0.021670124 -0.16902697
0.14108111 0.06927282 -0.031845927 0.058268324 0.10639805 -0.053709507 0.09377783 -0.07722683
-0.19149368 0.16967896 0.13869654 -0.07228593 0.12223713 0.09232439 0.18489522 0.058612905
-0.0035728032 0.2142216 0.040257152 -0.14175983 -0.056354627 0.074048586 0.020413551 -0.011351393
0.053054508 -0.102670275 -0.16276458 -0.058481522 -0.07372706 0.030382242 0.2594823 -0.03622105
-0.13243458 0.096582256 0.14697015 -0.021029899 -0.026112372 -0.19862191 0.023453532 -0.098524086
-0.06905429 0.24661823 -0.05323591 0.11409325 -0.12884787 -0.15053816 -0.09761352 -0.117590755
-0.011355376 -0.06319779 0.048422698 0.23433006 0.082708195 0.2413379 -0.014963257 -0.04630237
0.0013118482 0.21092659 -0.15454634 0.087477796 0.01026856 0.016993348 0.17911519 0.0037765147
-0.00019295975 0.055358056 -0.025771366 0.18574817 -0.039293393 -0.04400497 0.050166428 -0.015236294
-0.028648151 0.005511347 0.05387406 -0.08859523 -0.0035853935 -0.1116542 -0.0165203 0.0553765
-0.017098535 0.09632091 0.0043701613 -0.07060853 0.009388349 -0.1241402 -0.11412037 -0.10275417
-0.019878939 0.07489915 -0.005109572 -0.11370404 -0.11409032 -0.022589218 -0.10555884 0.019545995
-0.0035924148 0.0786657 -0.028913729 0.10849924 -0.060513504 -0.10462851 -0.035332162 0.06345101
0.100914896 0.022546012 0.060936768 -0.088307224 0.049614925 0.03744855 -0.044001915 0.0826984
0.09184016 0.0049087885 -0.09397505 0.10369201 -0.106656864 -0.006523528 -0.10268456 -0.09613628
-0.028936533 -0.028544554 -0.03776173 -0.10167082 -0.11076673 0.08668839 -0.08758325 -0.00060431944
0.04502373 -0.07554835 0.07394822 -0.057551023 0.022855079 0.010755198 -0.07177364 0.088001
-0.094685644 0.10204173 0.13876571 0.10925717 0.0507594 0.0046074977 0.038936883 0.16645291
0.01997771 -0.023915783 -0.06269294 -0.018540252 0.111240275 0.10917595 0.07901301 -0.0148692615
-0.054908495 0.1502423 -0.08246787 -0.09242359 -0.12480916 -0.096060336 -0.028797325 -0.035037
0.005773021 0.12530895 -0.013747309 0.0049447617 -0.014841045 0.18534963 0.15700279 -0.10675209
-0.09200838 -0.040236235 -0.085671246 0.04063064 -0.006489762 0.03707854 0.119095154 -0.01630588
-0.03521809 0.08197301 -0.060991216 0.051538765 0.11355623 0.17042814 -0.01163779 -0.040992167
-0.06596899 0.15746287 -0.020946499 0.17197742 0.07755607 0.022446763 0.07428741 0.056745943
0.16829939 0.008085792 0.007193669 -0.076503485 -0.06082174 0.096151665 0.06183123 -0.09719504

bias f4 [64]
00000000: d165 523d ca0e 9a3e 82f7 f43b 81b0 8abd
00000010: 3f69 e8bd b987 2dbd 0e0d 4bbd 8821 3d3d
00000020: 8293 78bd 3d00 cf3d 06fb b33c 6312 3c3e
00000030: e97e 0d3e 5614 9cbb 3e0b 79bd 2d96 12be
00000040: 6db9 073e 3a0d 09bd 4263 9dbd 38e3 243e
00000050: f0a7 a23d e392 663e 49b4 2bbd 4e8c 1e3e
00000060: 5ac3 7f3e 53d8 753d 2bde b13c b682 5b3e
00000070: 3104 4d3d d10b 0abd f010 5d3e 8c8a a43d
00000080: 6ee6 cdbd 17e1 4e3e 39b2 c73c 9c26 223e
00000090: 80d8 863e 8bbe a03c dfef d43d 54f8 d2bd
000000a0: 5479 263c cd31 1f3e 71a6 20bd 165d abbd
000000b0: 0e26 8c3d 0dc6 0fbd fbaa be3d a53e 353e
000000c0: e504 053d 406b cfbd 14ac b0bd 2d72 4b3e
000000d0: 7ec7 1e3e 54eb 5f3e dd7e d8bd 70d3 d93c
000000e0: 83d1 813d 2d87 f73d d2e7 ae3e a1f7 d5bd
000000f0: 7eb9 d63d 7496 303e d85f 5c3e 8140 853d
0.05136663 0.30089408 0.0074757943 -0.06771947 -0.11348199 -0.042365763 -0.049572997 0.046174556
-0.06068755 0.10107467 0.021970283 0.18366389 0.13817944 -0.0047631664 -0.060801737 -0.143151
0.13254328 -0.03345988 -0.076849476 0.16102302 0.07942188 0.2251697 -0.04191998 0.1548321
0.24976864 0.060020756 0.021712383 0.21436581 0.050052825 -0.033702675 0.21588492 0.08034238
-0.100537166 0.20203052 0.024376975 0.15835041 0.2633705 0.019622108 0.10397314 -0.10301271
0.010160763 0.15546341 -0.03922123 -0.08367364 0.06843196 -0.035100985 0.09309956 0.17699678
0.03247537 -0.10127878 -0.08626571 0.19867773 0.15505788 0.21867114 -0.10571072 0.02659008
0.06338789 0.120863296 0.3416124 -0.10447622 0.104845986 0.17244893 0.21520936 0.06506444

weight f4 [8, 64]
00000000: c560 0f3d 8f9e 86bd 9a2b f93c 7ce6 593e
00000010: 0e62 76bd a209 153e 1b86 4b3d 7ce4 933d
00000020: 7320 a13d 0bc8 a73c 8e37 f03c 2aef a6be
00000030: cc05 fcbd db51 a03c 6652 d5bd 6d3b cc3d
00000040: a19e 9cbc 0ac2 3f3e b383 8b3d 8420 8ebd
00000050: aaeb 61bc 6573 bdbd d0d8 653d cf93 bebd
00000060: e535 98bd d992 84bd 21e1 92bd 710b b63c
00000070: d9bf 723d db34 4a3e 6c78 81bd c2e2 d1bd
00000080: 3f16 8f3c e4e5 27bd 7816 3e3e db34 4dbe
00000090: 7a88 57be 0c6f aa3d 9622 783d a6a0 ecbd
000000a0: 571f 1a3e 99d4 a7bc 8156 fc3d ea8f 343e
000000b0: 0df4 19be 22d6 a2bd 5a1a b23d d518 8f3d
000000c0: d10e 15be 4011 dd3d 4e65 ba3d b86e a8bd
000000d0: c667 22bd f79f 81bc 41e4 a0bd 1e65 0d3e
000000e0: 7940 eebd 795c 443e 7f83 46be b50d 6abd
000000f0: 8265 47be 610d 0bbe 3a99 80be 6708 abbd
00000100: 82ef 823b d413 b43d 115c a6bd 6af2 2ebd
00000110: 2891 c7bc bb46 9fbd b487 123b 3e77 9d3d
00000120: f422 743d f2de 7bbe 25f6 4e3d 46ff 193d
00000130: 336b 67be 815f 5a3e 649e 953d 3c65 06bd
00000140: 4d53 9cbe a335 29bc 682e 793e 80dc 563e
00000150: 54b6 b5ba ffaa 60bd 5be2 16be f238 5f3d
00000160: c271 4f3c 3f49 69bd 09e9 28bd c97c ae3d
00000170: 9dc2 d2bc ad46 01be dd1d ddbd bb49 e3bc
00000180: 8c61 e4bc f79e 353e 625b 4c3e d784 9c3a
00000190: 967e 84be 2834 9abd 3dd4 c0bd ec3d 403d
000001a0: 90f4 543d a3a3 04be cf9a 23bc 3b7a 0ebd
000001b0: 2800 66bc d6bf 77be 801e ec3d 3b52 cc3d
000001c0: b38e 89bd 4770 293d a4ee 66bd 2ecb 2d3b
000001d0: 5705 4a3d ede2 a8bc 5d61 8f3d 8373 373e
000001e0: a1f6 34bd d6c3 383e c269 c1bd 4ace 4abd
000001f0: 5723 873d 7635 98be 170a ebbe 9530 5c3d
00000200: 42ad f0bd 2e9a 2b3e eb06 ca3d 6119 3dbe
00000210: eacf 1b3d e64e 913a 6350 7bbe 4530 043d
00000220: 4292 e1bc 520d 033f 1ea4 813e a4d2 403e
00000230: dab4 1ebd 3b90 6dbe e472 f93d 68fc 853d
00000240: fc19 473e 8254 70bd e0db b1be b379 2d3e
00000250: 67e8 cbba e4af afbe 3523 aa3d 8c85 fe3d
00000260: 0c72 043e aca8 bf3e 4875 253c 7d1a 083e
00000270: c9a6 91be 34f5 eebd 0ac0 a93e 28f4 a5bd
00000280: 8736 a53d b93e 493e b669 4cbe 67f8 353e
00000290: c157 533e 5ef3 a43d f0c2 af3e 6492 43bc
000002a0: 0dd1 afbd 7b6f df3d 8218 00be 622a 69be
000002b0: 9a31 10be 8e78 c43d 3502 e9bd 468a 46be
000002c0: 61a9 c43d aac7 f4bd b94b edbc d4ad 4abd
000002d0: bc18 b13e c3f3 0b3e 41ec 83bb ab92 1bbe
000002e0: 1a51 afbe 154c 1a3e 4048 8b3e 85ea 233c
000002f0: 379d 5f3e 667b 22be f040 613e 1969 78be
00000300: 6068 323e ddd2 a6bd 2364 eabc e275 053e
00000310: c664 03bd a1bf dcbd 7a42 1b3e a23c 003e
00000320: baa2 f1bd a814 8dbe 2dfe eabc 8007 0a3c
00000330: 5afc b83c d867 0abd 0913 a8bb 2c5e ee3d
00000340: fb3f 413e db4f 0abe 5fe7 1c3e 5a29 59be
00000350: 67de debd 040b 233f f153 a2bc d59f a13e
00000360: 2cf3 90be 180c 143d 5be3 b13c 7739 5e3c
00000370: edaa 4a3f 0480 313d cb8a debd b50d 773e
00000380: ddc6 d83d e245 a2be c394 8e3c 4f56 4c3e
00000390: 5c01 963e 81fd 9abc 1c7f 8cbe 7dd2 c4bc
000003a0: dedb 3f3c aa09 0ebd 0ea3 e63d e8fe c63d
000003b0: 5ab5 a83e 1b8c b2bd 719f 2b3e 89da 68be
000003c0: d35a 733e 8ab3 ebbc 15d2 9dbd 7159 cbbe
000003d0: f5f5 b6be da31 9b3c 44cd 86bd 0751 41bd
000003e0: 238d 213f 35d6 6cbe 1dfa 3c3d b0cf adbd
000003f0: e2a3 57be c557 213f 091c 263f 7f5e 293e
0.035004396 -0.065732114 0.030416299 0.21279329 -0.060152106 0.14554456 0.04968844 0.07221314
0.07867517 0.02048113 0.029323366 -0.32604343 -0.12305793 0.019570282 -0.10416107 0.09972272
-0.019118609 0.18726364 0.06812229 -0.069397956 -0.013789097 -0.092505254 0.05611497 -0.09305536
-0.074321546 -0.064733215 -0.07171846 0.022222253 0.05926499 0.19746725 -0.06321797 -0.10248329
0.017466662 -0.040990725 0.18563259 -0.20039694 -0.21048155 0.08321962 0.06057986 -0.11554079
0.15051018 -0.020487117 0.12321187 0.17633024 -0.15034504 -0.07950999 0.086964324 0.06987158
-0.14556433 0.10794306 0.091013536 -0.08224243 -0.039649747 -0.015823347 -0.07856036 0.13808104
-0.11633391 0.191759 -0.193861 -0.05714198 -0.19472316 -0.13579322 -0.25116903 -0.08351212
0.0039958367 0.087928444 -0.08123029 -0.042711653 -0.024361208 -0.07777163 0.0022358717 0.07688759
0.059603646 -0.24596766 0.05052771 0.037596963 -0.22599487 0.21325494 0.07305601 -0.03281139
-0.30532303 -0.010327729 0.24334109 0.20982552 -0.0013863542 -0.054850575 -0.14734785 0.054497667
0.012661399 -0.05695462 -0.041237865 0.08519895 -0.025727564 -0.12624617 -0.107967116 -0.027745118
-0.027878545 0.17736422 0.19956735 0.0011941445 -0.25877827 -0.07529479 -0.09415481 0.046934053
0.051991045 -0.12953047 -0.00998564 -0.034784537 -0.014038123 -0.24194273 0.11529255 0.09976622
-0.06716671 0.04136684 -0.05637993 0.002651881 0.0493215 -0.02061602 0.070009924 0.17915158
-0.044180516 0.18043455 -0.09444 -0.04951314 0.065985374 -0.29728287 -0.45906135 0.05375727
-0.11751796 0.16758034 0.09864601 -0.18466713 0.03804008 0.0011086136 -0.24542384 0.032272596
-0.027535561 0.511922 0.25320524 0.18830353 -0.038746692 -0.23199551 0.12180117 0.06542283
0.19443506 -0.058674343 -0.34738064 0.16940956 -0.0015556932 -0.3431388 0.083074965 0.12427816
0.1293413 0.37433374 0.010098763 0.13291354 -0.2844756 -0.116678625 0.33154327 -0.0810321
0.08067041 0.19652833 -0.199622 0.17770539 0.20638944 0.08054231 0.34328413 -0.011936758
-0.08584795 0.10909935 -0.12509349 -0.22770074 -0.14081421 0.095933065 -0.11377374 -0.19388685
0.09602619 -0.119521454 -0.028966771 -0.04948218 0.34589183 0.13667206 -0.0040259664 -0.15192668
-0.34241563 0.15068085 0.2720356 0.010004644 0.21837316 -0.15867385 0.21997428 -0.24258842
0.17422628 -0.08145688 -0.028612202 0.1303325 -0.032078527 -0.10778738 0.15162078 0.1252313
-0.11798616 -0.27554822 -0.028685654 0.00842464 0.022581268 -0.03379044 -0.0051292223 0.116390556
0.18872063 -0.13507025 0.15322636 -0.2120718 -0.10882264 0.63688684 -0.019815417 0.31567255
-0.28310525 0.036144346 0.021714857 0.013563505 0.7916706 0.043334976 -0.108663164 0.24126323
0.10584805 -0.3169394 0.01740492 0.19954799 0.29297912 -0.018919708 -0.27440727 -0.02402615
0.011710135 -0.034677185 0.11261569 0.09716588 0.3295086 -0.08718129 0.16760041 -0.22739615
0.23765115 -0.028772134 -0.077060856 -0.39716676 -0.35734525 0.01894467 -0.0658212 -0.047196414
0.6310598 -0.23128588 0.046136964 -0.08486879 -0.2105861 0.6302455 0.6488653 0.16539954

bias f4 [8]
00000000: 5a82 c7be 8271 d53c 9ae2 ce3e c4a2 14bd
00000010: bf62 5e3e c9eb d53d f911 96be 1eaf 8b3e
-0.38966638 0.026055101 0.40407258 -0.036288038 0.21717356 0.10445363 -0.29310587 0.2728204
