optimised_parameters.pt (torch, 51523 bytes, 8 tensors)

weight f4 [64, 42]
0	0x3dfe2deb	0.12411102
1	0x3d1fda15	0.03902634
2	0x3c061b30	0.008185193
3	0xbcf2215e	-0.029556926
4	0x3d8849a0	0.06654668
5	0x3d981bf2	0.07427205
6	0x3e2a1a6f	0.16611646
7	0x3d9af11f	0.075655214
8	0xbd775368	-0.060382277
9	0xbc0dd87e	-0.008657573
10	0x3e4ee263	0.20203547
11	0xbd679f02	-0.056548126
12	0xbd21b6ed	-0.039481092
13	0x3d444ad5	0.047922928
14	0x3dc8719e	0.09787296
15	0xbddf5638	-0.10905117
16	0x3d178ea7	0.03700128
17	0x3da1a6e1	0.07893158
18	0x3e047a75	0.12937339
19	0x3de931c6	0.11386447
20	0xbdde30e2	-0.108491674
21	0x3c8f9c71	0.017530652
22	0xbe194f1d	-0.14971586
23	0x3e1c358d	0.15254803
24	0xbcb7391b	-0.022366097
25	0x3dbea800	0.09309387
26	0x3c23f2a3	0.01000658
27	0xbc84ce40	-0.016211629
28	0xbdf88c33	-0.12136116
29	0x3da4e47d	0.08051393
30	0xbe25868a	-0.16164604
31	0xbd565de1	-0.052335624
32	0x3d9ee746	0.07758956
33	0x3d09cb46	0.033641122
34	0x3d135240	0.03596711
35	0xbe0e75e4	-0.13912159
36	0xbd425209	-0.047441516
37	0xbdada0d3	-0.084779404
38	0x3e3c8066	0.18408355
39	0x3ca33b2e	0.01992568
40	0x3e97de0e	0.29661602
41	0xbe7617e1	-0.24032547
42	0x3e030863	0.12796168
43	0xbd803cde	-0.062616095
44	0x3e385d85	0.18004425
45	0xbcacb510	-0.021082431
46	0x3e4091ab	0.18805568
47	0x3d906330	0.070501685
48	0xbc5db4be	-0.013531862
49	0x3deee347	0.116644435
50	0x3e3e4756	0.185819
51	0xbd827f8c	-0.06371984
52	0xbe34af6b	-0.17645042
53	0x3c51fd2e	0.01281671
54	0xbde230a7	-0.11044436
55	0xbdaf2654	-0.085522324
56	0xbcc1ab21	-0.023641171
57	0xbd8437df	-0.06455969
58	0xbe605bd6	-0.21910033
59	0xbd8a6833	-0.06758156
60	0xbddd5e99	-0.10809059
61	0xbe265161	-0.16241981
62	0xbd1c9cb0	-0.038235366
63	0x3d83fdff	0.0644493
64	0x3e882c9b	0.2659653
65	0x3ae423e4	0.0017405716
66	0x3c376cff	0.01119542
67	0xbcc0b65b	-0.023524454
68	0xbdf6808f	-0.12036239
69	0x3ba221cc	0.0049478766
70	0xbd62672c	-0.055274174
71	0xbe63cdce	-0.22246477
72	0x3c82d132	0.015968893
73	0xbef6a9e8	-0.48176503
74	0xbe028147	-0.12744628
75	0xbd89f71d	-0.06736586
76	0xbc9c85f0	-0.019106835
77	0xbdd76165	-0.105166234
78	0x3d654b61	0.05598009
79	0xbea27819	-0.31732252
80	0x3e56f652	0.20992401
81	0x3eae8629	0.3408673
82	0x3d75b99e	0.05999147
83	0xba287650	-0.00064263213
84	0xbdb2b867	-0.08726578
85	0x3d5b1d13	0.053494524
86	0xbda0122e	-0.078159675
87	0xbd38bc4d	-0.045101453
88	0xbdff5546	-0.124674365
89	0x3d330ea6	0.04371514
90	0xbcd31e8e	-0.025771406
91	0xbd369cb7	-0.04458305
92	0x3df7b81c	0.12095663
93	0xbd113a26	-0.035455845
94	0x3e6f52d9	0.23371448
95	0xbcddf2ec	-0.027093373
96	0x3e3eecc5	0.18645008
97	0x3d778a5b	0.06043468
98	0xbdb30922	-0.08741976
99	0xbe2d1fbd	-0.16906638
100	0x3bd40d7b	0.0064713336
101	0xbd05bfe4	-0.032653704
102	0xbdcd5b47	-0.100271754
103	0xbcab59c0	-0.02091682
104	0xbe699ebf	-0.22814463
105	0xbd8e800b	-0.06958016
106	0x3e076e7b	0.13225739
107	0x3db66de8	0.08907682
108	0x3cf852a6	0.030312847
109	0xbae88fd6	-0.0017743062
110	0x3de789b4	0.11305562
111	0xbddfffa4	-0.109374315
112	0xbdce7877	-0.100815706
113	0x3eb691f6	0.35658234
114	0xb9c9e777	-0.00038510162
115	0x3f0ea84f	0.5572557
116	0xbd8810b6	-0.06643812
117	0x3e0930d6	0.13397536
118	0xbe0ff351	-0.14057662
119	0xbe7e594b	-0.2483875
120	0xbe19127f	-0.14948462
121	0xbd3dff7e	-0.046386234
122	0xbe2af09e	-0.1669335
123	0x3ec052c4	0.37563145
124	0x3e6c6c17	0.23088108
125	0xbd15a10b	-0.036530536
126	0x3e19d1a7	0.15021382
127	0x3e33deca	0.17565456
128	0x3d8372bb	0.064183675
129	0x3d04dd93	0.032437872
130	0x3d35d765	0.04439487
131	0x3e077052	0.1322644
132	0xbdae2515	-0.085031666
133	0xbc54747a	-0.012967223
134	0x3c9de107	0.01927234
135	0xbd5df6b2	-0.054190345
136	0x3c86dc7b	0.016462555
137	0xbd659a17	-0.056055155
138	0x3d4c201d	0.049835313
139	0xbde4d915	-0.111742176
140	0x3d99cbef	0.075096
141	0x3e20671c	0.15664333
142	0xbd54ddd7	-0.051969375
143	0xbcc78890	-0.02435711
144	0xbda95c0d	-0.082695104
145	0x3d68f77e	0.056876652
146	0xbc5a3a84	-0.013319615
147	0x3e17bccc	0.14818114
148	0x3dad545f	0.08463358
149	0xbc05dd4f	-0.00817044
150	0xbd61ae62	-0.055097945
151	0x3d0bd2fb	0.034136754
152	0xbe2a1351	-0.16608931
153	0xbd200f7a	-0.03907726
154	0x3ca58ed1	0.020209702
155	0x3dba195f	0.090868704
156	0x3db805c7	0.08985477
157	0x3c6e23e0	0.01453492
158	0x3dbf7f19	0.09350414
159	0x3d810320	0.06299424
160	0x3d8d2ed0	0.068936944
161	0x3dccaf35	0.099943556
162	0x3de67c08	0.11254126
163	0x3df61e15	0.120174564
164	0xbe9309c2	-0.28718382
165	0xbefc4cbb	-0.4927729
166	0xbf1a6432	-0.60309136
167	0xbe9b3aaf	-0.3031821
168	0x3d745197	0.059648123
169	0xbdc8010b	-0.09765824
170	0x3dcff1ea	0.10153563
171	0x3c844020	0.016143858
172	0xbd86c23b	-0.06580015
173	0xbab8eb3c	-0.0014108191
174	0x3dd9e123	0.106386445
175	0xbd987094	-0.074433476
176	0xbe8784c3	-0.26468477
177	0xbda2a646	-0.079418704
178	0x3c8ec4d5	0.017427841
179	0x3dac14aa	0.08402379
180	0xbe362e9c	-0.17791218
181	0x3c5e5dcf	0.01357217
182	0x3c5bde39	0.013419681
183	0xbe094120	-0.1340375
184	0xbe954382	-0.29153067
185	0xbe98c809	-0.29840115
186	0xbdb6f437	-0.08933299
187	0xbe2c83fa	-0.1684722
188	0xbccf81d5	-0.025330463
189	0x3a4c36dd	0.00077901577
190	0xbe378575	-0.17922004
191	0xbe0b8feb	-0.13629119
192	0xbe7f0a9f	-0.24906395
193	0xbd3dedf3	-0.046369504
194	0xbdce41f1	-0.10071171
195	0x3d8ef12e	0.06979595
196	0xbd7ea336	-0.06216737
197	0xbe763176	-0.24042305
198	0x3cee196a	0.029064853
199	0xbe9cbda2	-0.30613428
200	0xbe5e55e1	-0.21712448
201	0xbdd5286d	-0.10408101
202	0x3c4b49b2	0.012407707
203	0x3eb0296e	0.34406608
204	0xbf0dd344	-0.5540049
205	0xbe4e3284	-0.20136458
206	0xbf14143b	-0.5784337
207	0x3cb6d82b	0.022319874
208	0xbe6f83a5	-0.23390062
209	0xbe993303	-0.2992173
210	0xbddcc92f	-0.1078056
211	0x3d55be36	0.052183352
212	0x3c212c10	0.0098371655
213	0xbe60df79	-0.21960248
214	0xbdc48f96	-0.09597699
215	0x3c99658f	0.018725185
216	0x3e1aeb7e	0.15128896
217	0xbde99c74	-0.11406794
218	0xbe0ee412	-0.1395419
219	0xbca12330	-0.019670099
220	0xbce994ec	-0.028513394
221	0xbe120133	-0.1425827
222	0x3e5e4f74	0.21709996
223	0x3e0ab6a8	0.1354624
224	0xbc85931c	-0.016305499
225	0xbda16c78	-0.07882017
226	0xbe0a674e	-0.1351597
227	0xbe86e1a3	-0.26344022
228	0xbdf6396a	-0.120226696
229	0x3e0b9549	0.13631167
230	0x3e3505a9	0.1767794
231	0xbd35561d	-0.044271577
232	0xbdd96f8d	-0.1061698
233	0xbdc17ed7	-0.09448021
234	0xbe1a0c81	-0.15043832
235	0xbe3866e7	-0.18008004
236	0x3d32c939	0.043648932
237	0x3cd632a7	0.0261472
238	0xbd0e3c9c	-0.03472577
239	0xbdaa96a5	-0.083295144
240	0x3cdee1b5	0.027207235
241	0xbecf5cc9	-0.40500477
242	0xbddf6fc5	-0.1090999
243	0xbe0b7aff	-0.13621138
244	0x3d60fa37	0.054926123
245	0x3e9c45a0	0.3052187
246	0xbdb15f5b	-0.08660766
247	0xbe43f79e	-0.19137427
248	0xbf15bbc6	-0.58489645
249	0xbecd1251	-0.40053037
250	0x3e5f7e43	0.21825509
251	0x3ec0a13a	0.37623006
252	0xbcc16d68	-0.02361174
253	0x3dfc871f	0.1233046
254	0xbe0a60c6	-0.13513479
255	0xbd185ee4	-0.03719987

bias f4 [64]
0	0xbde37879	-0.11106963
1	0xbe086b04	-0.13322073
2	0x3f105c5b	0.56390923
3	0xbf199c61	-0.6000424
4	0x3eca78b6	0.3954522
5	0x3dceaf1f	0.100919954
6	0x3e199a05	0.1500016
7	0xbecfae8d	-0.4056286
8	0xbea42894	-0.3206221
9	0xbea472e8	-0.32118917
10	0xbe94cc35	-0.29062048
11	0x3f00d32e	0.50322235
12	0x3e2516fe	0.16122052
13	0xbf1c6038	-0.6108432
14	0xbe022c1f	-0.12712143
15	0x3ed6b4f3	0.41934928
16	0x3e92a604	0.28642285
17	0x3e9c4262	0.30519396
18	0x3db79d7b	0.08965584
19	0xbdcf4e71	-0.101223834
20	0x3e7ef11e	0.24896666
21	0x3dce6a04	0.100788146
22	0x3db8230d	0.089910604
23	0x3e817174	0.2528187
24	0x3ed674d7	0.41886017
25	0xbf02a231	-0.51028734
26	0x3efd5cac	0.49484766
27	0xbec34f5b	-0.3814648
28	0x3e51582e	0.20443794
29	0xbde4921a	-0.11160679
30	0x3e017b51	0.12644698
31	0x3f676d86	0.90401495
32	0xbe94d938	-0.29071975
33	0xbe664004	-0.22485358
34	0x3e959d23	0.29221448
35	0x3ec6fe5a	0.3886593
36	0xbdeec886	-0.116593406
37	0x3f27b781	0.6551438
38	0x3e1701c6	0.1474677
39	0xbecf14ac	-0.4044546
40	0x3ebeee8f	0.3729138
41	0x3ec638a9	0.38715103
42	0x3d005743	0.03133322
43	0x3f48f7a0	0.78502846
44	0xbe8cb0c1	-0.27478603
45	0xbee6b801	-0.4506226
46	0x3ef133b4	0.4710976
47	0x3ea4ab0b	0.32161745
48	0xbed5301a	-0.4163826
49	0x3f2d0d29	0.67598206
50	0x3e99e8ef	0.30060527
51	0x3ec98926	0.39362448
52	0x3deca3ef	0.11554705
53	0xbf08416f	-0.53224844
54	0xbf0464f0	-0.5171652
55	0xbee1c3ea	-0.44094783
56	0xbe2ced57	-0.16887413
57	0xbf0f5495	-0.55988437
58	0x3d246c98	0.040142626
59	0x3f0bd83e	0.54626834
60	0xbd81fd89	-0.06347186
61	0xbf191e53	-0.59811896
62	0x3e60ee28	0.2196585
63	0x3f35db18	0.71037436

weight f4 [64, 64]
0	0x3d09da61	0.033655528
1	0xbe3627fc	-0.1778869
2	0x3dc8fc2c	0.09813723
3	0xbea21c08	-0.3166201
4	0x3dc62ee6	0.09676914
5	0x3d6cac49	0.05778149
6	0x3d6161ff	0.055025097
7	0x3da70a13	0.081562184
8	0xbea6bf74	-0.32567942
9	0x3e1fc6a6	0.15603122
10	0xbe6bcc70	-0.23027205
11	0xbe13a1dd	-0.14417215
12	0x3d2c19db	0.042016845
13	0xbe546525	-0.20741709
14	0xbcebab9c	-0.028768353
15	0x3e6636e8	0.22481883
16	0xbe35d95c	-0.17758697
17	0x3cb2b547	0.021814955
18	0x3bd5383d	0.0065069483
19	0xbe31ac8e	-0.1735098
20	0xbe18111c	-0.14850277
21	0x3d912086	0.070862815
22	0xbdf5cc05	-0.12001804
23	0xbe7ac1e2	-0.24488023
24	0x3e408706	0.18801507
25	0xbd464590	-0.048406184
26	0x3e02df18	0.12780416
27	0xbea47363	-0.32119283
28	0x3e11a4f0	0.14223075
29	0xbcf52ce9	-0.029928641
30	0xbe3fbff4	-0.18725568
31	0xba7c6222	-0.000962766
32	0x3e45784e	0.19284174
33	0x3e5ff547	0.2187091
34	0x3dd93249	0.10605294
35	0x3d1e6b6c	0.038676664
36	0xbdb0b639	-0.08628506
37	0x3ccae4ac	0.024767242
38	0xbb31148d	-0.0027020306
39	0xbd915459	-0.07096166
40	0xbe66fd6f	-0.22557615
41	0xbe4510ab	-0.1924464
42	0xbd54f62e	-0.051992588
43	0x3e552b29	0.20817246
44	0x3c14543d	0.009053287
45	0xbe105e65	-0.14098509
46	0x3e193f94	0.1496566
47	0xbd8d2061	-0.068909414
48	0x3dab5a73	0.08366861
49	0xbe1d57bc	-0.153655
50	0x3dc31773	0.09525957
51	0x3e9aa938	0.3020723
52	0xbd9a371a	-0.07530041
53	0x3e6a8c35	0.22905047
54	0x3da08e4a	0.078396395
55	0xbe7ece40	-0.24883366
56	0xbd187080	-0.037216663
57	0x3cab922c	0.020943724
58	0x3d88cd27	0.06679755
59	0xbd76aafa	-0.06022165
60	0x3d849afd	0.06474874
61	0x3e1dd11e	0.15411803
62	0xbe3b617e	-0.18298909
63	0x3e0aecc5	0.13566883
64	0x3d856ee9	0.06515295
65	0xbb6c7f69	-0.0036086685
66	0xbe5afb06	-0.2138482
67	0xbd8093b9	-0.06278176
68	0xbe0951a8	-0.13410056
69	0x3d35371d	0.044242013
70	0x3d801d53	0.06255593
71	0x3d8755f3	0.066081904
72	0x3e8142e8	0.25246358
73	0xbd734563	-0.059392344
74	0xbd1b6da1	-0.037946347
75	0x3d7fd116	0.06245526
76	0x3df26bb6	0.118369505
77	0xbc3ae330	-0.011406705
78	0x3e7c5227	0.24640714
79	0x3df9722f	0.12179982
80	0xbd9a6114	-0.075380474
81	0xbd93fc8e	-0.07225905
82	0xbd984194	-0.07434383
83	0x3c9a5cd1	0.018843086
84	0x3e5dcabb	0.21659367
85	0x3d1b0339	0.03784487
86	0xbc520476	-0.012818446
87	0xbd90beec	-0.070676655
88	0xbe2f15e9	-0.17098202
89	0xbbc67c96	-0.0060573323
90	0x3d707f50	0.058715165
91	0x3e2c70e2	0.16839936
92	0x3cdd0b5b	0.026982954
93	0x3dc0d4c0	0.09415579
94	0xbd345a45	-0.0440314
95	0xbe347ce6	-0.1762577
96	0x3dfbbfc9	0.122924395
97	0xbde09bd8	-0.10967225
98	0x3e5c07ea	0.21487394
99	0x3c904a51	0.017613562
100	0x3c17678a	0.009240994
101	0x3e034b74	0.12821752
102	0x3e12ca6c	0.1433503
103	0xbd9040fc	-0.07043645
104	0xbd8918e8	-0.066942036
105	0xbd825262	-0.063633695
106	0xbcf8e7be	-0.03038394
107	0xbedc9dbc	-0.43089092
108	0xbe4de659	-0.20107402
109	0xbd3901d8	-0.045167774
110	0x3e3bed02	0.1835213
111	0xbd9c4881	-0.076310165
112	0xbe09ffd8	-0.13476503
113	0xbd2b4557	-0.041814175
114	0x3d505be0	0.05086887
115	0xbe297b67	-0.1655098
116	0xbc524314	-0.0128333755
117	0xbe00f528	-0.1259352
118	0xbe41e7c5	-0.1893607
119	0xbdb60222	-0.088871256
120	0x3dcce039	0.100037046
121	0xbdcbcb70	-0.09950912
122	0x3e0bf932	0.13669279
123	0xbe8bbfa4	-0.27294648
124	0x3dbc1466	0.09183578
125	0xbddcd277	-0.107823305
126	0x3cabca27	0.020970417
127	0x3ddc0b0c	0.107442945
128	0x3c144fda	0.009052241
129	0x3e0543a5	0.13014086
130	0x3d42fbb6	0.04760333
131	0xbd15ed49	-0.036603246
132	0x3e768569	0.2407433
133	0x3e99df77	0.30053303
134	0x3dba7c17	0.091056995
135	0x3a9a1149	0.0011754419
136	0xbd0b015d	-0.033936847
137	0x3e002f0f	0.12517951
138	0x3cfff715	0.031245748
139	0xbe8d9f4d	-0.276606
140	0xbd557cfb	-0.052121144
141	0xbe89edc1	-0.26939204
142	0x3dda9a26	0.10673933
143	0xbd86cfb1	-0.06582583
144	0x3e394fbd	0.18096824
145	0xbe1ba2c5	-0.1519881
146	0x3d44b554	0.04802449
147	0x3c950aa1	0.018193545
148	0xbcb3b8cd	-0.021938706
149	0x3dc09554	0.09403482
150	0x3e4098f7	0.18808351
151	0x3c4727dd	0.0121555
152	0x3e7edaa6	0.24888095
153	0xbd788209	-0.060670886
154	0x3d8ec593	0.06971278
155	0xbe02a8e0	-0.12759733
156	0x3d0ca89c	0.034340486
157	0xbe4e7178	-0.20160472
158	0xbcb36921	-0.021900715
159	0x3e4ab0ec	0.19794053
160	0x3d082e42	0.03324724
161	0x3e0910fc	0.13385385
162	0xbdbf66bb	-0.09345766
163	0xbd76503c	-0.06013511
164	0xbe54ac77	-0.20768915
165	0xbda28cbd	-0.07937
166	0xbdc399db	-0.0955083
167	0xbd71ecc9	-0.059063707
168	0xbd27dcfd	-0.040982235
169	0x3f2d33ee	0.67657363
170	0x3d825a75	0.063649096
171	0x3c2d82ae	0.0105902385
172	0xbd38f2c0	-0.04515338
173	0xbd675226	-0.056474827
174	0xbd6bf2d1	-0.057604615
175	0x3b888602	0.0041663656
176	0x3c8e34b5	0.017359117
177	0xbe3c4cf6	-0.18388733
178	0x3c66a07f	0.014076351
179	0x3d0ec9e2	0.0348605
180	0xbe07ed4b	-0.13274114
181	0x3eb0e178	0.3454702
182	0xbe493364	-0.1964851
183	0xbe3ae7bf	-0.18252467
184	0xbda3331a	-0.07968731
185	0x3d634e54	0.05549462
186	0x3cc9f91e	0.024654921
187	0x3ca3db86	0.020002138
188	0xbe114111	-0.14184977
189	0x3e3eec8c	0.18644923
190	0x3d1e0b7a	0.038585164
191	0x3e6e5a3e	0.23276612
192	0x3de5dd0a	0.112238005
193	0xbe1fcfcb	-0.1560661
194	0xbd910849	-0.070816584
195	0xbe189a3d	-0.14902587
196	0x3e44dcf7	0.19224916
197	0x3e294912	0.1653178
198	0xbd818fdb	-0.063262664
199	0xbdcbff40	-0.099607944
200	0xbd26ce45	-0.040724058
201	0xbdc6f92f	-0.09715497
202	0xbd84ba5c	-0.06480858
203	0x3e1a4d73	0.15068607
204	0xbbb8948c	-0.0056329425
205	0x3b9a5648	0.0047099926
206	0xbcbd213f	-0.023087142
207	0x3e7a43ae	0.2443988
208	0xbd751925	-0.059838433
209	0xbd3095b7	-0.04311153
210	0xbddaf6a3	-0.106915735
211	0x3cb5d397	0.02219562
212	0x3d84537d	0.064612366
213	0xbd907c7a	-0.07054992
214	0xbdefff4e	-0.117186174
215	0x3de43c55	0.1114432
216	0xbd9efa8d	-0.077626325
217	0x3daf40da	0.08557291
218	0x3d8af2df	0.06784605
219	0x3dc2fb5f	0.095206015
220	0x3df531c0	0.1197238
221	0xbcecb2c3	-0.028893834
222	0x3d62cc03	0.055370342
223	0xbdef6a77	-0.116902284
224	0x3b0ea775	0.0021767293
225	0xbdc2d618	-0.095134914
226	0x3de9cc20	0.11415887
227	0x3c36ec29	0.011164703
228	0xbe07f885	-0.13278396
229	0x3ddc55a9	0.10758526
230	0xbd9e512d	-0.07730327
231	0xbdb7634a	-0.08954485
232	0x3dcc0cd6	0.09963386
233	0x3d9ffcbd	0.07811878
234	0xbd6cbed9	-0.057799194
235	0xbddccca5	-0.1078122
236	0xbe0032ac	-0.1251933
237	0x3d05488a	0.03253988
238	0xbdc18e8b	-0.09451016
239	0xbd38ee89	-0.04514936
240	0xbd7d47cf	-0.06183606
241	0x3da54f00	0.08071709
242	0xbd4e7679	-0.050405953
243	0x3d052c8d	0.03251319
244	0x3c4b0bc1	0.012392939
245	0xbccb803f	-0.024841426
246	0xbe352781	-0.17690851
247	0xbdaf53ca	-0.08560903
248	0xbe4d1f20	-0.20031404
249	0xbb4fd93d	-0.0031715177
250	0x3b664d02	0.0035141115
251	0xbe77b0e8	-0.24188578
252	0xbdb2b4a6	-0.08725862
253	0xbdd413f2	-0.10355367
254	0x3db65ad2	0.08904041
255	0x3c757fba	0.014984066

bias f4 [64]
0	0x3ebf92eb	0.37416777
1	0xbdd8b43b	-0.10581251
2	0x3e3dfb84	0.18552977
3	0x3ebae7e2	0.36505038
4	0xbd5dad21	-0.054120187
5	0xbde44280	-0.11145496
6	0x3dfeb72a	0.124372795
7	0x3d8cef40	0.06881571
8	0x3d45aa87	0.04825833
9	0x3f1e69ce	0.61880195
10	0x3d874f88	0.06606966
11	0x3db48a2b	0.08815416
12	0xbd291f37	-0.041289534
13	0xbdfa71fe	-0.122287735
14	0x3ed2914f	0.41126487
15	0x3e7a8425	0.24464472
16	0x3ec51b64	0.3849746
17	0x3e20eac0	0.1571455
18	0x3e40fd8a	0.18846717
19	0x3e97b29c	0.29628456
20	0x3e055524	0.1302076
21	0xbde93496	-0.11386983
22	0x3e6199e1	0.22031356
23	0x3cd5a4c1	0.026079537
24	0xbcce768c	-0.025203012
25	0x3e1a6cd9	0.15080585
26	0xbd73a008	-0.05947879
27	0xbb7e79bb	-0.0038829881
28	0x3e4a5f28	0.19762862
29	0x3ecc1972	0.39863163
30	0xbd2e8b24	-0.042613164
31	0x3cd53899	0.026027964
32	0xbe2f0544	-0.17091852
33	0x3e06f3d9	0.13178958
34	0x3efa3395	0.4886748
35	0xbe0261c8	-0.12732613
36	0xbcb374ff	-0.021906374
37	0x3cf27d35	0.029600719
38	0x3e1595b6	0.14607891
39	0xbc0b60a4	-0.008506928
40	0x3de12042	0.10992481
41	0x3c0a5042	0.0084419865
42	0x3e0f2f25	0.13982828
43	0xbcec0f23	-0.028815811
44	0x3e138ee3	0.14409976
45	0xbd478817	-0.04871377
46	0x3e9c286f	0.30499598
47	0xbc0cd1c7	-0.008594937
48	0x3e53275d	0.20620485
49	0x3e037f4c	0.12841529
50	0x3dd77408	0.10520178
51	0x3db827fd	0.08992002
52	0xbdfec82a	-0.12440522
53	0xbdf9d199	-0.12198181
54	0x3d39d24b	0.045366567
55	0x3e912660	0.2834959
56	0xbe8c59ba	-0.27412206
57	0x3d4de151	0.050263707
58	0xbe0f4d07	-0.13994227
59	0xbdd73df7	-0.10509866
60	0x3d149e56	0.036283813
61	0xbdb9fd95	-0.0908157
62	0xbdc38294	-0.0954639
63	0x3c958304	0.01825095

weight f4 [64, 64]
0	0xbc904bf8	-0.01761435
1	0x3db94bf3	0.09047689
2	0xbbf2c5dd	-0.007408841
3	0xbdae367b	-0.08506485
4	0x3dce25ec	0.10065827
5	0xbbb5b8c4	-0.0055457074
6	0xbd205831	-0.039146606
7	0xbd9b45d2	-0.075816765
8	0x3d031447	0.03200176
9	0xbdc1626d	-0.09442601
10	0x3c745c3e	0.01491457
11	0x3e0158e5	0.12631567
12	0x3c8e971e	0.017406043
13	0x3dd0bd86	0.10192399
14	0xbd3d940d	-0.04628377
15	0xbd3105d0	-0.043218434
16	0x3d8960fe	0.06707953
17	0x3a3e6429	0.000726285
18	0xbe0ec8d6	-0.139438
19	0xbd905ef0	-0.07049358
20	0x3b6ba079	0.0035953803
21	0xbdd094d4	-0.10184637
22	0xbe030714	-0.12795669
23	0x3dc3aef6	0.095548555
24	0x3dd7ee55	0.10543505
25	0xbe10df91	-0.14147784
26	0xbdae0e59	-0.0849883
27	0xbca29f9e	-0.019851502
28	0xbdd4b99c	-0.10386965
29	0x3c188a1d	0.0093102725
30	0x3d8033da	0.0625989
31	0x3d591148	0.052994996
32	0x3d284625	0.04108252
33	0xbd58f897	-0.05297145
34	0xbcee7d6f	-0.029112546
35	0x3de21dc7	0.11040836
36	0x3d4dce64	0.050245658
37	0x3d237234	0.039903834
38	0xbe07ac7e	-0.13249394
39	0x3d8477ff	0.064682
40	0x3e062486	0.1309987
41	0xbb16ba93	-0.002299939
42	0x3cb41401	0.021982195
43	0xbdfdecc0	-0.12398672
44	0xbcda1300	-0.026620388
45	0xbe027532	-0.12740019
46	0x3db0eb96	0.086386845
47	0x3d1e8216	0.03869828
48	0x3cd0f496	0.025507253
49	0x3c0fb55e	0.008771269
50	0xbd8ce6b7	-0.06879943
51	0x3b8357c9	0.0040082675
52	0xbd1d67f9	-0.038429234
53	0x3d24bfbd	0.04022192
54	0x3de6c160	0.11267352
55	0x3d64c96e	0.05585616
56	0xbcc1c3d2	-0.023652945
57	0x3cb7d527	0.022440506
58	0xbd29853a	-0.04138682
59	0xbdea69d1	-0.11445964
60	0xbe01f73a	-0.12691966
61	0xbda568ca	-0.080766276
62	0x3c990436	0.018678766
63	0xbd1f26a4	-0.03885521
64	0x3db9c622	0.09070994
65	0xbd297e39	-0.04138014
66	0xbd0e95b3	-0.034810733
67	0x3a89b85f	0.0010507217
68	0xbd8b1251	-0.06790603
69	0xba55bbe2	-0.0008153302
70	0x3b840d45	0.004029902
71	0xbddd962f	-0.10819661
72	0xbd52d435	-0.051471908
73	0xbcac00d2	-0.020996485
74	0x3d2012b1	0.039080326
75	0xbd3adbbb	-0.045619708
76	0xbdbdafc8	-0.09262043
77	0x3c995bbc	0.0187205
78	0x3c96e6a7	0.01842053
79	0x3cec0cb5	0.028814653
80	0xbd5f6f68	-0.054549605
81	0xba78b67a	-0.00094876403
82	0x3ce5b731	0.028041454
83	0xbd4dbead	-0.05023067
84	0xbdade040	-0.08490038
85	0x3d8de97b	0.069292985
86	0x3d1e21c8	0.038606435
87	0xbccaa591	-0.024737151
88	0x3dbfe405	0.09369663
89	0x3def74e9	0.11692221
90	0xbdac7895	-0.08421437
91	0xbdf9e8b7	-0.1220259
92	0xbd1cddf7	-0.03829762
93	0xbdf3f7db	-0.11912509
94	0x3a297b7d	0.00064652396
95	0x3cc7452a	0.024324972
96	0xbdcead11	-0.100916035
97	0xbdd06029	-0.10174591
98	0x3d724ca2	0.059155114
99	0x3db73bd7	0.089469604
100	0xbcd0cedf	-0.025489269
101	0xbb2e9126	-0.0026636808
102	0x3de62a2d	0.11238513
103	0xbcd52cf9	-0.026022421
104	0x3d89c967	0.067278676
105	0xbddacee3	-0.10683992
106	0xbb84bb07	-0.0040506157
107	0xbd94073f	-0.072279446
108	0xbddf9ca9	-0.109185524
109	0xbda7d1f3	-0.081943415
110	0x3b484bbb	0.0030562717
111	0xbddd4fcd	-0.108062364
112	0x3dee4120	0.11633515
113	0xbd8dfcc8	-0.0693298
114	0xbc7649ee	-0.015032275
115	0xbd82a9fd	-0.06380079
116	0x3d8c4156	0.06848399
117	0x3dbaad81	0.091151245
118	0xbdaf28d8	-0.08552712
119	0xbdcb5391	-0.099280484
120	0x3b99885a	0.004685444
121	0x3de0109e	0.109406695
122	0x3dc1142c	0.094276756
123	0x3d01788f	0.031609114
124	0xbda67c6e	-0.08129202
125	0x3d8f10ad	0.069856025
126	0x3dfd5774	0.12370196
127	0x3ddd09b3	0.107928656
128	0x3df09cd6	0.11748664
129	0xbe12b75f	-0.14327763
130	0x3e441196	0.19147334
131	0xbd89722d	-0.067112304
132	0xbdabfe07	-0.08398061
133	0xbdb0e5d3	-0.086375855
134	0xbd883212	-0.06650175
135	0x3da9fcdb	0.083001815
136	0x3c9a08ae	0.018802967
137	0x3defd48e	0.117104635
138	0xbd2c6efe	-0.042098038
139	0x3e31de06	0.17369851
140	0xbdb88c11	-0.090110905
141	0xbc25dd35	-0.010123541
142	0x3d6529be	0.05594801
143	0x3d9277e1	0.07151771
144	0xbe8458b7	-0.25848934
145	0xbe0f8597	-0.14015804
146	0xbe2daf02	-0.16961291
147	0xbd826809	-0.063674994
148	0x3cf33de4	0.029692598
149	0x3d3d6312	0.04623706
150	0x3df35aa6	0.11882524
151	0x3e4f2ccd	0.20231934
152	0x3c47b76a	0.012189725
153	0x3d07e96b	0.03318159
154	0xbe387a31	-0.18015362
155	0x3dc6dad1	0.09709705
156	0x3c9b2109	0.01893665
157	0x3df411b0	0.11917436
158	0xbc7587f2	-0.014986025
159	0x3cc9b0be	0.02462041
160	0xbe168db3	-0.14702491
161	0x3e151c47	0.14561568
162	0xbd97ca95	-0.07411686
163	0xbdc312c9	-0.09525067
164	0xbe09ba8f	-0.13450073
165	0x3d6ad8db	0.057335716
166	0x3ddb0e89	0.10696132
167	0x3e1c5cd1	0.15269782
168	0x3e3b2086	0.18274125
169	0xbd4a0f5b	-0.04933105
170	0xbd8eab61	-0.06966282
171	0xbdbe5e69	-0.09295351
172	0x3d4ce219	0.05002031
173	0x3d3d93a5	0.046283383
174	0xbdb37aab	-0.087636314
175	0x3e09354c	0.13399237
176	0xbdd85a82	-0.10564138
177	0xbe10ab71	-0.141279
178	0x3ce7c20e	0.028290775
179	0x3d23ab6d	0.039958406
180	0xbad74d48	-0.001642623
181	0xbdca8276	-0.09888165
182	0xbd719551	-0.05898029
183	0x3da65527	0.0812171
184	0x3d89181b	0.06694051
185	0xbdbe1b4e	-0.09282552
186	0xbc97c987	-0.018528713
187	0x3e1177ed	0.14205904
188	0x3dfe96cc	0.12431106
189	0xbdba425b	-0.090946876
190	0x3b645061	0.0034837949
191	0xbe2658b7	-0.1624478
192	0x3d91678b	0.070998274
193	0xbe09df24	-0.13464028
194	0x3df5e2a6	0.120061204
195	0x3e481248	0.19538224
196	0xbe8cd9c7	-0.275099
197	0xbd5e8379	-0.0543246
198	0xbd6d74db	-0.05797277
199	0x3d86fd9a	0.065913394
200	0xbe204250	-0.15650296
201	0x3cfede07	0.03111173
202	0x3d99fc56	0.075188324
203	0x3d8cf56c	0.06882748
204	0x3d1970dc	0.037461147
205	0x3d086bed	0.03330605
206	0x3da8ad7c	0.082362145
207	0x3df5b773	0.11997881
208	0xbe1d36a7	-0.1535288
209	0xbe1294b0	-0.14314532
210	0x3c020df9	0.007937902
211	0x3e19648b	0.1497976
212	0x3e0767b9	0.13223161
213	0xbcd567f0	-0.026050538
214	0x3e18d968	0.14926684
215	0xbc36ebba	-0.0111646
216	0x3d7afa46	0.061273836
217	0x3dbb6349	0.091497965
218	0xbe227606	-0.15865335
219	0xbddff573	-0.109354876
220	0x3d93d4a1	0.0721829
221	0x3e49a4e6	0.1969181
222	0xbb69ed41	-0.0035694393
223	0x3c2a3dd9	0.010390722
224	0xbcb5bdbd	-0.0221852
225	0x3e704c6d	0.23466654
226	0x3e2ca850	0.16861081
227	0x3da3de36	0.08001368
228	0xbd8352cd	-0.06412277
229	0x3d7e7c63	0.062130343
230	0x3de20594	0.1103622
231	0xbcaaea89	-0.020863788
232	0x3e0b3fdd	0.1359858
233	0xbc5b7dad	-0.013396663
234	0xbd7b7cb9	-0.06139824
235	0x3ce6d5bb	0.028178087
236	0x3d231618	0.039815992
237	0x3da5724c	0.08078441
238	0x3e06deb8	0.13170898
239	0xbe0167f2	-0.12637308
240	0x3d8a118a	0.067416266
241	0xbe0108e8	-0.12601054
242	0x3d9a1901	0.075243
243	0x3d5c7e85	0.053831596
244	0x3c1c2538	0.009530358
245	0xbd5d6147	-0.05404785
246	0x3dad4864	0.08461073
247	0x3de321a9	0.110904045
248	0xbe104292	-0.14087895
249	0x3e1112a3	0.14167266
250	0xbe6a51f9	-0.22882833
251	0xbb7b1e17	-0.0038317495
252	0xbe87be6c	-0.26512468
253	0x3db57426	0.08860044
254	0xbda0d139	-0.07852406
255	0xbcb08e19	-0.021552132

bias f4 [64]
0	0xbc733abb	-0.014845545
1	0xbd254466	-0.040348433
2	0x3e0c1093	0.13678198
3	0x3e4f8327	0.20264874
4	0x3e5171b9	0.20453538
5	0x3c766a48	0.015039988
6	0xbcf489c1	-0.029850842
7	0xbe04182b	-0.12899844
8	0xbdeae708	-0.11469847
9	0x3e9c75ce	0.30558628
10	0x3d1fdc81	0.03902865
11	0x3d1af1f8	0.037828416
12	0xbd53cd3a	-0.05170939
13	0x3ecafaea	0.39644557
14	0xbd92dd74	-0.07171145
15	0x3c6c92cf	0.014439299
16	0xbe488bcb	-0.19584577
17	0x3db985eb	0.09058746
18	0x3e31b446	0.17353925
19	0x3e5f0a89	0.21781363
20	0xbcc75786	-0.024333727
21	0xbdaadb81	-0.08342648
22	0x3da23397	0.07919996
23	0xbe0c9e1b	-0.13732187
24	0xbd9ef78e	-0.07762061
25	0x3e5e7d04	0.21727377
26	0xbb9e5a56	-0.004832546
27	0xbde1ae61	-0.11019588
28	0xbddd63ad	-0.10810027
29	0x3d5e3d9d	0.054257978
30	0x3e397e2a	0.18114534
31	0xbcbb06a9	-0.022830324
32	0x3ea2b00f	0.31774947
33	0xbd1b7562	-0.03795374
34	0xbc88f671	-0.016719075
35	0x3d78f479	0.060780022
36	0x3e463b22	0.19358495
37	0x3e0171b6	0.12641034
38	0x3e928927	0.28620264
39	0x3d40476e	0.04694312
40	0x3e5dd137	0.2166184
41	0x3d15a63d	0.03653549
42	0x3e3c52a7	0.18390904
43	0x3bb4c914	0.0055171344
44	0xbd387e82	-0.045042522
45	0xbdc5eeae	-0.09664665
46	0xbd50ee98	-0.05100879
47	0xbe1076df	-0.14107846
48	0x3e092ea2	0.13396695
49	0x3b625c85	0.003454001
50	0x3ecc1e76	0.3986699
51	0x3d830026	0.06396513
52	0xbb6a811a	-0.0035782517
53	0x3c7010f9	0.014652484
54	0x3ed8d362	0.42348772
55	0x3e183603	0.14864354
56	0x3c4efe2d	0.012633842
57	0xbdd2445d	-0.102669455
58	0x3e213495	0.15742715
59	0xbde23792	-0.110457554
60	0x3d11cf64	0.035598174
61	0xbc225a09	-0.009909161
62	0x3e133fd3	0.14379816
63	0x3f02ef68	0.51146555

weight f4 [8, 64]
0	0x3c80df7f	0.015731571
1	0xbc0e2cac	-0.008677643
2	0x3cf40be0	0.029790819
3	0xbeab9124	-0.3350917
4	0xbdf556cd	-0.119794466
5	0x3de4ff57	0.11181515
6	0x3cea13c1	0.028573873
7	0xbd83e6d7	-0.064405136
8	0x3d866a84	0.06563285
9	0xbeaf27bc	-0.34210002
10	0x3d58d6d4	0.05293925
11	0xbd05f4b2	-0.032704063
12	0x3dc9e176	0.098574564
13	0xbe59ac98	-0.21257246
14	0x3d7f151e	0.062276
15	0x3e512e3e	0.20427796
16	0x3e8806a3	0.26567563
17	0xbde7343f	-0.11289262
18	0xbc5e5ac4	-0.013571445
19	0xbe51bd53	-0.20482378
20	0x3e9ee5cb	0.31034693
21	0xbdbda2fe	-0.09259604
22	0xbc4e1c06	-0.0125799235
23	0x3dce1d93	0.100642346
24	0x3dd13322	0.10214831
25	0x3d4640c8	0.048401624
26	0xbd9bcdc9	-0.0760761
27	0xbca330cf	-0.019920735
28	0x3e288ead	0.16460676
29	0xbe3689ea	-0.17826048
30	0xbc2e49ba	-0.010637695
31	0x3cac08c1	0.021000268
32	0xbc659771	-0.014013157
33	0x3d508d9b	0.050916295
34	0xbd372029	-0.044708405
35	0x3eb61dfd	0.35569754
36	0xbe748031	-0.23877026
37	0xbdbd1bfb	-0.092338525
38	0xbd1daeb0	-0.038496673
39	0x3e1bf63e	0.15230653
40	0xbdbc1943	-0.09184506
41	0x3d157e6d	0.036497522
42	0x3e1d0585	0.15334137
43	0x3e377de8	0.17919123
44	0xbde0342a	-0.109474495
45	0x3d4a5c89	0.049404655
46	0xbd81dcb0	-0.06340921
47	0x3e213419	0.1574253
48	0x3ca7ffbd	0.020507688
49	0x3de48114	0.11157432
50	0xbcf05736	-0.02933846
51	0x3da14149	0.0787378
52	0x3e1890f7	0.1489905
53	0xbdff4be5	-0.124656476
54	0xbe4d5872	-0.2005327
55	0xbd2f927e	-0.042864315
56	0xbdfe6077	-0.12420743
57	0xbde88855	-0.11354128
58	0xbeb1a69a	-0.3469742
59	0x3c4a0e89	0.012332567
60	0xbd2f4d71	-0.042798463
61	0xbcc410cc	-0.02393379
62	0x3e6585dc	0.22414345
63	0xbf0feda2	-0.56221974
64	0xbdafc691	-0.085827954
65	0xbdbb82de	-0.0915582
66	0xbe629bb9	-0.22129716
67	0xbbbaf8e8	-0.0057059415
68	0x3e1a8e9a	0.1509346
69	0xbd8c7290	-0.068577886
70	0x3e35f486	0.1776906
71	0xbdbbfe75	-0.09179393
72	0x3e752743	0.23940758
73	0xbde43515	-0.11142937
74	0xbd220be6	-0.03956213
75	0x3e11541e	0.14192244
76	0x3e9cdd18	0.3063743
77	0xbb44f7f7	-0.0030055025
78	0x3e08e31a	0.13367882
79	0x3e066812	0.13125637
80	0x3c7fe50f	0.015618577
81	0x3e9c0bb1	0.3047767
82	0x3ca27d8c	0.019835256
83	0x3c0ba725	0.008523737
84	0xbcc2624c	-0.023728512
85	0x3e1fc613	0.15602903
86	0x3c6df801	0.014524461
87	0x3c3894db	0.011265959
88	0xbd8ff6f7	-0.07029527
89	0xbdebd8e3	-0.11515977
90	0x3e7026fb	0.2345237
91	0x3d8c4f18	0.068510234
92	0xbe388bef	-0.1802213
93	0xbed75136	-0.42054147
94	0x3e84f216	0.25965947
95	0xbd9eaa8b	-0.07747372
96	0xbe069d6c	-0.13145989
97	0x3dd6a5c2	0.104808345
98	0xbd166bf5	-0.03672405
99	0xbcc00785	-0.023441086
100	0xbe29aeac	-0.16570538
101	0xbe65ae4a	-0.22429767
102	0xbd2ee7cf	-0.04270154
103	0xbccf6e14	-0.025321044
104	0x3e903cd5	0.2817141
105	0xbe0d4f99	-0.13799895
106	0x3e63cbda	0.22245732
107	0x3d369f32	0.044585414
108	0x3dc3d252	0.095616
109	0x3e7ade03	0.24498753
110	0xbd800148	-0.062502444
111	0x3d397449	0.045276914
112	0x3d72120b	0.05909924
113	0xbde1505d	-0.11001656
114	0xbeea9542	-0.45817
115	0xbe20fa64	-0.15720516
116	0xbe212954	-0.15738422
117	0xbbbed180	-0.005823314
118	0x3ce4e886	0.027942907
119	0xbe875c98	-0.2643783
120	0xbe57bbc7	-0.21067725
121	0x3da942f3	0.08264723
122	0x3dd33a50	0.103138566
123	0x3d91cf81	0.07119656
124	0x3d8339e9	0.0640753
125	0xbd5c3b8c	-0.053767726
126	0x3dabc14d	0.083864786
127	0x3d89e2f8	0.06732744
128	0x3d58a0eb	0.05288784
129	0xbdefd6ac	-0.11710867
130	0x3dfda2b4	0.12384549
131	0x3eb76ba7	0.3582432
132	0xbce47090	-0.027885705
133	0x3e0c7ffd	0.13720699
134	0x3ddc64cb	0.10761412
135	0xbe42c8ed	-0.1902196
136	0xbd5c64c5	-0.05380704
137	0xbe0e0327	-0.1386839
138	0xbdd5d06d	-0.10440145
139	0xbe86193a	-0.2619112
140	0xbdd92f48	-0.10604721
141	0xbe82c400	-0.2554016
142	0xbe2f8c71	-0.17143418
143	0xbe9fa15f	-0.31177804
144	0xbe4d9be5	-0.20079
145	0xbe58c259	-0.21167888
146	0x3bb59402	0.0055413255
147	0x3d40d417	0.047077265
148	0x3e71657e	0.23573872
149	0x3e43bdae	0.19115326
150	0x3d97bb3b	0.07408758
151	0xbdf44c43	-0.11928608
152	0xbd9b0d39	-0.075708814
153	0xbdb068b1	-0.08613718
154	0x3e101267	0.1406952
155	0xbdcff19d	-0.10153506
156	0xbb13fbe7	-0.0022580565
157	0x3dd0bf42	0.101927295
158	0x3eaf9cd7	0.34299347
159	0x3db99c39	0.09063
160	0xbe870736	-0.2637269
161	0xbdf238cb	-0.11827239
162	0x3d00e667	0.03146973
163	0xbe913063	-0.2835723
164	0x3d4cd6c3	0.0500095
165	0x3dffef50	0.12496817
166	0xbe222777	-0.15835367
167	0xbe830f58	-0.25597644
168	0xbef64771	-0.4810138
169	0xbc721e64	-0.0147777535
170	0xbc9c62c8	-0.019090071
171	0x3e4cfb14	0.20017654
172	0x3d8238bd	0.06358478
173	0x3cc9d408	0.024637237
174	0x3da0986b	0.078415714
175	0xbe940622	-0.2891093
176	0x3e1dadaf	0.15398286
177	0xbda430a0	-0.08017087
178	0xbe9a04d3	-0.30081806
179	0x3e20f135	0.15717013
180	0x3e4db2d6	0.20087752
181	0x3e08ebbe	0.13371179
182	0xbe20eba3	-0.15714888
183	0x3e8fbe12	0.280747
184	0xbd986aa9	-0.07442219
185	0x3d2f8bab	0.042857807
186	0xbdb1f7f6	-0.08689873
187	0x3d51d852	0.05123169
188	0xbd8ea78c	-0.06965551
189	0x3e0a78ff	0.13522719
190	0xbe8c45f0	-0.27397108
191	0x3e1384cb	0.14406125
192	0xbe250f10	-0.16119027
193	0xbde58dad	-0.11208663
194	0x3d38f5b7	0.045156207
195	0x3ee01d5c	0.437724
196	0x3f080fb6	0.53148973
197	0xbd5ebd5c	-0.054379806
198	0x3d28c61f	0.041204568
199	0x3ebad49e	0.3649034
200	0xbe018a45	-0.12650402
201	0x3e11f1d3	0.14252405
202	0x3de5e1f5	0.112247385
203	0xbdce3399	-0.10068435
204	0xbea8d859	-0.3297756
205	0x3f50cfed	0.8156727
206	0xbd87f212	-0.06637968
207	0xbe8dc06d	-0.27685872
208	0xbe9fa8ba	-0.31183416
209	0xbe82cf9e	-0.25549024
210	0xbe7a2aa2	-0.24430326
211	0x3f44b22c	0.7683437
212	0xbe686e0c	-0.2269823
213	0xbe02d685	-0.12777145
214	0xbe4c2e82	-0.19939616
215	0xbdf68bb5	-0.12038366
216	0x3d84a648	0.06477028
217	0x3e920ad2	0.2852388
218	0xbe7f8def	-0.24956487
219	0x3dc4852e	0.095957145
220	0x3dbf71ab	0.09347852
221	0x3ecae0a5	0.39624515
222	0x3ca49cc1	0.020094277
223	0xbd5436e5	-0.051810164
224	0x3f1f8cf1	0.62324435
225	0x3e823d76	0.25437516
226	0x3ddb518d	0.10708914
227	0x3f2fe614	0.68710446
228	0xbddde809	-0.10835273
229	0xbe9225ff	-0.28544614
230	0x3d224067	0.0396122
231	0x3ea079ff	0.31343076
232	0x3edd6512	0.43241173
233	0xbe13fb32	-0.14451292
234	0x3e9fd03d	0.3121356
235	0xbe7d16dd	-0.24715753
236	0xbde33240	-0.11093569
237	0x3dc9add8	0.09847611
238	0xbd2bc378	-0.04193446
239	0x3e09826c	0.13428658
240	0xbd907877	-0.07054227
241	0xbd3e31e5	-0.046434302
242	0x3ecbcb8b	0.39803728
243	0xbdb18ad0	-0.086690545
244	0xbe38dc30	-0.18052745
245	0xbd5d8c6b	-0.05408899
246	0xbcc85233	-0.024453258
247	0x3e9f2571	0.31083253
248	0x3e32d0c1	0.17462446
249	0x3da84d43	0.082178615
250	0xbe423595	-0.18965752
251	0xbd3cb2f3	-0.046069097
252	0xbe0b873e	-0.1362581
253	0x3e3f665a	0.18691388
254	0xbe4279e0	-0.18991804
255	0x3efeb6b6	0.49748772

bias f4 [8]
0	0xbf31e8d8	-0.69495916
1	0x3e62d8a2	0.22152951
2	0x3e909b5b	0.28243527
3	0x3eab1045	0.3341085
4	0x3e9e9354	0.30971777
5	0x3e147d61	0.14500953
6	0xbefe8d6b	-0.49717268
7	0x3eb3f795	0.35149828
