parameters.pt (torch, 408053 bytes, 13 tensors)

weight f4 [168, 84]
-0.058961887 -0.08961037 -0.07449377 -0.049356665 -0.051274046 0.011341435 -0.0043539396 0.05067732
-0.060776528 -0.075315624 -0.23669574 -0.09405365 -0.03157996 -0.07043884 0.06777031 -0.07325662
0.025253123 -0.22276421 0.3007099 -0.01798601 0.04520209 -0.07106827 0.0260541 -0.03767573
-0.16822067 -0.1096196 -0.018734256 0.03853518 -0.023053944 0.009102398 0.008725058 -0.10592005
0.014489256 -0.03991708 -0.013573739 -0.028962731 0.07893254 0.15891221 0.16665632 0.14949326
-0.02393523 0.038829036 -0.013167995 -0.09555532 0.06843398 -0.010637903 -0.046446834 -0.049837586
-0.034416255 -0.044930596 0.037555296 -0.14740284 -0.120284356 -0.040623385 -0.09605837 -0.076344274
0.06839575 -0.068269245 0.004891548 -0.054967284 0.026878843 -0.044452295 0.013894863 0.01241083
-0.07861022 -0.034616306 0.20130843 -0.01116192 -0.03298538 0.044272933 -0.038071647 -0.062348682
-0.03597903 0.0007713308 -0.08629923 -0.08415095 0.004352036 -0.0759602 -0.06027948 0.042634204
-0.028471872 0.05128369 -0.13948353 -0.028970791 0.07943487 -0.053215567 -0.0066864374 -0.0026190882
-0.005735958 0.0066315974 0.11959568 -0.018581964 0.09374278 0.07422427 -0.11653302 0.08585749
0.093158714 -0.013524506 0.07133829 -0.013225769 -0.00023953895 -0.0153277805 0.063020736 -0.034083974
-0.028908214 -0.07104207 0.035216942 -0.0024620101 -0.088509314 0.05571844 -0.021640023 -0.0751111
0.07961249 -0.03665506 -0.11452457 -0.15754054 0.08047747 0.00056629034 -0.0100876205 -0.0018279211
0.032072116 0.16253805 0.043524712 0.2703787 0.097647846 0.047214724 -0.018600404 -0.0012483265
-0.039367016 0.048156578 0.060799617 0.060366947 0.06536806 -0.008541729 0.066547245 -0.008637674
0.07000672 0.013001438 0.08366522 0.065831155 0.13391459 0.06253614 -0.06634471 0.11260474
0.09824259 0.16245164 -0.07241652 -0.16788638 -0.03986524 0.1371062 0.12815188 0.14951417
0.058648307 0.0060861954 -0.0064956374 0.03514193 0.06813567 0.1558483 0.19556239 0.093343884
0.0065775774 0.0049709813 -0.08785156 -0.043688554 -0.33560035 0.012835008 -0.14962251 -0.09793278
-0.00073711533 -0.059072793 0.07505153 -0.096577786 0.092346534 0.07554417 -0.0637446 -0.031641852
0.06097366 0.07964176 -0.1154031 -0.044514142 -0.0018572076 -0.10421666 0.060854916 -0.08450607
-0.0048228074 -0.016577814 -0.032370195 -0.08309132 -0.08343175 -0.0035774908 0.07255464 -0.14413695
-0.0460897 0.02279357 0.06081519 -0.08518162 -0.0193057 0.01842416 -0.042127866 -0.037596975
-0.14386514 -0.07489808 -0.117317244 0.061120145 -0.0081925215 -0.010109844 -0.0726693 -0.05667407
0.08246681 0.046911526 0.017962752 -0.06699992 -0.09697151 0.0014260663 0.006847407 -0.05957439
0.034456443 -0.09929196 0.02724871 -0.083564766 0.060319565 -0.07688943 0.045646414 0.07007931
0.10767054 -0.02852413 -0.08177535 -0.013553839 -0.07028799 0.07829161 0.038893174 0.085382774
0.021148397 0.053538475 0.15207434 0.0038125971 -0.07268531 -0.003553121 0.040406797 -0.008443329
-0.09846972 0.063781954 0.0666256 0.14986065 -0.097956724 0.023892736 -0.058649965 -0.13900937
-0.012096086 0.088581435 -0.020056121 -0.16708444 0.06260799 -0.017438194 0.042271912 0.04334341
00000000: 0582 71bd a485 b7bd 3190 98bd 372a 4abd
00000010: bc04 52bd 6dd1 393c 7eab 8ebb 0693 4f3d
00000020: cff0 78bd 143f 9abd 5e60 72be 339f c0bd
00000030: fd59 01bd 3d42 90bd 29cb 8a3d 9107 96bd
00000040: a3df ce3c 4d1c 64be a6f6 993e 6657 93bc
00000050: d425 393d 3e8c 91bd 686f d53c de51 1abd
00000060: 0a42 2cbe 3e80 e0bd 9578 99bc 11d7 1d3d
00000070: a0db bcbc 3922 153c 8cf3 0e3c 9cec d8bd
00000080: 5864 6d3c 1880 23bd 6364 5ebc 4043 edbc
00000090: 62a7 a13d e2b9 223e f4a7 2a3e c314 193e
000000a0: d113 c4bc 320b 1f3d 93be 57bc 82b2 c3bd
000000b0: 1d27 8c3d 994a 2ebc 093f 3ebd 7f22 4cbd
000000c0: 0ff8 0cbd 2509 38bd 95d3 193d c5f0 16be
000000d0: a557 f6bd b564 26bd 40ba c4bd 635a 9cbd
000000e0: 1213 8c3d bfd0 8bbd 4749 a03b 6025 61bd
000000f0: 0531 dc3c 9c13 36bd 48a7 633c cb56 4b3c
00000100: 65fe a0bd d4c9 0dbd cc23 4e3e 7ce0 36bc
00000110: ae1b 07bd 8957 353d 04f1 1bbd 5561 7fbd
00000120: bf5e 13bd 2233 4a3a a7bd b0bd 5557 acbd
00000130: 869b 8e3b 0591 9bbd 9ee7 76bd 34a1 2e3d
00000140: d83d e9bc d90e 523d c5d4 0ebe 2754 edbc
00000150: c0ae a23d 91f8 59bd e719 dbbb 02a5 2bbb
00000160: b4f4 bbbb df4d d93b 94ee f43d 3439 98bc
00000170: 37fc bf3d e502 983d dda8 eebd 0dd6 af3d
00000180: ffc9 be3d e495 5dbc cf19 923d e5b0 58bc
00000190: bf2c 7bb9 5f21 7bbc 0411 813d a39b 0bbd
000001a0: ebd0 ecbc 817e 91bd a43f 103d ad59 21bb
000001b0: 5f44 b5bd 0539 643d 6b46 b1bc d9d3 99bd
000001c0: e00b a33d 9e23 16bd dc8b eabd 4f52 21be
000001d0: 5fd1 a43d 1a73 143a 8c46 25bc db96 efba
000001e0: 0d5e 033d 6070 263e f846 323d 146f 8a3e
000001f0: 98fb c73d 3a64 413d e05f 98bc e39e a3ba
00000200: 4f3f 21bd d53f 453d 0509 793d 5543 773d
00000210: b0df 853d 9cf2 0bbc ec49 883d 0885 0dbc
00000220: af5f 8f3d fc03 553c ac58 ab3d 7cd2 863d
00000230: e820 093e f312 803d bcdf 87bd 509d e63d
00000240: 6933 c93d b959 263e 1d4f 94bd 68ea 2bbe
00000250: bc49 23bd 9165 0c3e 3f3a 033e 3e1a 193e
00000260: 3539 703d b56e c73b 5bd9 d4bb fcf0 0f3d
00000270: b78a 8b3d b296 1f3e 8241 483e 142b bf3d
00000280: b888 d73b 9de3 a23b 85eb b3bd c5f2 32bd
00000290: cfd3 abbe ed49 523c a536 19be fb90 c8bd
000002a0: f93a 41ba 50f6 71bd 9eb4 993d 93ca c5bd
000002b0: 2e20 bd3d e7b6 9a3d 878c 82bd e39a 01bd
000002c0: 84bf 793d 381b a33d 7658 ecbd 7654 36bd
000002d0: 8c6d f3ba 8b6f d5bd 0143 793d 8511 adbd
000002e0: a408 9ebb 32ce 87bc 9c96 04bd c82b aabd
000002f0: 44de aabd 5674 6abb 8797 943d a398 13be
00000300: 8ec8 3cbd 95b9 ba3c 5919 793d b473 aebd
00000310: fd26 9ebc 44ee 963c 458e 2cbd 49ff 19bd
00000320: 6251 13be 2a64 99bd 0644 f0bd 1e59 7a3d
00000330: ed39 06bc c2a3 25bc a4d3 94bd 1223 68bd
00000340: 5ce4 a83d 4d26 403d 9f26 933c 4137 89bd
00000350: 0099 c6bd d8ea ba3a 3760 e03b 4704 74bd
00000360: 3322 0d3d 9559 cbbd b038 df3c 0124 abbd
00000370: a611 773d 3578 9dbd bcf7 3a3d be85 8f3d
00000380: 5f82 dc3d 70ab e9bc d679 a7bd ec10 5ebc
00000390: 26f3 8fbd 5a57 a03d 734e 1f3d 2add ae3d
000003a0: 673f ad3c 294b 5b3d 60b9 1b3e c4dc 793b
000003b0: 09dc 94bd 7adb 68bb 9981 253d e355 0abc
000003c0: 7eaa c9bd 1da0 823d 0173 883d 1275 193e
000003d0: 899d c8bd b3ba c33c f23a 70bd 7958 0ebe
000003e0: a92e 46bc 2f6a b53d bc4c a4bc 2f18 2bbe
000003f0: 9e38 803d 8bda 8ebc 5025 2d3d dc88 313d

bias f4 [168]
0.26671696 0.12046944 -0.1961627 -0.09838527 0.054048847 0.010041864 0.13655825 -0.27922532
0.017797317 -0.0675264 0.083844796 -0.12081841 -0.024332844 0.12693568 0.046109263 -0.0074827964
0.10145821 -0.09040217 -0.05289996 0.084172934 0.016661538 0.06296265 -0.020457337 0.14885058
-0.012129841 -0.12983711 -0.056949493 -0.034679342 -0.07359293 -0.18833002 0.1468598 0.026439473
-0.01926176 0.035587225 0.07787491 -0.044286687 -0.013156163 -0.0033056599 0.021959763 0.018716846
-0.024202656 -0.07607981 0.080790974 -0.021179821 0.09710614 -0.10176098 0.049196515 0.09144817
0.08502422 0.02140801 0.1259527 0.006326132 -0.18495063 0.040559582 0.12797028 0.14580815
-0.17170414 0.11602282 -0.009570033 0.07810622 0.024423093 0.049315732 -0.03580007 -0.09238935
-0.13688934 -0.12121658 0.097585656 0.19830813 0.14999394 -0.031750157 -0.23076218 0.07793281
0.0014344266 0.10506967 -0.033728518 0.08631186 -0.03305782 -0.0014286982 -0.031957958 0.022691421
0.11963124 -0.05332827 0.19042633 -0.12533288 0.072255395 -0.080120176 -0.038632914 0.018789904
-0.058402717 0.0067038196 0.0035143308 -0.0064284606 -0.17678925 -0.05356488 0.061049074 -0.13914512
-0.13566384 0.015838163 -0.16274957 -0.011962787 -0.1338351 0.21152768 -0.07960573 -0.10653639
-0.12711024 0.19850597 -0.03142932 -0.082140215 0.08191932 -0.07361323 0.038683638 0.10085717
-0.009734545 -0.022481466 -0.05708424 -0.08828363 -0.09862858 -0.08980761 -0.106861755 0.34708816
-0.11091932 0.06983328 0.046755113 -0.055340786 -0.034953054 -0.047600426 0.31472462 -0.051566496
-0.13107474 0.17548771 -0.08790014 0.16806641 -0.12315073 -0.0022292633 -0.006627245 0.19072486
-0.20986412 -0.141695 0.05125174 -0.013803828 0.103999406 -0.10517973 -0.054012522 0.09673427
0.00858566 0.08467904 0.08823454 0.042222727 0.11955329 -0.12060924 -0.014161235 -0.0006545576
-0.22294918 -0.015217134 0.077338934 -0.08712013 0.16398399 -0.16304943 -0.080120035 0.041555505
-0.056355365 0.15198295 -0.27206445 0.34149668 0.0010516335 0.013718434 0.19924797 -0.14787062
00000000: 208f 883e afb8 f63d e0de 48be 377e c9bd
00000010: 5362 5d3d a186 243c edd5 0b3e 9ff6 8ebe
00000020: aecb 913c 484b 8abd d2b6 ab3d a46f f7bd
00000030: ac55 c7bc 6dfb 013e 11dd 3c3d 3f32 f5bb
00000040: 52c9 cf3d c624 b9bd a1ad 58bd dc62 ac3d
00000050: c77d 883c 90f2 803d 2596 a7bc 496c 183e
00000060: 3ebc 46bc 05f4 04be df43 69bd ed0b 0ebd
00000070: e4b7 96bd 96d9 40be 6a62 163e 9897 d83c
00000080: d7ca 9dbc e9c3 113d e17c 9f3d f565 35bd
00000090: f28c 57bc c5a3 58bb f6e4 b33c 1254 993c
000000a0: a644 c6bc bbcf 9bbd bd75 a53d 4e81 adbc
000000b0: 95df c63d 1068 d0bd 4982 493d 2e49 bb3d
000000c0: 2e21 ae3d da5f af3c bff9 003e 714b cf3b
000000d0: b363 3dbe ce21 263d a40a 033e bb4e 153e
000000e0: 36d3 2fbe 5f9d ed3d a1cb 1cbc 27f6 9f3d
000000f0: f012 c83c 4bff 493d 18a3 12bd a136 bdbd
00000100: b82c 0cbe 6640 f8bd fdda c73d 4911 4b3e
00000110: 0398 193e 740c 02bd ec4c 6cbe 3d9b 9f3d
00000120: 5f03 bc3a c42e d73d ea26 0abd 46c4 b03d
00000130: a367 07bd 2843 bbba 59e6 02bd 5ce3 b93c
00000140: 3901 f53d be6e 5abd 1fff 423e 4357 00be
00000150: a3fa 933d 0c16 a4bd 8c3d 1ebd 49ed 993c
00000160: b037 6fbd b7ab db3b b050 663b d6a5 d2bb
00000170: 3e08 35be d966 5bbd 980e 7a3d 0f7c 0ebe
00000180: 76eb 0abe 09bf 813c d3a7 26be 91ff 43bc
00000190: 120c 09be b69a 583e 5408 a3bd c02f dabd
000001a0: 3029 02be 2645 4b3e 08bc 00bd 2139 a8bd
000001b0: 51c5 a73d 88c2 96bd bc72 1e3d 348e ce3d
000001c0: a47d 1fbc 0d2b b8bc 2ad1 69bd 0cce b4bd
000001d0: c8fd c9bd 0ded b7bd 56da dabd 8ab5 b13e
000001e0: ab29 e3bd c004 8f3d 4a82 3f3d 05ad 62bd
000001f0: ef2a 0fbd aaf8 42bd 9623 a13e 6437 53bd
00000200: 7538 06be 0db3 333e fd04 b4bd 9a19 2c3e
00000210: 7336 fcbd d518 12bb 5c29 d9bb 614d 433e
00000220: 9fe6 56be 7e18 11be 58ed 513d 7329 62bc
00000230: a4fd d43d 7868 d7bd 3c3c 5dbd 9e1c c63d
00000240: deaa 0c3c 346c ad3d 4fb4 b43d bdf1 2c3d
00000250: 5bd8 f43d fa01 f7bd 8604 68bc 9e96 2bba
00000260: ca4c 64be 4951 79bc e063 9e3d 0a6c b2bd
00000270: 6beb 273e 6ef6 26be f915 a4bd 1b36 2a3d
00000280: e2d4 66bd 6ba1 1b3e 084c 8bbe a7d8 ae3e
00000290: f7d6 893a 48c3 603c a907 4c3e 656b 17be

weight f4 [168, 168]
0.05526793 -0.06529828 -0.039663788 -0.051176835 -0.0061212927 0.003328679 -0.014325007 -0.060006842
0.034194566 0.016926376 0.059675656 -0.06575679 0.11274198 -0.009702719 0.010412132 0.0031812307
0.0016347241 -0.05869539 -0.013409393 -0.038718358 0.05811215 -0.037385013 -0.088778034 0.056089226
0.045347292 0.019508528 -0.010026427 0.05385194 0.058129795 0.047873843 0.06592325 0.008821102
-0.030558616 0.087195136 -0.086990766 -0.03312427 0.070315294 0.005633384 -0.026756283 0.011178156
0.08497288 -0.00920611 -0.0039922814 -0.0061213565 0.026025211 -0.0009918752 -0.07586277 -0.023526637
-0.019213382 -0.04699618 0.020379296 0.0016547935 0.029080557 -0.042529024 0.019124553 0.0026124765
0.038732044 -0.05718671 0.011313658 -0.0055600605 0.011970587 0.0850602 0.01995408 0.0070095765
-0.038124647 -0.05538854 -0.021035297 0.013807571 -0.08709463 -0.094896525 0.020584844 -0.047034666
0.032383308 0.07406603 -0.0129317185 -0.009649754 0.012014261 0.022440184 -0.017517546 -0.0076044686
-0.04596559 0.027392171 -0.0023061915 -0.07137606 -0.07700848 -0.010339741 0.05274033 0.10846285
-0.065461926 0.053022545 0.060269013 0.037362102 0.0020993748 -0.010288079 -0.0027476288 -0.022173382
0.012041991 -0.008978889 0.034217764 0.011899513 -0.0071081603 -0.08211261 -0.044005465 -0.03477037
0.039705828 0.0132349 0.09920313 0.034973804 -0.047716286 -0.043596964 -0.002828499 -0.035670973
0.06254117 0.043079026 0.0005288237 -0.014145187 -0.026742294 -0.010315742 -0.07523869 0.0063598133
-0.02060893 -0.09134117 0.06282706 0.027324477 0.060996164 -0.019440578 0.0043615364 0.046262987
0.08684215 0.011306919 -0.040368307 -0.0768615 0.042615056 0.0023700723 0.050801065 0.04626471
-0.03568616 -0.028580565 -0.040292237 0.0793774 0.064473726 -0.106179304 0.03239097 -0.081533164
0.05100365 -0.0056878543 -0.081203066 0.020886442 -0.04199586 0.048944276 -0.045725156 -0.061431758
0.03713086 0.047098015 0.066510625 0.052085627 -0.031571273 -0.040370893 -0.051516607 0.03790663
-0.023540547 0.0074035665 -0.028288785 -0.041396372 -0.08621311 0.07870878 -0.028360857 -0.031343117
-0.04692048 -0.002055098 0.047935303 -0.046532694 -0.01058091 -0.0528862 0.03249131 0.095556006
-0.040864043 0.07752533 0.045084734 -0.06492898 -0.020902015 -0.057746507 0.010303481 -0.014671177
0.1416994 -0.032773457 -0.06423053 0.010575771 -0.06311711 -0.07214592 0.036396336 -0.010057548
-0.04593425 -0.04204593 0.0580391 0.040172976 0.064464495 0.101500034 0.0035405776 0.0008221661
-0.0757768 0.06761291 0.012189873 -0.016303714 0.036045525 -0.028474659 0.10499964 0.033145487
-0.022991475 -0.024073187 0.008249985 0.016696298 0.024197895 -0.0024809376 0.03730918 -0.0020301326
-0.03439497 -0.054415174 0.04662537 -0.004626204 0.022351768 0.07120526 0.06808132 0.07489162
-0.0134588685 0.031813957 0.10590713 -0.05825883 -0.020975549 0.033787128 -0.06490218 0.00909706
-0.03093277 -0.09738949 -0.066834815 0.04796075 -0.048007064 -0.04975771 0.025432263 0.015639624
0.025653005 -0.03344023 0.029048316 -0.018499993 0.02063331 0.00666261 -0.040672313 -0.014881247
0.12275348 0.025287563 -0.028176002 -0.030530019 0.07267301 -0.014409578 -0.05985653 0.004694067
00000000: a060 623d 1bbb 85bd 7f76 22bd cd9e 51bd
00000010: 2095 c8bb f725 5a3b 6fb3 6abc bcc9 75bd
00000020: 9a0f 0c3d 2fa9 8a3c 766e 743d 7fab 86bd
00000030: 44e5 e63d 27f8 1ebc a697 2a3c 327c 503b
00000040: 3d44 d63a 946a 70bd 12b3 5bbc 2497 1ebd
00000050: 0107 6e3d 0721 19bd 42d1 b5bd d1bd 653d
00000060: 15be 393d 59d0 9f3c e245 24bc da93 5c3d
00000070: 8219 6e3d 5d17 443d c502 873d 6286 103c
00000080: 1056 fabc 5d93 b23d 3728 b2bd 51ad 07bd
00000090: 7701 903d 4098 b83b fe2f dbbc 9624 373c
000000a0: 4306 ae3d 39d5 16bc afd1 82bb a995 c8bb
000000b0: d332 d53c cf01 82ba f15d 9bbd efba c0bc
000000c0: 6265 9dbc 117f 40bd 7bf2 a63c a8e5 d83a
000000d0: 593a ee3c ea32 2ebd 18ab 9c3c 1536 2b3b
000000e0: 7ea5 1e3d 9d3c 6abd ec5c 393c 2b31 b6bb
000000f0: 4820 443c 0b34 ae3d bd76 a33c 97b0 e53b
00000100: 9728 1cbd 18df 62bd 3752 acbc 2639 623c
00000110: ab5e b2bd 1c59 c2bd 8ca1 a83c 6ca7 40bd
00000120: 5ca4 043d eeaf 973d 8fdf 53bc 001a 1ebc
00000130: 77d7 443c 7ad4 b73c f580 8fbc e82e f9bb
00000140: 6a46 3cbd 8c65 e03c 7923 17bb 9d2d 92bd
00000150: 9fb6 9dbd 0468 29bc 3f06 583d c521 de3d
00000160: e710 86bd 2b2e 593d a4dc 763d 0109 193d
00000170: aa95 093b 558f 28bc 9011 34bb f4a4 b5bc
00000180: c54b 453c 311c 13bc ed27 0c3d 2df6 423c
00000190: 92eb e8bb a82a a8bd 133f 34bd 606b 0ebd
000001a0: 94a2 223d 32d7 583c 032b cb3d b140 0f3d
000001b0: 2772 43bd bb92 32bd 575e 39bb ba1b 12bd
000001c0: 9615 803d a273 303d c2a0 0a3a 37c1 67bc
000001d0: a812 dbbc 5c03 29bc be16 9abd fb65 d03b
000001e0: 0fd4 a8bc 1411 bbbd 79ab 803d 95d7 df3c
000001f0: 1dd7 793d d941 9fbc 38eb 8e3b 427e 3d3d
00000200: 4cda b13d a840 393c 3d59 25bd 9069 9dbd
00000210: 208d 2e3d 3753 1b3b c714 503d 1180 3d3d
00000220: a72b 12bd ca21 eabc 7909 25bd 9e90 a23d
00000230: cd0a 843d 8974 d9bd 65ac 043d dcfa a6bd
00000240: 34e9 503d 2e61 babb cb4d a6bd 0b1a ab3c
00000250: da03 2cbd cb79 483d 4d4a 3bbd de9f 7bbd
00000260: 8716 183d d9e9 403d b936 883d bd57 553d
00000270: e150 01bd f35b 25bd 1403 53bd fc43 1b3d
00000280: 1bd8 c0bc 9e99 f23b e2bd e7bc 3e8f 29bd
00000290: 8090 b0bd 1232 a13d 0755 e8bc a461 00bd
000002a0: b02f 40bd d3ae 06bb cf57 443d 1199 3ebd
000002b0: 8e5b 2dbc 339f 58bd 9c15 053d deb2 c33d
000002c0: 0e61 27bd 9ac5 9e3d c5aa 383d 7cf9 84bd
000002d0: b43a abbc 9a87 6cbd eecf 283c 605f 70bc
000002e0: a619 113e 763d 06bd 4c8b 83bd 0046 2d3c
000002f0: 8b43 81bd 3dc1 93bd 5314 153d 6ac8 24bc
00000300: 8d25 3cbd 5a38 2cbd 68ba 6d3d 6b8c 243d
00000310: f605 843d 40df cf3d 0909 683b a286 573a
00000320: de30 9bbd a378 8a3d 08b8 473c 5e8f 85bc
00000330: 79a4 133d b043 e9bc 0d0a d73d 90c3 073d
00000340: 9e58 bcbc 2235 c5bc f22a 073c adc6 883c
00000350: aa3a c63c 3a97 22bb 83d1 183d f90b 05bb
00000360: bde1 0cbd 72e2 5ebd 3efa 3e3d 6997 97bb
00000370: 0e1b b73c 10d4 913d 386e 8b3d c760 993d
00000380: 9682 5cbc 5a4f 023d d6e5 d83d d0a0 6ebd
00000390: ead4 abbc 5f64 0a3d 6feb 84bd d60b 153c
000003a0: b866 fdbc 2474 c7bd b1e0 88bd 7e72 443d
000003b0: 0ea3 44bd bece 4bbd 5257 d03c ab1e 803c
000003c0: 4026 d23c 9ff8 08bd bcf6 ed3c 4c8d 97bc
000003d0: 3007 a93c 0652 da3b 0398 26bd 79d0 73bc
000003e0: 2d66 fb3d dd27 cf3c 5cd1 e6bc 171a fabc
000003f0: 96d5 943d 2716 6cbc 1f2c 75bd b0d0 993b

bias f4 [168]
0.07050228 -0.029667418 0.10046299 0.06641701 0.17927533 -0.0077733872 -0.046385307 0.035620973
0.10008285 0.020483024 0.015647246 -0.030656451 0.042474743 -0.052325383 0.05442157 0.045685124
0.02617904 -0.012674145 0.004620423 -0.043468576 0.07345819 0.03392189 0.0868971 0.022822447
-0.021324994 -0.076233886 0.03345908 0.092055336 0.0715654 -0.05755762 0.11597406 -0.08415544
-0.05359974 0.23396075 -0.016271587 0.02361909 0.0003304917 0.042767383 -0.054880686 0.076298274
-0.0316587 0.041736104 0.016314473 0.096288055 0.030382914 -0.04061493 0.09432804 0.056367055
-0.09018194 0.01550569 0.031842582 0.036093235 -0.016378107 -0.06695499 0.12200642 -0.027956016
0.08906108 -0.021406256 0.07021353 0.09386571 -0.020089952 -0.023003707 0.13872935 0.010557957
0.04077482 0.013789471 0.0076660914 0.012947455 0.12781924 -0.025304733 -0.022143712 -0.09879348
0.20212322 0.0030452802 0.027294802 -0.06668229 0.22108033 0.08854257 0.024268033 -0.088043585
-0.015015725 0.03711535 -0.005161181 0.07555303 -0.13032015 -0.059769955 0.031824883 -0.020966856
0.018832946 0.057177305 -0.072696336 -0.036083147 0.0096508 -0.013692257 -0.0451454 0.028480306
0.1783929 0.05398265 -0.097506575 0.076786354 0.22854543 -0.0005117063 -0.060893122 -0.05320838
0.012291419 -0.0032380102 0.05968976 0.020844989 -0.051417425 0.027456425 0.019977916 0.14327168
0.08122519 -0.11330013 0.028612748 0.06397154 0.067454755 0.051807057 0.10266097 0.014925232
0.092328474 -0.023048833 0.04600476 -0.18686822 0.009427341 0.11587131 0.061412115 -0.09505145
0.05980259 -0.030606601 -0.09140774 0.01875338 0.14685185 0.09372334 -0.011646644 0.022453787
0.09407146 -0.026183495 -0.043757316 0.12637757 -0.075869374 0.05972289 -0.0748868 0.14999041
-0.029703118 -0.016120724 -0.04020175 0.013508269 -0.10377492 -0.11391813 0.024791906 0.06548959
0.012667325 -0.06741683 0.12969366 0.0010628187 -0.062361643 0.09757722 -0.06754625 0.056603186
0.06997682 0.025696604 -0.044630904 -0.005482889 -0.015434663 0.03417578 0.082815565 0.00992257
00000000: 8063 903d 1609 f3bc 8abf cd3d a405 883d
00000010: f493 373e e6b7 febb 85fe 3dbd 4ce7 113d
00000020: 3df8 cc3d 04cc a73c a72e 803c 3d23 fbbc
00000030: fff9 2d3d 2453 56bd 27e9 5e3d 5320 3b3d
00000040: 6d75 d63c 38a7 4fbc eb66 973b 1b0c 32bd
00000050: 3f71 963d aef1 0a3d 1bf7 b13d 24f6 ba3c
00000060: c1b1 aebc 8320 9cbd 630c 093d 8287 bc3d
00000070: e190 923d 8ac1 6bbd cf83 ed3d b059 acbd
00000080: 678b 5bbd 6893 6f3e fe4b 85bc d27c c13c
00000090: d845 ad39 da2c 2f3d 92ca 60bd 4542 9c3d
000000a0: 8eac 01bd 7af3 2a3d eea5 853c ac32 c53d
000000b0: 97e5 f83c d75b 26bd 0f2f c13d 24e1 663d
000000c0: 4fb1 b8bd 940b 7e3c 5e6d 023d 80d6 133d
000000d0: 612b 86bc b31f 89bd 80de f93d 0404 e5bc
000000e0: a865 b63d 2c5c afbc 1ccc 8f3d aa3c c03d
000000f0: af93 a4bc 4572 bcbc 110f 0e3e 48fb 2c3c
00000100: 7f03 273d 3ced 613c d633 fb3b 9021 543c
00000110: 0ce3 023e df4b cfbc bb66 b5bc 3c54 cabd
00000120: 64f9 4e3e 5393 473b 5999 df3c b990 88bd
00000130: e262 623e cf55 b53d c1cd c63c 3250 b4bd
00000140: 8404 76bc 4406 183d 201f a9bb 8cbb 9a3d
00000150: a572 05be 57d1 74bd cf5a 023d afc2 abbc
00000160: 8d47 9a3c c032 6a3d d1e1 94bd eccb 13bd
00000170: 641e 1e3c 7d55 60bc 62ea 38bd 884f e93c
00000180: a1ac 363e e91c 5d3d 87b1 c7bd 2a42 9d3d
00000190: d007 6a3e 0724 06ba 116b 79bd 08f1 59bd
000001a0: f361 493c cc34 54bb 407d 743d 1cc3 aa3c
000001b0: 149b 52bd 4cec e03c baa8 a33c d0b5 123e
000001c0: 6459 a63d e609 e8bd 4865 ea3c 8303 833d
000001d0: b825 8a3d a333 543d ea3f d23d f688 743c
000001e0: b616 bd3d e8d0 bcbc 7d6f 3c3d 625a 3fbe
000001f0: 2275 1a3c f04d ed3d 458b 7b3d 56aa c2bd
00000200: 90f3 743d b2ba fabc fb33 bbbd b0a0 993c
00000210: 5560 163e 06f2 bf3d 91d1 3ebc 01f1 b73c
00000220: 8aa8 c03d c57e d6bc df3a 33bd 1f69 013e
00000230: 6761 9bbd fd9f 743d 405e 99bd 1697 193e
00000240: f453 f3bc 9c0f 84bc 97aa 24bd c951 5d3c
00000250: f287 d4bd e94d e9bd 6518 cb3c 681f 863d
00000260: 9d8a 4f3c d611 8abd 6ace 043e 474e 8b3a
00000270: ec6e 7fbd 91d6 c73d b055 8abd bed8 673d
00000280: 0250 8f3d af81 d23c e5ce 36bd cea9 b3bb
00000290: abe1 7cbc e7fb 0b3d 359b a93d 4692 223c

weight f4 [168, 168]
-0.04636064 0.018650636 0.06500499 -0.014186776 0.050254125 -0.004346185 0.07713967 -0.040835127
-0.026724447 -0.022806983 -0.04375658 0.010532503 0.006494991 0.050910197 0.06335339 -0.04731238
-0.028839143 0.024922995 0.0032698803 -0.028438415 -0.0122144185 -0.025740972 -0.04177227 0.011269922
0.03602038 -0.09246404 0.04414644 -0.046367757 -0.030612934 0.009254179 -0.046787575 -0.046666175
0.0016588859 0.051647305 0.02060599 -0.043550305 0.03342831 0.0008409303 -0.025950408 -0.048963893
-0.08515412 -0.0023168854 0.053287998 0.08699587 -0.08102824 0.06680136 -0.025314553 -0.03302721
0.067420125 -0.05399133 0.076946214 0.058316637 0.039340585 0.07231008 -0.029316686 -0.01623292
0.085084505 0.052656543 0.038597915 -0.04657505 -0.027597155 -0.01920157 0.020934306 0.023978295
-0.07490687 0.051307164 0.0018118001 -0.060508423 0.13029984 -0.02385744 0.046052393 -0.031102253
0.068963036 0.027421862 0.028029902 -0.050184507 0.018726733 0.034591533 0.06384831 -0.06608752
-0.021577504 -0.034801953 -0.014087947 0.027696382 -0.032563694 0.029041728 -0.025057504 0.08239908
0.0450972 0.027144581 0.057952285 -0.06973918 -0.028485611 -0.07333026 0.0036577084 0.039014887
0.089792274 -0.052942984 -0.059842765 -0.023611141 0.07821378 -0.015451712 0.076025054 0.030743033
0.05527126 -0.04880825 1.408906e-05 0.043076918 -0.06853261 0.06758557 -0.026654871 -0.012515759
0.02112933 -0.09195945 0.055249088 0.047485594 -0.050261095 0.049498912 0.081698 -0.054896373
-0.06280185 0.058958612 0.018896818 0.05781384 -0.032337036 0.08807554 -0.066919185 0.039577093
0.082565345 -0.024544228 0.029277561 0.007601009 -0.098509975 -0.048532933 0.021733854 0.08929865
0.030747393 -0.03503194 -0.06132352 0.08838713 -0.08878951 0.07269737 -0.07191344 0.0031777762
-0.04906934 -0.078872874 -0.0066739325 -0.020582363 0.025290549 -0.03848543 0.0672065 0.0055173156
0.03354519 0.082309574 0.020970663 0.033325817 0.009024081 -0.091414414 0.028806727 -0.06330902
0.072174065 -0.018220225 0.004827947 0.072833076 0.021464815 0.12622944 0.048578344 -0.077608846
0.106543444 0.023338705 0.022632578 0.05602657 0.09040953 0.07439306 0.028294906 0.05883266
0.022045387 -0.0004883254 -0.07629756 0.013210594 -0.024417927 0.028413996 0.06645411 -0.049178254
-0.045093235 0.03576907 0.004959594 -0.014206994 0.00010733221 0.07491409 -0.00054172485 0.06819836
-0.062282436 -0.050947323 -0.049253162 -0.011053068 -0.010070233 0.028608765 0.1007027 -0.05996901
0.026630724 0.09051245 0.00050058 -0.10512949 -0.049271766 0.09761922 0.039337195 0.07878837
-0.07081369 -0.041473527 0.03866929 0.057358153 0.066758454 -0.023172347 0.032602828 0.0020778982
-0.061980754 -0.021246625 -0.035050027 0.0146261975 -0.015900556 0.044062417 -0.080241844 0.08933912
0.058998838 -0.07158071 -0.057385102 0.0127816945 -0.050750274 -0.060645297 -0.012467673 -0.0598533
-0.04134871 -0.0043241265 -0.033920296 0.057297695 0.08947358 -0.10168311 0.004177487 -0.10887617
0.07413067 0.050157968 -0.017555641 -0.05561299 -0.027098201 -0.0040278384 0.06263028 -0.028224904
0.069309786 0.054258935 0.08166631 0.02960173 -0.10367997 0.0113000935 -0.068252675 -0.050879642
00000000: a8e4 3dbd 38c9 983c 5621 853d a76f 68bc
00000010: 45d7 4d3d 716a 8ebb 67fb 9d3d bc42 27bd
00000020: 3aed dabc b6d5 babc 1a3a 33bd 8590 2c3c
00000030: efd3 d43b 3687 503d 6cbf 813d a0ca 41bd
00000040: 1140 ecbc 4f2b cc3c 7d4b 563b aef7 e8bc
00000050: fc1e 48bc bbde d2bc 6619 2bbd 7ba5 383c
00000060: 1b8a 133d c95d bdbd e6d2 343d 1eec 3dbd
00000070: fac7 fabc d79e 173c 54a4 3fbd 0825 3fbd
00000080: f96e d93a 208c 533d e5cd a83c ce61 32bd
00000090: 20ec 083d e171 5c3a f395 d4bc 5d8e 48bd
000000a0: 4965 aebd e3d6 17bb 8444 5a3d e42a b23d
000000b0: 22f2 a5bd 27cf 883d 7760 cfbc 8a47 07bd
000000c0: 9013 8a3d 0326 5dbd fa95 9d3d 6ddd 6e3d
000000d0: 9823 213d 4f17 943d 8c29 f0bc e7fa 84bc
000000e0: c940 ae3d 63ae 573d d918 1e3d 7bc5 3ebd
000000f0: 6e13 e2bc 9c4c 9dbc 6c7e ab3c 216e c43c
00000100: c668 99bd 7627 523d ec79 ed3a aed7 77bd
00000110: 526d 053e ae70 c3bc 6fa1 3c3d 27ca febc
00000120: 7e3c 8d3d d0a3 e03c f79e e53c 458e 4dbd
00000130: ce68 993c daaf 0d3d e7c2 823d e558 87bd
00000140: 4ec3 b0bc 7e8c 0ebd 22d1 66bc 86e3 e23c
00000150: 8261 05bd ebe8 ed3c 6545 cdbc d9c0 a83d
00000160: d7b7 383d 505e de3c 605f 6d3d 6ad3 8ebd
00000170: a85a e9bc 2d2e 96bd 2ab6 6f3b 13ce 1f3d
00000180: 03e5 b73d beda 58bd b01d 75bd 276c c1bc
00000190: 8c2e a03d 2d29 7dbc 06b3 9b3d d0d8 fb3c
000001a0: 1e64 623d 29eb 47bd 0d60 6c37 6c71 303d
000001b0: d35a 8cbd 4e6a 8a3d 515b dabc e60e 4dbc
000001c0: 6b17 ad3c 3c55 bcbd de4c 623d 4180 423d
000001d0: 94de 4dbd 5fbf 4a3d 4851 a73d 05db 60bd
000001e0: 429e 80bd 967e 713d 80cd 9a3c 35ce 6c3d
000001f0: d773 04bd f360 b43d ed0c 89bd 971b 223d
00000200: 0518 a93d fa10 c9bc 7fd7 ef3c e311 f93b
00000210: 99bf c9bd 78ca 46bd 320b b23c 36e2 b63d
00000220: f5e1 fb3c a77d 0fbd 5f2e 7bbd 5004 b53d
00000230: 46d7 b5bd 5ce2 943d 5b47 93bd 3d42 503b
00000240: effc 48bd 1a88 a1bd 01b1 dabb 589c a8bc
00000250: 202e cf3c e6a2 1dbd 90a3 893d 99ca b43b
00000260: ae66 093d ec91 a83d abca ab3c a780 083d
00000270: bdd9 133c 7b37 bbbd 16fc eb3c 29a8 81bd
00000280: ffcf 933d 9542 95bc c133 9e3b 8229 953d
00000290: fbd6 af3c 4a42 013e 16fa 463d 63f1 9ebd
000002a0: 7333 da3d d030 bf3c f567 b93c 1e7c 653d
000002b0: a228 b93d 635b 983d b8ca e73c 84fa 703d
000002c0: 8798 b43c f602 00ba e541 9cbd 3f71 583c
000002d0: 1b08 c8bc 78c4 e83c 1819 883d 236f 49bd
000002e0: afb3 38bd 9782 123d 1784 a23b 74c4 68bc
000002f0: 8b17 e138 8f6c 993d 8a02 0eba 95ab 8b3d
00000300: de1b 7fbd 24ae 50bd afbd 49bd ed17 35bc
00000310: 9efd 24bc ee5c ea3c 383d ce3d 11a2 75bd
00000320: ad28 da3c 975e b93d 5b39 033a 214e d7bd
00000330: 31d1 49bd 96ec c73d 0a20 213d cc5b a13d
00000340: c506 91bd 25e0 29bd b063 1e3d 62f0 6a3d
00000350: a8b8 883d efd3 bdbc 8b8a 053d 592d 083b
00000360: 88df 7dbd 670d aebc 9e90 0fbd b8a2 6f3c
00000370: e241 82bc cb7a 343d d655 a4bd 6ef7 b63d
00000380: c4a8 713d e898 92bd a40c 6bbd 506a 513c
00000390: 85df 4fbd 3467 78bd 3645 4cbc bc28 75bd
000003a0: 445d 29bd 67b1 8dbb 02f0 0abd fdb0 6a3d
000003b0: ed3d b73d 3c3f d0bd 4de3 883b 78fa debd
000003c0: d2d1 973d 7172 4d3d d9d0 8fbc 72ca 63bd
000003d0: 0cfd ddbc f5fb 83bb 4e44 803d ea37 e7bc
000003e0: 4af2 8d3d 9e3e 5e3d ab40 a73d 547f f23c
000003f0: 2a56 d4bd 0724 393c 0fc8 8bbd 2c67 50bd

bias f4 [168]
0.07456241 0.18770382 0.2328372 0.10591936 -0.020198623 0.21977727 -0.04199517 0.075917035
-0.060178142 -0.04721865 -0.0710037 0.1326998 -0.06488884 -0.034836218 -0.04224788 0.108605765
-0.03660021 0.020614205 -0.033981275 -0.029382031 0.0797353 0.07659731 -0.06045809 0.0047809435
-0.044004016 0.18770336 0.03909225 0.13275257 0.036259625 -0.051610887 -0.03742579 0.014063682
-0.037182808 0.055612776 0.15331365 0.07033729 -0.023353416 -0.021628058 0.11162428 -0.04084732
0.09436058 -0.021301242 0.012750123 -0.09566993 -0.029143102 0.06754114 0.040559083 0.026490243
0.093415305 -0.014849709 0.17164591 0.06730222 0.058717262 0.17154866 0.023608033 0.04583935
0.106195465 0.03448059 0.11001776 -0.021371989 -0.01431062 -0.05910455 0.09153053 0.080032445
-0.0763956 -0.0033717775 -0.030812005 0.06339324 0.10544947 -0.008070339 0.05520296 -0.024784489
-0.01900095 0.09006627 -0.03186673 0.08552606 0.048694566 -0.024656255 0.013185625 -0.045033913
0.081504226 -0.054420114 0.12898886 0.06702768 -0.020175762 -0.005140322 -0.029634885 0.0032744755
0.07110805 -0.0061760913 0.01675031 -0.040601894 0.029931031 -0.067891136 0.1196527 0.17177096
-0.0013451269 0.024232354 -0.04302632 0.08447263 0.05912172 0.07337208 0.010819132 0.044232465
-0.0016227426 -0.011027606 0.08369861 0.016676098 0.17472278 -0.019214155 0.1063103 0.032153584
0.054922216 0.0384178 0.022038518 -0.021648463 -0.036310848 -0.043226518 0.024493074 -0.041060183
0.026687605 0.14927524 -0.006094908 0.1245561 0.008913897 0.005028883 0.042507544 0.037933633
0.08404763 -0.06562253 -0.035586096 0.0039999816 0.046537146 -0.010390567 0.024612144 -0.043509007
0.044317756 -0.036777932 -0.07722818 0.169873 -0.04369738 0.015146995 -0.005258833 -0.05284214
0.030569963 0.09689779 0.063025825 0.1430387 0.08110166 -0.054104146 0.025412612 0.013106803
0.17955466 -0.029257499 -0.022263449 0.03355234 0.07550171 -0.055093896 0.19103132 -0.03376623
0.0115215555 -0.04766642 0.05842044 0.19186334 -0.025292313 0.09791008 0.121563636 -0.056425568
00000000: 2db4 983d 6e35 403e e06c 6e3e 40ec d83d
00000010: 9577 a5bc 4b0d 613e 2103 2cbd 647a 9b3d
00000020: 5b7d 76bd 5868 41bd 636a 91bd 75e2 073e
00000030: 71e4 84bd 6cb0 0ebd 1d0c 2dbd b36c de3d
00000040: 1aea 15bd 1fdf a83c f32f 0bbd 96b2 f0bc
00000050: 434c a33d 0ddf 9c3d e7a2 77bd 76a9 9c3b
00000060: 8e3d 34bd 4f35 403e 321f 203d 4af0 073e
00000070: f984 143d f065 53bd c94b 19bd 5c6b 663c
00000080: 004d 18bd 39ca 633d 41fe 1c3e ff0c 903d
00000090: aa4f bfbc 532d b1bc 459b e43d 854f 27bd
000000a0: 1f40 c13d f17f aebc e4e5 503c 99ee c3bd
000000b0: 84bd eebc 0253 8a3d 4821 263d 1102 d93c
000000c0: 8650 bf3d 324c 73bc f2c3 2f3e bfd5 893d
000000d0: 8381 703d 74aa 2f3e a265 c13c 0bc2 3b3d
000000e0: 027d d93d 853b 0d3d fe50 e13d 4f14 afbc
000000f0: 1777 6abc 9d17 72bd 5c74 bb3d 0de8 a33d
00000100: 4c75 9cbd 0af9 5cbb 7569 fcbc 51d4 813d
00000110: e4f5 d73d 7539 04bc 801c 623d d708 cbbc
00000120: e1a7 9bbc aa74 b83d b086 02bd 4928 af3d
00000130: f473 473d eafb c9bc 8508 583c 7b75 38bd
00000140: b0eb a63d a0e7 5ebd a815 043e cf45 893d
00000150: a447 a5bc 2570 a8bb dcc4 f2bc 9598 563b
00000160: 19a1 913d cf60 cabb f237 893c 2c4e 26bd
00000170: ec31 f53c 820a 8bbd 7a0c f53d bae4 2f3e
00000180: f84e b0ba ee82 c63c 5e3c 30bd fcff ac3d
00000190: 9e29 723d 1a44 963d bb42 313c 1a2d 353d
000001a0: 35b2 d4ba 22ad 34bc 2d6a ab3d 509c 883c
000001b0: 87ea 323e 0167 9dbc 37b9 d93d 7ab3 033d
000001c0: 1ef6 603d fc5b 1d3d 1f8a b43c 1e58 b1bc
000001d0: afba 14bd 4a0e 31bd b3a5 c83c b92e 28bd
000001e0: f79f da3c 9cdb 183e cbb7 c7bb 4517 ff3d
000001f0: 980b 123c 54c9 a43b 641c 2e3d 4c60 1b3d
00000200: 2a21 ac3d 1b65 86bd bac2 11bd 4712 833b
00000210: bc9d 3e3d 323d 2abc 689f c93c 8036 32bd
00000220: 8986 353d 75a4 16bd cf29 9ebd 30f3 2d3e
00000230: 06fc 32bd 1a2b 783c 4a52 acbb 0071 58bd
00000240: dc6d fa3c 5972 c63d af13 813d bd78 123e
00000250: a118 a63d 4f9c 5dbd 1c2e d03c ebbd 563c
00000260: 2ddd 373e 6cad efbc d661 b6bc 2e6e 093d
00000270: a4a0 9a3d 23aa 61bd b79d 433e 754e 0abd
00000280: e8c4 3c3c dd3d 43bd 454a 6f3d d377 443e
00000290: d331 cfbc 1485 c83d 5bf6 f83d 7f1e 67bd

weight f4 [84, 168]
0.008773665 0.05755817 0.018297613 0.003737483 0.06778132 -0.05652339 0.06404925 0.05986736
-0.05845162 -0.08799488 -0.020796817 -0.039593365 -0.026870849 0.04939145 0.05132956 0.04043714
0.06052311 -0.012111829 0.022851508 -0.07110317 -0.02796413 -0.011396927 -0.008861643 0.031582367
0.03310802 -0.08333387 0.07464016 0.016543254 0.027285108 -0.072697796 0.058398284 0.03191384
0.006067266 0.067491546 0.0071043237 0.007651954 -0.037797727 -0.031745926 0.07769909 0.006851193
0.040465984 0.08655547 0.022139011 0.024702203 0.07572327 -0.0007091077 0.09869855 -0.011054736
0.023563357 -0.07635977 0.05285722 -0.06235059 0.003246577 0.048223875 -0.017431369 0.025168339
-0.03275795 0.035540253 0.059813052 0.032026064 0.021779971 0.0402127 -0.041861814 0.046836417
-0.018595105 -0.054323275 0.05901868 -0.0037565606 -0.048785586 0.04194495 0.09285479 0.091139086
0.012638541 -0.030588355 0.077855915 0.01674185 0.09371834 0.034183655 -0.03843756 -0.017250346
-0.0501712 -0.0027954734 -0.037893828 -0.09402009 0.026477117 0.044961274 0.03572362 -0.05646939
0.04540879 -0.0024637135 0.0019110321 -0.05209142 -0.0476087 -0.06991132 0.050372314 -0.0032320565
-0.005503287 -0.05747936 -0.06747484 -0.009817485 -0.0017954152 0.07488609 -0.04387674 0.061870534
0.03129975 0.008878423 0.07963843 0.055268906 -0.061889593 -0.055209227 -0.04421033 0.0070358273
-0.053170897 -0.07907681 0.011256965 0.11208907 -0.05035823 0.018582566 0.0121257845 -0.04559251
0.08017419 0.01202575 -0.0669715 -0.05180221 -0.049673993 0.007476336 -0.016170746 0.071650945
-0.044448078 -0.045325674 0.02059693 0.020244818 -0.023317475 0.074504375 -0.065071985 0.07887664
0.06708295 0.0020354409 0.040019054 -0.031051299 -0.012884753 0.0071585835 -0.016835378 0.044180717
0.034297023 0.09415375 -0.027162418 -0.09282032 -0.012987873 0.028399838 0.086988516 -0.005563958
-0.0047395276 -0.05604885 0.06505321 -0.026826913 -0.010334618 -0.063446105 0.055519626 -0.039232895
-0.024037741 0.0131017575 0.07128766 0.04822559 0.06209928 -0.007869403 -0.022591542 -0.072923824
-0.03425089 0.058975864 0.0072748703 0.024916256 -0.002612071 0.014268676 -0.07138178 0.021319015
-0.056713037 0.037562177 -0.07638376 0.05650389 -0.031778183 0.036883436 -0.00040823125 0.046077296
-0.011915821 0.06877582 -0.03593164 -0.055642504 -0.019788913 -0.075389095 -0.011283122 0.043383077
0.0077708433 0.023738585 -0.03312568 -0.068429 -0.026582822 0.022986395 -0.039798383 0.014544725
-0.072276026 0.0024557472 0.013160192 -0.047492016 0.07148361 -0.07348247 -0.040629964 0.03440431
0.038550183 -0.0025074757 0.011299465 -0.03330366 -0.04523591 -0.050190546 -0.04002126 -0.015550628
0.04773302 -0.028621024 -0.060450234 -0.06804155 -0.0661614 -0.003344782 -0.07154916 -0.01777653
0.048408967 0.022379741 -0.053012196 -0.026044473 -0.0065186294 -0.018064108 -0.027450627 0.026504317
0.016247557 0.023405839 0.0036616307 -0.036603343 -0.065186985 0.060251843 -0.07129984 -0.04672597
0.042000674 -0.04437952 -0.007705899 0.074374944 0.032692406 0.051843904 -0.030058702 0.0068435525
-0.027937314 0.016563993 -0.07699212 0.0016657795 -0.009209014 -0.044460867 -0.033595968 -0.051382184
00000000: 6bbf 0f3c 1ec2 6b3d e0e4 953c 8ff0 743b
00000010: efd0 8a3d 1285 67bd 412c 833d 7a37 753d
00000020: f76a 6fbd a936 b4bd 165e aabc a72c 22bd
00000030: 4120 dcbc b04e 4a3d f23e 523d 6aa1 253d
00000040: 15e7 773d b170 46bc 1633 bb3c 8a9e 91bd
00000050: 0815 e5bc 2dba 3abc 6d30 11bc 835c 013d
00000060: 469c 073d f3aa aabd f1dc 983d b885 873c
00000070: 0585 df3c 95e2 94bd 0a33 6f3d 16b8 023d
00000080: ebcf c63b 0239 8a3d 63cb e83b 3ebd fa3b
00000090: cad1 1abd 0408 02bd b320 9f3d f97f e03b
000000a0: a9bf 253d ff43 b13d df5c b53c 465c ca3c
000000b0: cd14 9b3d 6ae3 39ba 7722 ca3d ec1e 35bc
000000c0: f107 c13c 8362 9cbd d080 583d 5563 7fbd
000000d0: 86c4 543b 6686 453d 3bcc 8ebc d52d ce3c
000000e0: 332d 06bd a892 113d 88fe 743d c32d 033d
000000f0: e96b b23c 12b6 243d 4b77 2bbd 8bd7 3f3d
00000100: c354 98bc 1582 5ebd 92bd 713d a130 76bb
00000110: 65d3 47bd 78ce 2b3d a72a be3d 21a7 ba3d
00000120: e211 4f3c 6e94 fabc ec72 9f3d 3426 893c
00000130: 67ef bf3d 2904 0c3d b470 1dbd 9950 8dbc
00000140: 5180 4dbd 4334 37bb 8f36 1bbd 9b8d c0bd
00000150: 8ae6 d83c 5029 383d ee52 123d 724c 67bd
00000160: 91fe 393d 4176 21bb 997b fa3a d05d 55bd
00000170: 5701 43bd ab2d 8fbd 3353 4e3d e9d0 53bb
00000180: eb54 b4bb 7a6f 6bbd 4030 8abd 84d9 20bc
00000190: 2354 ebba e15d 993d 19b8 33bd f56b 7d3d
000001a0: 2b34 003d ce76 113c 7919 a33d a661 623d
000001b0: f17f 7dbd 1223 62bd e415 35bd cc8c e63b
000001c0: bac9 59bd 06f3 a1bd 226f 383c f48e e53d
000001d0: 6e44 4ebd 773a 983c 3aab 463c 36bf 3abd
000001e0: 5e32 a43d a707 453c 5b28 89bd 8e2e 54bd
000001f0: f576 4bbd 0dfc f43b 8378 84bc bbbd 923d
00000200: 300f 36bd 6aa7 39bd e5ba a83c 76d8 a53c
00000210: 4a04 bfbc c095 983d 7644 85bd 138a a13d
00000220: c962 893d 0865 053b 05eb 233d 4b5f febc
00000230: 921a 53bc 8d92 ea3b 59ea 89bc d7f6 343d
00000240: 097b 0c3d aed3 c03d b883 debc 9418 bebd
00000250: 16cb 54bc c7a6 e83c 0927 b23d dd51 b6bb
00000260: 0a4e 9bbb 7b93 65bd 9e3a 853d 1dc4 dbbc
00000270: 8852 29bc 08f0 81bd 8c68 633d acb2 20bd
00000280: ccea c4bc c1a8 563c 44ff 913d 3288 453d
00000290: d15b 7e3d abee 00bc e611 b9bc 1659 95bd
000002a0: a94a 0cbd ad90 713d 0962 ee3b 2d1d cc3c
000002b0: 482f 2bbb 2ac7 693c 9c30 92bd 37a5 ae3c
000002c0: ee4b 68bd ccda 193d 176f 9cbd 9f70 673d
000002d0: d729 02bd 1613 173d df07 d6b9 8cbb 3c3d
000002e0: 933a 43bc 56da 8c3d 0e2d 13bd 65e9 63bd
000002f0: 5c1c a2bc 9965 9abd d8dc 38bc 74b2 313d
00000300: 8fa2 fe3b 6c77 c23c cbae 07bd 8124 8cbd
00000310: 38c4 d9bc f74d bc3c a103 23bd 004d 6e3c
00000320: 7405 94bd 9af0 203b d99d 573c fd86 42bd
00000330: 0066 923d fa7d 96bd 9b6b 26bd 89eb 0c3d
00000340: cce6 1d3d 7654 24bb 6421 393c 6b69 08bd
00000350: 4a49 39bd 9a94 4dbd 55ed 23bd 10c8 7ebc
00000360: b383 433d a376 eabc aa9a 77bd 5e59 8bbd
00000370: a17f 87bd 2134 5bbb 5e88 92bd 16a0 91bc
00000380: 7b48 463d b855 b73c 5123 59bd 385b d5bc
00000390: 3a9a d5bb 2efb 93bc 23e0 e0bc 951f d93c
000003a0: 9919 853c 9abd bf3c f8f7 6f3b 63ed 15bd
000003b0: c180 85bd a3ca 763d a705 92bd bb63 3fbd
000003c0: e608 2c3d 4dc7 35bd c481 fcbb e451 983d
000003d0: 79e8 053d 465a 543d ab3d f6bc e13f e03b
000003e0: cbdc e4bc 36b1 873c 0bae 9dbd 4956 da3a
000003f0: 67e1 16bc 991c 36bd ed9b 09bd 2076 52bd

bias f4 [84]
-0.032517456 -0.07587592 -0.037696708 0.080357365 0.024143476 0.040835924 -0.06612391 0.06851171
0.020414054 0.100203685 0.058911532 0.12022411 0.06861944 -0.06864161 -0.023629947 0.1740107
-0.025399148 0.06913915 0.0493074 -0.045406193 -0.062478837 0.21560103 0.106250696 -0.035558484
0.037209954 -0.0043776496 -0.046935126 0.022186248 0.07631967 -0.089353405 0.054313086 0.05302824
-0.0268587 0.13950677 0.11570392 -0.037834466 0.1964041 0.0029174555 0.043538667 0.063016
0.075096376 0.06486201 -0.07105 0.08988711 0.17946632 0.04117131 0.30397853 0.07637499
0.037843354 0.106741026 -0.022975884 0.08602363 0.15732849 -0.033996254 0.044637762 -0.0072441646
-0.06207098 0.18694021 0.13259311 -0.060539383 0.017668342 -0.07241519 -0.058308426 0.21123981
0.06584114 0.13394202 0.03429904 0.17066689 -0.00863936 -0.01843301 0.01123721 0.004620673
0.11593242 0.033745747 0.15640064 0.31620014 0.020049775 0.0014533678 0.14910159 -0.008412062
-0.06793252 0.026464868 -0.058297157 0.19634832
00000000: 0631 05bd d664 9bbd dd67 1abd 6792 a43d
00000010: 8ac8 c53c 9243 273d f96b 87bd de4f 8c3d
00000020: 603b a73c 9737 cd3d 384d 713d 0f38 f63d
00000030: 5988 8c3d f993 8cbd 9793 c1bc dc2f 323e
00000040: e011 d0bc d498 8d3d 8ef6 493d d8fb 39bd
00000050: cfe9 7fbd 84c6 5c3e f799 d93d c6a5 11bd
00000060: 7769 183d 6372 8fbb 0c3f 40bd efbf b53c
00000070: 7d4d 9c3d ebfe b6bd 6677 5e3d 2434 593d
00000080: c706 dcbc ddda 0e3e 2df6 ec3d 50f8 1abd
00000090: 281e 493e c832 3f3b 9a55 323d 880e 813d
000000a0: 21cc 993d 60d6 843d aa82 91bd bc16 b83d
000000b0: 05c6 373e 3fa3 283d 13a3 9b3e 7e6a 9c3d
000000c0: a201 1b3d 0a9b da3d ec37 bcbc 282d b03d
000000d0: b81a 213e a83f 0bbd 16d6 363d 7560 edbb
000000e0: 243e 7ebd 416d 3f3e 7dc6 073e 25f8 77bd
000000f0: 33bd 903c 6a4e 94bd d1d4 6ebd 404f 583e
00000100: b8d7 863d 1928 093e 267d 0c3d 4dc3 2e3e
00000110: 1a8c 0dbc d300 97bc 461c 383c 0469 973b
00000120: fa6d ed3d fb38 0a3d 7d27 203e fce4 a13e
00000130: 6d3f a43c ee7e be3a 16ae 183e bfd2 09bc
00000140: 3420 8bbd dacc d83c 00c9 6ebd 890f 493e

weight f4 [7, 84]
0.109012686 -0.04895553 0.048436124 -0.3025371 0.22368205 0.06319586 -0.056375954 0.08088806
0.2734523 0.061481778 -0.13013415 0.04746748 0.15405478 -0.0911662 0.26516458 -0.12569673
0.32882488 0.04550593 -0.034588695 -0.019973334 -0.104329 -0.19781695 0.16836147 0.010577378
-0.09002073 0.1577045 0.0606809 -0.009404076 -0.033085793 0.15893126 0.050997585 0.164482
0.18815489 -0.10766015 0.037267108 0.010507966 0.12177888 0.15120366 -0.19553569 -0.09185304
0.2288819 -0.012432571 -0.024862729 0.032735385 -0.046315055 0.16278376 -0.1414545 -0.08366322
-0.047050223 -0.17510016 0.07618216 0.061111838 -0.07043432 -0.03050272 0.12620953 0.24487294
-0.04048518 -0.1038217 -0.13783363 -0.023341507 -0.008161614 -0.01325584 -0.016388793 -0.08020319
0.048548117 -0.09161756 0.0041105123 -0.109789215 0.1011026 -0.037418213 0.04596435 0.20121002
0.02942792 -0.088666335 -0.051451124 -0.25942817 0.0043287547 -0.02219078 -0.06648942 0.065575875
-0.075814314 0.0011107333 0.029311098 0.084380865 0.08112768 0.027502628 0.092399046 0.13300407
0.023741763 0.036036786 0.00070851715 -0.081279285 -0.06343298 -0.1408038 0.2842306 -0.12226009
0.38675347 -0.17363912 0.09148994 -0.3343664 -0.020156646 -0.29301402 -0.052916795 -0.05085659
0.04891503 -0.031006427 0.01124697 -0.13374749 -0.18108073 0.00335626 -0.10098814 -0.16004768
-0.09413536 -0.3152869 0.26688728 0.28538302 -0.16882631 -0.1511509 -0.14508687 -0.15174405
-0.16769129 -0.12052173 0.016783504 -0.08786864 0.20491083 -0.07196746 0.0341539 0.012211423
-0.3186083 -0.003182403 -0.33019206 -0.020828353 0.01368976 -0.14212343 0.066991605 -0.06525842
-0.0817004 -0.10429422 -0.13723668 0.009771092 0.08180135 -0.11870459 -0.09569017 -0.029720737
0.08804559 0.017072747 0.07531411 -0.18257679 0.18384352 -0.044252 0.07694703 -0.23767756
0.18802892 0.07655986 -0.15830296 0.060643665 -0.007495133 0.14396393 -0.04668037 0.12133614
-0.0927016 0.07253979 -0.065227576 0.08532991 -0.03666169 -0.11807133 0.08952252 -0.04530613
-0.11242906 0.0025717944 0.251966 -0.23551045 -0.18501714 0.12839007 -0.01976514 -0.09065962
-0.21218133 -0.08568143 -0.39061797 -0.037571926 -0.101245 -0.29241514 0.030332735 0.36284018
-0.23333275 -0.02159054 0.11036184 0.10207855 0.02883676 0.2218689 0.1704152 0.13361563
-0.02956391 0.078485794 0.06313628 -0.015622212 0.069712445 0.06704179 -0.15439487 -0.242863
0.12137131 0.23230302 0.24099344 -0.066637404 -0.01187438 0.103014335 -0.10430777 0.13252015
0.19052215 -0.023842035 -0.028845513 -0.14140972 0.08867983 0.17336419 0.46792293 -0.046855234
0.08207662 0.40776962 -0.04644565 -0.07284681 0.18272252 -0.19575337 -0.06644357 0.027480518
-0.08500799 -0.11686198 0.03608249 0.070975475 0.0147191025 -0.07344161 0.07417309 0.17085066
0.08671642 -0.012602429 0.0799769 0.17530558 -0.15333545 -0.06557995 -0.0979256 -0.14896181
-0.19284646 -0.25149193 0.20968066 0.44506177 -0.16787077 0.009272088 -0.14395642 -0.007918161
-0.028332423 -0.16581868 0.07582123 0.22359845 0.08322502 -0.054077473 -0.13923828 0.011678147
00000000: 0b42 df3d 9885 48bd f564 463d 25e6 9abe
00000010: e80c 653e d56c 813d 79ea 66bd a4a8 a53d
00000020: f101 8c3e 51d4 7b3d e341 05be 436d 423d
00000030: 89c0 1d3e 58b5 babd a7c3 873e a5b6 00be
00000040: bc5b a83e 6d64 3a3d e0ac 0dbd 1e9f a3bc
00000050: 71aa d5bd 8790 4abe f366 2c3e bd4c 2d3c
00000060: ca5c b8bd 4a7d 213e 898c 783d 8e13 1abc
00000070: f884 07bd e0be 223e d8e2 503d f86d 283e
00000080: adab 403e ed7c dcbd 65a5 183d 9b29 2c3c
00000090: 3567 f93d 22d5 1a3e 823a 48be 721d bcbd
000000a0: 0460 6a3e fbb1 4bbc ecac cbbc 8a15 063d
000000b0: dbb4 3dbd c9b0 263e 73d9 10be 9f57 abbd
000000c0: bcb7 40bd 754d 33be 6405 9c3d 6850 7a3d
000000d0: de3f 90bd d7e0 f9bc 123d 013e f9bf 7a3e
000000e0: cad3 25bd 79a0 d4bd 4224 0dbe b036 bfbc
000000f0: 4ab8 05bc 062f 59bc ca41 86bc 9241 a4bd
00000100: 64da 463d fda1 bbbd 7ab1 863b 2bd9 e0bd
00000110: e10e cf3d d743 19bd 1d45 3c3d 000a 4e3e
00000120: d212 f13c b296 b5bd 6abe 52bd c5d3 84be
00000130: 3ad8 8d3b 70c9 b5bc 9b2b 88bd a54c 863d
00000140: 8944 9bbd 0696 913a d41d f03c e0cf ac3d
00000150: 4526 a63d 314d e13c b63b bd3d 3832 083e
00000160: 167e c23c 4f9b 133d c8bb 393a c175 a6bd
00000170: 26e9 81bd df2e 10be ac86 913e 8063 fabd
00000180: 8d04 c63e 74ce 31be 145f bb3d 1332 abbe
00000190: 8d1f a5bc ef05 96be 48bf 58bd 004f 50bd
000001a0: 205b 483d 3101 febc 3645 383c 1af5 08be
000001b0: 3a6d 39be b3f4 5b3b dfd2 cebd 8ae3 23be
000001c0: 0aca c0bd 496d a1be 73a5 883e b91d 923e
000001d0: cee0 2cbe 4dc7 1abe a791 14be cb62 1bbe
000001e0: 44b7 2bbe 19d4 f6bd 8f7d 893c 79f4 b3bd
000001f0: 25d4 513e ad63 93bd f6e4 0b3d 6c12 483c
00000200: a120 a3be dd8f 50bb ef0e a9be 39a0 aabc
00000210: 044b 603c ce88 11be e532 893d 35a6 85bd
00000220: 8a52 a7bd 3598 d5bd c687 0cbe ee16 203c
00000230: 7787 a73d 641b f3bd 35f9 c3bd e778 f3bc
00000240: 3f51 b43d 25dc 8b3c 493e 9a3d 69f5 3abe
00000250: 7a41 3c3e 9641 35bd 6896 9d3d bf61 73be
00000260: a78a 403e 6acb 9c3d 2c1a 22be 7e65 783d
00000270: bc99 f5bb 486b 133e ea33 3fbd 157f f83d
00000280: 56da bdbd be8f 943d 0996 85bd 73c1 ae3d
00000290: 912a 16bd 62cf f1bd 9557 b73d ec92 39bd
000002a0: 3541 e6bd 8d8b 283b b001 813e a729 71be
000002b0: 2275 3dbe b078 033e 81ea a1bc c0ab b9bd
000002c0: 1046 59be bf79 afbd 14ff c7be 05e5 19bd
000002d0: 8a59 cfbd 70b7 95be 5b7c f83c 30c6 b93e
000002e0: c8ee 6ebe a5de b0bc 6305 e23d 8f0e d13d
000002f0: 123b ec3c 9a31 633e 5281 2e3e 89d2 083e
00000300: 0330 f2bc 29bd a03d 984d 813d 4ef4 7fbc
00000310: 66c5 8e3d 354d 893d b019 1ebe 14b1 78be
00000320: 8591 f83d d8e0 6d3e fcc6 763e 3179 88bd
00000330: c28c 42bc 2ef9 d23d 509f d5bd 5db3 073e
00000340: 3d18 433e 5f50 c3bc 6d4d ecbc b6cd 10be
00000350: c59d b53d 6286 313e 9893 ef3e 46eb 3fbd
00000360: c917 a83d 2ec7 d03e cb3d 3ebd b530 95bd
00000370: 9d1b 3b3e 9273 48be 9113 88bd d31e e13c
00000380: ab18 aebd 5555 efbd 3ccb 133d 975b 913d
00000390: 6428 713c 8e68 96bd 10e8 973d 7af3 2e3e
000003a0: 6198 b13d 6b7a 4ebc eeca a33d 4e83 333e
000003b0: f803 1dbe c84e 86bd 388d c8bd 7289 18be
000003c0: 8b79 45be 8dc3 80be 87b6 563e 23df e33e
000003d0: 51e6 2bbe f5e9 173c 5069 13be 2dbb 01bc
000003e0: 6619 e8bc 5fcc 29be 2948 9b3d fef6 643e
000003f0: e171 aa3d 5780 5dbd 7b94 0ebe b355 3f3c

bias f4 [7]
-0.57480687 0.10297921 0.29226297 -0.005997046 0.6046731 0.23480983 -0.32334676
00000000: 8b26 13bf c4e6 d23d 7ea3 953e de82 c4bb
00000010: dbcb 1a3f fd71 703e b58d a5be
