parameters.pt (torch, 408053 bytes, 13 tensors)

weight f4 [168, 84]
-0.06097839 -0.08360535 -0.068512425 -0.050350383 -0.05775523 0.013539144 -0.0064177746 0.05248385
-0.06274465 -0.08418786 -0.23723061 -0.1061095 -0.029525308 -0.073153265 0.07019784 -0.0763019
0.029674161 -0.23716563 0.26622596 -0.0333128 0.052629028 -0.078092866 0.033538695 -0.035631433
-0.14303462 -0.117266975 -0.011610503 0.03218725 -0.006081646 0.006675925 0.0066212798 -0.10108742
-0.005274447 -0.04310211 -0.0013048988 -0.0340919 0.07761807 0.15700847 0.16648668 0.1166605
-0.046980444 0.021205403 -0.011578578 -0.097817086 0.057887744 -0.01479517 -0.058126368 -0.051211126
-0.037083186 -0.046101797 0.05817717 -0.13022514 -0.14461932 -0.0236824 -0.09000027 -0.07790729
0.0590234 -0.05389859 -0.008266006 -0.025915327 -0.0023317356 -0.035143074 -1.8156747e-05 0.00967605
-0.06324956 -0.04227147 0.1883624 -0.032330085 -0.017244287 0.04520956 -0.02635015 -0.041585084
-0.07884366 0.0035393268 -0.11520306 -0.064984754 -0.011982819 -0.08456863 -0.045433994 0.02510419
-0.032884438 0.04365945 -0.11604407 -0.035264753 0.06522334 -0.054672636 0.0107379835 -0.013429963
0.0004422921 0.009074783 0.117517754 -0.02899826 0.10497954 0.068838425 -0.104966216 0.078296214
0.10364267 -0.013552547 0.062494405 -0.034170616 -0.03930574 -0.011025554 0.037540846 -0.03621709
-0.029755276 -0.08272936 0.02841763 -0.014120864 -0.10419183 0.058861967 -0.025156027 -0.088035546
0.08783174 -0.034203153 -0.101412274 -0.17148471 0.113833204 -0.022182638 -0.0013068184 0.015799662
0.029978087 0.13512465 0.014634043 0.24489126 0.09039353 0.036591552 -0.034510564 -0.0048577455
-0.048737034 0.060534876 0.046988767 0.06952948 0.051118363 -0.0076794755 0.057836678 -0.011721791
0.08527937 -0.009077709 0.09025052 0.054050826 0.124521814 0.033505466 -0.047921546 0.13523652
0.12385268 0.1527256 -0.08175422 -0.1437444 -0.051447097 0.121759824 0.1368116 0.14554279
0.04993655 -0.005389983 -0.0615482 0.024383662 0.027983412 0.16966143 0.17989746 0.09364982
-0.012428231 0.013574584 -0.071117185 -0.053457733 -0.3114775 0.0073768594 -0.14436303 -0.07851278
-0.0038758633 -0.065916725 0.07164258 -0.10019659 0.09042625 0.06193232 -0.0629016 -0.03894094
0.0598166 0.07077604 -0.11792814 -0.053491812 -0.009861623 -0.103164144 0.056450132 -0.09253063
-0.021527505 -0.031059276 -0.041389003 -0.08627813 -0.08220075 -0.008164307 0.0779902 -0.14601332
-0.038578086 0.0033402916 0.042603932 -0.08729927 -0.029965904 0.016991368 -0.050735284 -0.045693565
-0.14510001 -0.07022778 -0.11571577 0.06862842 -0.0141460225 -0.0186473 -0.07596821 -0.062568896
0.07558921 0.03102541 0.010528972 -0.06772405 -0.111689754 -0.0065407227 -0.0044254153 -0.067252405
0.036054485 -0.10354673 0.022095349 -0.092831954 0.05581274 -0.08295227 0.030909296 0.0715784
0.104422025 -0.025235172 -0.08536497 -0.0072621536 -0.07345928 0.061866168 0.038381528 0.08250971
0.010755237 0.03764682 0.1362263 0.009136107 -0.07239696 -0.0022429447 0.039040726 -0.013477065
-0.10642619 0.06562717 0.056392 0.13045481 -0.1070802 0.0074549923 -0.0628813 -0.13744429
-0.013475011 0.084661506 -0.026239289 -0.16665855 0.065823056 -0.0131690325 0.013404768 0.043167315
00000000: 7ac4 79bd 4839 abbd 3e50 8cbd 343c 4ebd
00000010: c090 6cbd 49d3 5d3c 324c d2bb 4ef9 563d
00000020: 4480 80bd af6a acbd 95ec 72be f04f d9bd
00000030: 0fdf f1bc 61d1 95bd e3c3 8f3d 2c44 9cbd
00000040: 3a17 f33c 8cdb 72be c54e 883e 0173 08bd
00000050: 8991 573d 27ef 9fbd df5f 093d 44f2 11bd
00000060: ab77 12be ab29 f0bd fb39 3ebc c7d6 033d
00000070: 8b48 c7bb b8c1 da3b 52f7 d83b ec06 cfbd
00000080: 45d5 acbb d78b 30bd 2309 abba f3a3 0bbd
00000090: 39f6 9e3d d4c6 203e 7c7b 2a3e b3eb ee3d
000000a0: 916e 40bd f4b6 ad3c 13b4 3dbc 5354 c8bd
000000b0: b31b 6d3d 7167 72bc ea15 6ebd c2c2 51bd
000000c0: 8ae4 17bd 3dd5 3cbd 2f4b 6e3d bd59 05be
000000d0: 1617 14be 9801 c2bc 1052 b8bd db8d 9fbd
000000e0: 85c2 713d c5c4 5cbd 246e 07bc 614c d4bc
000000f0: 08d0 18bb 2ff2 0fbd 514f 98b7 4c88 1e3c
00000100: fc88 81bd d924 2dbd 13e2 403e 8d6c 04bd
00000110: e443 8dbc a92d 393d 45dc d7bc 1f55 2abd
00000120: c978 a1bd 0df4 673b 95ef ebbd ba16 85bd
00000130: 9653 44bc 5132 adbd ff18 3abd 4da7 cd3c
00000140: d5b1 06bd 40d4 323d 83a8 edbd c671 10bd
00000150: d193 853d 6af0 5fbd 5eee 2f3c 5909 5cbc
00000160: 71e3 e739 66ae 143c 26ad f03d c28d edbc
00000170: 83ff d63d 29fb 8c3d 87f8 d6bd c459 a03d
00000180: 9c42 d43d 810b 5ebc 22fa 7f3d 7df6 0bbd
00000190: 0eff 20bd 86a4 34bc 6ec4 193d 5f58 14bd
000001a0: 56c1 f3bc 036e a9bd 17cc e83c 325b 67bc
000001b0: 8762 d5bd 3f19 713d 0314 cebc fb4b b4bd
000001c0: 21e1 b33d 9b18 0cbd 3db1 cfbd b099 2fbe
000001d0: 6221 e93d 5db8 b5bc 8d49 abba 4b6e 813c
000001e0: 9b94 f53c 1e5e 0a3e a0c3 6f3c c6c4 7a3e
000001f0: 3e20 b93d 06e1 153d f35a 0dbd b92d 9fbb
00000200: 7ca0 47bd 6bf3 773d 4b77 403d 7965 8e3d
00000210: 7d61 513d 1ca4 fbbb 27e6 6c3d c10c 40bc
00000220: f3a6 ae3d acba 14bc 44d5 b83d 6664 5d3d
00000230: 4b05 ff3d 073d 093d 6249 44bd 717b 0a3e
00000240: 79a6 fd3d 1a64 1c3e c26e a7bd bb31 13be
00000250: 31ba 52bd 375d f93d 5718 0c3e 2b09 153e
00000260: 458a 4c3d 749e b0bb f719 7cbd 3fc0 c73c
00000270: 783d e53c babb 2d3e 0a37 383e 7acb bf3d
00000280: c79f 4bbc ef67 5e3c e3a5 91bd 7ff6 5abd
00000290: fb79 9fbe 95b9 f13b e7d3 13be 4fcb a0bd
000002a0: 3202 7ebb 59ff 86bd 58b9 923d df33 cdbd
000002b0: 6631 b93d bfac 7d3d 8ed2 80bd 8980 1fbd
000002c0: 4002 753d 07f3 903d 4f84 f1bd 3b1a 5bbd
000002d0: a592 21bc b947 d3bd 4138 673d b380 bdbd
000002e0: 735a b0bc 0670 febc 8487 29bd 97b2 b0bd
000002f0: de58 a8bd 96c3 05bc 53b9 9f3d 8484 15be
00000300: 0e04 1ebd cbe8 5a3b 7681 2e3d f6c9 b2bd
00000310: 0e7b f5bc 7b31 8b3c cdcf 4fbd 2d29 3bbd
00000320: 1995 14be 95d3 8fbd 64fc ecbd 0f8d 8c3d
00000330: b8c4 67bc 39c2 98bc 3995 9bbd 1f24 80bd
00000340: 84ce 9a3d 0029 fe3c b681 2c3c e8b2 8abd
00000350: 99bd e4bd 8f53 d6bb 1303 91bb a1bb 89bd
00000360: dead 133d 4f10 d4bd 4e01 b53c ae1e bebd
00000370: e69b 643d e1e2 a9bd 7e35 fd3c b297 923d
00000380: 37db d53d feb9 cebc d4d3 aebd 5cf7 edbb
00000390: d271 96bd 6167 7d3d f335 1d3d dafa a83d
000003a0: bc36 303c 8d33 1a3d e87e 0b3e 9caf 153c
000003b0: db44 94bd 5efe 12bb 2be9 1f3d e8ce 5cbc
000003c0: f9f5 d9bd 8a67 863d 4cfb 663d f295 053e
000003d0: dd4c dbbd 0249 f43b e9c7 80bd 32be 0cbe
000003e0: 4bc6 5cbc 0363 ad3d c7f3 d6bc 8aa8 2abe
000003f0: 3dce 863d edc2 57bc ac9f 5b3c 36d0 303d

bias f4 [168]
0.23105256 0.10443431 -0.20812526 -0.09277684 0.056068067 0.0025705714 0.14868507 -0.29027486
-0.006304997 -0.060252152 0.07530683 -0.12757832 -0.015070314 0.137176 0.053953744 0.00045680115
0.13037285 -0.08570204 -0.056686476 0.06957496 0.0075253085 0.07173387 -0.028161742 0.12781005
-0.021233182 -0.13092797 -0.0545382 -0.020816732 -0.07213346 -0.15957901 0.14978921 0.039758187
-0.016293403 0.03379508 0.06822642 -0.04911149 -0.017594554 -0.016210068 0.03366286 0.026938869
0.0054531004 -0.0842126 0.05013301 -0.022728218 0.09754689 -0.07187594 0.07031468 0.06978468
0.064643264 0.03585314 0.100098126 0.006597871 -0.14479972 0.014864414 0.12193426 0.15813868
-0.13011932 0.11931327 -0.027448574 0.092512295 0.0034048618 0.040699814 -0.034990672 -0.098112755
-0.12681377 -0.11615546 0.090312034 0.20988367 0.16055635 -0.02106507 -0.20717277 0.061580814
0.0034063132 0.100487 -0.0532181 0.070943415 -0.0047300016 0.0017076576 -0.03324643 0.027542284
0.12266962 -0.047231633 0.19153757 -0.12285899 0.07401697 -0.048115976 -0.039819933 0.015970118
-0.035874203 -0.015264564 0.00028931766 -0.0062340763 -0.15750329 -0.04057801 0.05696244 -0.12604146
-0.15167633 0.032434344 -0.16791315 0.00010659835 -0.11087633 0.20425145 -0.111314446 -0.09785957
-0.14609343 0.1856343 -0.027599087 -0.07630951 0.067148656 -0.08132457 0.06891212 0.09095026
-0.0068363897 -0.017606804 -0.05607902 -0.05371732 -0.098275885 -0.09348208 -0.11011049 0.3548919
-0.11101604 0.059902385 0.024221286 -0.058021322 -0.033586044 -0.06325626 0.30681792 -0.05201141
-0.1168416 0.16192374 -0.08875542 0.15426818 -0.11220625 -0.014456567 0.00746728 0.16127485
-0.17804517 -0.11871525 0.051590864 0.0016937079 0.071211606 -0.120786384 -0.059641697 0.109377086
0.0071161846 0.079262726 0.07102423 0.00971428 0.106672555 -0.11353715 -0.0005861265 -0.003771557
-0.20328821 -0.006790708 0.05554092 -0.095322646 0.13908255 -0.16973759 -0.100467265 0.053984497
-0.055534128 0.13979256 -0.24905832 0.3308721 0.018630918 0.008652253 0.19068946 -0.17150903
00000000: 0b99 6c3e a8e1 d53d ca1e 55be c901 bebd
00000010: a1a7 653d 0877 283b e640 183e e89e 94be
00000020: 269a cebb f6ca 76bd 783a 9a3d e4a3 02be
00000030: 7ae9 76bc de77 0c3e 9afe 5c3d d07e ef39
00000040: 7680 053e 8d84 afbd 1430 68bd 517d 8e3d
00000050: dd96 f63b 35e9 923d 74b3 e6bc a3e0 023e
00000060: 36f1 adbc fb11 06be 7363 5fbd da87 aabc
00000070: b5ba 93bd ae68 23be 5862 193e 7bd9 223d
00000080: be79 85bc b66c 0a3d 4bba 8b3d 2129 49bd
00000090: 7422 90bc faca 84bc 11e2 093d e7ae dc3c
000000a0: ecaf b23b a877 acbd 4558 4d3d 8730 babc
000000b0: aac6 c73d b133 93bd 2501 903d 45eb 8e3d
000000c0: b063 843d beda 123d 3f00 cd3d f432 d83b
000000d0: 6146 14be df89 733c abb8 f93d 1bef 213e
000000e0: 003e 05be 845a f43d d5db e0bc 1677 bd3d
000000f0: 1a24 5f3b d9b4 263d 6152 0fbd 57ef c8bd
00000100: 78db 01be eae2 edbd 84f5 b83d bfeb 563e
00000110: e268 243e a790 acbc 1925 54be 2a3c 7c3d
00000120: 743c 5f3b 21cc cd3d 39fb 59bd c84a 913d
00000130: 21fe 9abb 7bd3 df3a 692d 08bd 5ba0 e13c
00000140: 363a fb3d f575 41bd 6d22 443e 7f9d fbbd
00000150: 3696 973d 4215 45bd 3a1a 23bd c4d3 823c
00000160: d4f0 12bd 3918 7abc 8faf 9739 3947 ccbb
00000170: 8b48 21be 2135 26bd 7351 693d 0311 01be
00000180: 0a51 1bbe e0d9 043d 6df1 2bbe 8e8d df38
00000190: 2113 e3bd 4b27 513e d4f8 e3bd 996a c8bd
000001a0: 8499 15be eb16 3e3e 7b17 e2bc 2948 9cbd
000001b0: 3c85 893d 7f8d a6bd cc21 8d3d 2144 ba3d
000001c0: cb03 e0bb 253c 90bc 1db3 65bd b106 5cbd
000001d0: de44 c9bd 8873 bfbd 9c81 e1bd 64b4 b53e
000001e0: 615c e3bd 345c 753d b86b c63c c4a7 6dbd
000001f0: 8591 09bd 7f8c 81bd 3d17 9d3e eb09 55bd
00000200: a64a efbd 56cf 253e 67c5 b5bd 7af8 1d3e
00000210: 64cc e5bd 3ddb 6cbc 16b0 f43b 3c25 253e
00000220: 7951 36be fb20 f3bd f150 533d 68ff dd3a
00000230: 64d7 913d da5e f7bd da4a 74bd 1801 e03d
00000240: e22e e93b 7f54 a23d 2775 913d a528 1f3c
00000250: 2477 da3d 2a86 e8bd 49a6 19ba 3a2c 77bb
00000260: c92a 50be 9684 debb e07e 633d 8538 c3bd
00000270: a86b 0e3e b1cf 2dbe c8c1 cdbd d91e 5d3d
00000280: c177 63bd c825 0f3e 2509 7fbe 1168 a93e
00000290: de9f 983c 2ec2 0d3c 1944 433e 10a0 2fbe

weight f4 [168, 168]
0.049872905 -0.061609976 -0.04011097 -0.052718267 -0.0036757009 0.00014835189 -0.013339449 -0.058286555
0.0277321 0.020737361 0.061180867 -0.06551798 0.10553717 -0.008824089 0.015573364 0.0039171646
-0.009545362 -0.059731666 -0.0027008222 -0.038775194 0.054290272 -0.03785397 -0.08561515 0.051206965
0.04584695 0.016743893 -0.004968033 0.056084644 0.052152373 0.045104623 0.064804144 0.023234278
-0.025933154 0.07739499 -0.092832 -0.033358216 0.073187836 0.001827645 -0.024552334 0.008657296
0.09222101 -0.0038704665 -0.008292371 0.009318134 0.026194613 0.012612387 -0.074133776 -0.024379874
-0.015248502 -0.04805678 0.026228731 0.003679084 0.033845924 -0.04084594 0.015124699 -0.0016677087
0.037136074 -0.05074105 0.0092440285 -0.0014827445 0.033281766 0.082944095 0.02155879 0.007859753
-0.03765073 -0.0563497 -0.023993388 0.003607825 -0.09431655 -0.09064484 0.024557423 -0.046056055
0.029085094 0.075962715 -0.009808334 -0.012979178 0.011703936 0.0372722 -0.010071449 0.002579982
-0.05510063 0.025009235 -0.0017776613 -0.0701509 -0.08389721 -0.011520504 0.03872969 0.10178001
-0.07011474 0.05365964 0.0643356 0.040310524 0.0004079071 -0.0058630724 -0.0048610764 -0.022301864
0.010623125 -0.014727749 0.033103578 0.011429427 -0.007367275 -0.0637973 -0.046464626 -0.037024066
0.041067224 0.01963472 0.08943086 0.03318747 -0.03426022 -0.0481158 -0.004704427 -0.050190527
0.058637988 0.049874216 0.003148166 -0.008053072 -0.025151106 -0.018213157 -0.07651938 0.0111537585
-0.016577099 -0.08477456 0.06551472 0.02472411 0.06024385 -0.024761546 0.0009572161 0.04860736
0.08171794 0.0068243565 -0.040931538 -0.07118046 0.04396429 0.005159575 0.058182176 0.051412407
-0.035606865 -0.028190821 -0.041077822 0.079759225 0.073671445 -0.10334617 0.03903987 -0.08254883
0.041539203 -0.0027048127 -0.085336335 0.013687642 -0.044122662 0.052084256 -0.03391666 -0.06682646
0.035261184 0.045932665 0.06608547 0.052222617 -0.037109293 -0.040125776 -0.049921792 0.045264177
-0.023035921 0.007501269 -0.023968378 -0.05202365 -0.083443634 0.079093926 -0.030327007 -0.036014583
-0.035767738 0.027821073 0.04808485 -0.04128017 -0.014294944 -0.049767483 0.04386023 0.09616125
-0.036061343 0.07847363 0.03766241 -0.059306793 -0.029705603 -0.058342624 0.007531132 -0.015520121
0.14052951 -0.031886123 -0.056410454 0.014784189 -0.0665412 -0.06473173 0.038765006 -0.02388491
-0.05241189 -0.03237753 0.05979531 0.04419432 0.05336963 0.09420785 0.0058937897 -0.005931275
-0.077053465 0.05838405 0.013316705 -0.01643388 0.035830945 -0.008931399 0.110531084 0.025357984
-0.025079414 -0.018001797 0.01444037 0.024982855 0.017864604 -0.011745013 0.02203053 -0.00020329835
-0.03841917 -0.057940815 0.045457568 -0.0045370786 0.018346742 0.06530685 0.06874162 0.07646573
-0.0029011366 0.050415512 0.09480845 -0.053812824 -0.0016430712 0.030005023 -0.061973706 0.0072461665
-0.029937914 -0.09291623 -0.06667224 0.05510045 -0.05791785 -0.041022923 0.025001999 0.019419445
0.016020194 -0.031062834 0.039530534 -0.021332018 0.020097822 0.0037723244 -0.043084677 -0.011219725
0.11881003 0.03381062 -0.046598863 -0.036226224 0.0786549 -0.009999748 -0.051814772 -0.0030294007
00000000: 8847 4c3d be5a 7cbd 674b 24bd 1cef 57bd
00000010: 07e4 70bb e88e 1b39 b48d 5abc e2bd 6ebd
00000020: 6e2e e33c 66e1 a93c ca98 7a3d 4a2e 86bd
00000030: df23 d83d e992 10bc 6c27 7f3c 8f5b 803b
00000040: 2664 1cbc 31a9 74bd 4700 31bb bdd2 1ebd
00000050: 7a5f 5e3d c40c 1bbd ff56 afbd 65be 513d
00000060: 03ca 3b3d 7d2a 893c e2ca a2bb 03b9 653d
00000070: ba9d 553d a0bf 383d 09b8 843d d055 be3c
00000080: c471 d4bc 4481 9e3d b41e bebd a0a2 08bd
00000090: 81e3 953d 978d ef3a fa21 c9bc 55d7 0d3c
000000a0: 5ede bc3d a7a7 7dbb badc 07bc 16ab 183c
000000b0: 1696 d63c 2fa4 4e3c 73d3 97bd 4db8 c7bc
000000c0: dad4 79bc 30d7 44bd a3dd d63c c91c 713b
000000d0: 06a2 0a3d 134e 27bd 96cd 773c 0597 daba
000000e0: ff1b 183d d9d5 4fbd 4474 173c a658 c2ba
000000f0: 7652 083d 98de a93d 0f9c b03c 32c6 003c
00000100: a737 1abd f1ce 66bd c88d c4bc 4271 6c3b
00000110: 0929 c1bd 00a4 b9bd a62c c93c 46a5 3cbd
00000120: dd43 ee3c 5792 9b3d 22b3 20bc 9ea6 54bc
00000130: dec1 3f3c bcaa 183d b802 25bc ea14 293b
00000140: 33b1 61bd 2be0 cc3c 6a00 e9ba 46ab 8fbd
00000150: 4dd2 abbd 7fc0 3cbc 06a3 1e3d 0a72 d03d
00000160: 5198 8fbd 36ca 5b3d 62c2 833d a61c 253d
00000170: 5ddc d539 041f c0bb aa49 9fbb 66b2 b6bc
00000180: 9e0c 2e3c a84c 71bc 9e97 073d 7e42 3b3c
00000190: 2f69 f1bb 29a8 82bd b151 3ebd 8ca6 17bd
000001a0: 1b36 283d fed8 a03c 8727 b73d 96ef 073d
000001b0: 7254 0cbd 1315 45bd 9827 9abb 9594 4dbd
000001c0: 632e 703d e848 4c3d 7651 4e3b 08f1 03bc
000001d0: b109 cebc c233 95bc 31b6 9cbd 41be 363c
000001e0: b2cc 87bc 499e adbd 952c 863d 378a ca3c
000001f0: 41c2 763d bad8 cabc afed 7a3a 8318 473d
00000200: bc5b a73d da9e df3b d4a7 27bd 10c7 91bd
00000210: e613 343d a711 a93b 6f50 6e3d d195 523d
00000220: 81d8 11bd 70f0 e6bc 3841 28bd ce58 a33d
00000230: 0ee1 963d 28a7 d3bd 45e8 1f3d 5c0f a9bd
00000240: 0325 2a3d 3a43 31bb d1c4 aebd 2242 603c
00000250: f7b9 34bd 4d56 553d 32ec 0abd 50dc 88bd
00000260: 086e 103d e423 3c3d d257 873d 62e7 553d
00000270: eaff 17bd ed5a 24bd cb7a 4cbd ee66 393d
00000280: d4b5 bcbc 35cd f53b 5559 c4bc c016 55bd
00000290: 7fe4 aabd fffb a13d 5870 f8bc 0784 13bd
000002a0: 3181 12bd 05e9 e33c 9ff4 443d 6515 29bd
000002b0: 5735 6abc fdd8 4bbd c9a6 333d 30f0 c43d
000002c0: 0fb5 13bd c8b6 a03d e643 1a3d aeeb 72bd
000002d0: 2a59 f3bc adf8 6ebd b7c7 f63b 1b48 7ebc
000002e0: f8e6 0f3e 069b 02bd a60e 67bd 6239 723c
000002f0: c146 88bd 1292 84bd 0ec8 1e3d 49aa c3bc
00000300: daad 56bd 4d9e 04bd edeb 743d 1a05 353d
00000310: 1d9a 5a3d 0cf0 c03d b120 c13b 245b c2bb
00000320: 35ce 9dbd 1d24 6f3d 4f2e 5a3c 58a0 86bc
00000330: 78c3 123d 0155 12bc 1f5e e23d 8cbb cf3c
00000340: 5873 cdbc 8178 93bc 4d97 6c3c d8a8 cc3c
00000350: ca58 923c 286e 40bc 5f79 b43c 7c2c 55b9
00000360: 6b5d 1dbd 5953 6dbd b731 3a3d c6ab 94bb
00000370: e84b 963c 99bf 853d 68c8 8c3d 119a 9c3d
00000380: ff20 3ebb 7f80 4e3d ef2a c23d d66a 5cbd
00000390: 525c d7ba 18cd f53c 24d8 7dbd 4071 ed3b
000003a0: 5b40 f5bc dd4a bebd 758b 88bd 02b1 613d
000003b0: 443b 6dbd a707 28bd fed0 cc3c 8715 9f3c
000003c0: c83c 833c 7c77 febc c5ea 213d 7cc0 aebc
000003d0: 30a4 a43c 1a39 773b 8f79 30bd f0d2 37bc
000003e0: ac52 f33d 017d 0a3d 73de 3ebd f361 14bd
000003f0: d215 a13d fcd5 23bc ba3b 54bd e988 46bb

bias f4 [168]
0.05918379 -0.022455748 0.09056962 0.066293985 0.17344046 -0.02614431 -0.040723253 0.056560993
0.09479716 0.018994588 0.010060998 -0.029218387 0.03832737 -0.05103886 0.039128307 0.049279064
0.01568275 -0.01104909 0.001604005 -0.05397569 0.08123227 0.033265013 0.09383667 0.02869146
-0.02064798 -0.076075755 0.029979121 0.09934064 0.07413776 -0.045148466 0.12005933 -0.084460884
-0.04800164 0.2289739 -0.03489977 0.0017979607 0.0067457566 0.044099465 -0.054076817 0.05531928
-0.0019859746 0.05912044 0.014856616 0.07104733 0.02410113 -0.05074305 0.07241984 0.056275982
-0.08118247 0.0020678844 0.0032406056 0.042119034 -0.017306626 -0.063378945 0.107772775 -0.0394334
0.062020812 -0.02129733 0.07294024 0.083370574 -0.023416104 -0.02439845 0.14617048 0.011691931
0.039109718 -0.0038421312 -6.861275e-05 0.013452516 0.10857248 -0.026540078 -0.005658842 -0.08431787
0.20840873 0.0070137186 0.02120995 -0.06065692 0.21673624 0.080247335 0.02933883 -0.09653672
-0.0071363854 0.0322383 -0.0055807033 0.07381134 -0.08473746 -0.07939628 0.03543665 -0.02809342
0.023465721 0.049413595 -0.07141266 -0.03336789 0.003019895 -0.018411662 -0.04910392 0.026502868
0.1761111 0.06296799 -0.08458832 0.07606873 0.21527374 0.00045288366 -0.0642718 -0.05431204
-9.084061e-05 0.0027712337 0.039810456 0.0112599 -0.053255823 0.023780014 0.014875299 0.12574436
0.08250374 -0.11685467 0.041958004 0.079961464 0.053775992 0.04941892 0.098233335 0.00521415
0.07918947 -0.04978548 0.053056907 -0.18630885 -0.0005431018 0.11778524 0.060802136 -0.102870524
0.062212385 -0.032126054 -0.088992566 0.018112887 0.1157174 0.075247295 0.004201027 0.022058982
0.09977759 -0.029294584 -0.04370895 0.09876028 -0.07143099 0.04671253 -0.074807875 0.14588481
-0.032367475 -0.016271483 -0.03374715 0.018547108 -0.09006836 -0.10627991 0.049193155 0.0711961
0.009968447 -0.06745167 0.12943394 -0.020234609 -0.06166195 0.084014796 -0.07074865 0.06572152
0.06496601 0.019372523 -0.042922042 -0.0011761143 0.009231165 0.006296937 0.082425185 0.0015768204
00000000: b46a 723d 1ef5 b7bc 917c b93d 24c5 873d
00000010: 609a 313e 982c d6bc 6dcd 26bd 80ac 673d
00000020: 0325 c23d 8a9a 9b3c e2d6 243c 665b efbc
00000030: 29fd 1c3d 200e 51bd 0145 203d d8d8 493d
00000040: 1c79 803c 3e07 35bc 7a3d d23a 9d15 5dbd
00000050: 1b5d a63d e540 083d 712d c03d 5a0a eb3c
00000060: f425 a9bc 9bcd 9bbd c696 f53c 1b73 cb3d
00000070: 8ad5 973d 99ed 38bd aae1 f53d d4f9 acbd
00000080: 5e9d 44bd 2278 6a3e 10f3 0ebd 8da9 eb3a
00000090: 820b dd3b a4a1 343d a77f 5dbd 7896 623d
000000a0: 2027 02bb 4628 723d 2a69 733c 4381 913d
000000b0: bc6f c53c f2d7 4fbd da50 943d a581 663d
000000c0: ff42 a6bd 5885 073b 5760 543b 0285 2c3d
000000d0: a0c6 8dbc d2cc 81bd f9b7 dc3d eb84 21bd
000000e0: 8909 7e3d bd77 aebc b161 953d 31be aa3d
000000f0: 21d3 bfbc 42df c7bc b7ad 153e 838f 3f3c
00000100: 8331 203d 44cc 7bbb 31e4 8fb8 f167 5c3c
00000110: 405b de3d 946a d9bc cf6d b9bb d9ae acbd
00000120: 1969 553e 56d3 e53b 7dc0 ad3c 6473 78bd
00000130: 1bf0 5d3e b758 a43d fc57 f03c 0bb5 c5bd
00000140: 57d8 e9bb 4f0c 043d 55de b6bb 662a 973d
00000150: d58a adbd 849a a2bd 0526 113d 2c24 e6bc
00000160: 2f3b c03c e965 4a3d cd40 92bd c5ac 08bd
00000170: 6ee9 453b 0ed4 96bc 3121 49bd 8b1c d93c
00000180: 7856 343e 5df5 803d a43c adbd ecc9 9b3d
00000190: b870 5c3e 0471 ed39 efa0 83bd 4d76 5ebd
000001a0: ae81 beb8 969d 353b 4a10 233d 727b 383c
000001b0: c722 5abd 4ece c23c 87b7 733c 21c3 003e
000001c0: b9f7 a83d 8051 efbd 28dc 2b3d d6c2 a33d
000001d0: 3744 5c3d 7e6b 4a3d 8f2e c93d 76db aa3b
000001e0: 172e a23d dceb 4bbd 3352 593d bfc7 3ebe
000001f0: f25e 0eba 6339 f13d a90b 793d c8ad d2bd
00000200: 6ad2 7e3d 9c96 03bd bc41 b6bd 7a61 943c
00000210: 3ffd ec3d 411b 9a3d c5a8 893b 0ab5 b43c
00000220: 3158 cc3d 32fb efbc 2808 33bd d442 ca3d
00000230: 694a 92bd a355 3f3d df34 99bd d462 153e
00000240: c293 04bd c64b 85bc 743a 0abd 1bf0 973c
00000250: c375 b8bd 48a9 d9bd c37e 493d 43cf 913d
00000260: b252 233c 1a24 8abd 558a 043e 0dc3 a5bc
00000270: 3e91 7cbd f30f ac3d abe4 90bd 0199 863d
00000280: e60c 853d 20b3 9e3c 06cf 2fbd d927 9aba
00000290: 503e 173c 8956 ce3b 89ce a83d 50ad ce3a

weight f4 [168, 168]
-0.04759616 0.019915525 0.072783366 -0.01719074 0.04143729 -0.0037066764 0.07938855 -0.042444047
-0.017164681 -0.019013036 -0.043079443 0.010558474 0.008397404 0.052178692 0.06455591 -0.051212694
-0.02017317 0.028175741 0.010665374 -0.028749805 -0.007331277 -0.02410348 -0.034250468 0.0124190105
0.032489717 -0.08857555 0.045551695 -0.043178663 -0.033604886 0.0043897554 -0.045365747 -0.046652343
0.001769685 0.047993932 0.023533847 -0.041544273 0.026997088 9.225529e-05 -0.025703488 -0.046031833
-0.08293593 -0.007901793 0.053176142 0.09096468 -0.07596248 0.06305979 -0.018285155 -0.033714928
0.06599518 -0.052851062 0.07613181 0.055393178 0.03927516 0.07152021 -0.030303275 -0.01632027
0.083379984 0.054982062 0.03925288 -0.045245368 -0.02726412 -0.021645227 0.019341325 0.022871714
-0.07195343 0.052840013 0.0034416986 -0.05919855 0.120924935 -0.025454262 0.044962417 -0.022551911
0.068301946 0.028215239 0.027836392 -0.04443357 0.025718989 0.031532113 0.056724507 -0.06620343
-0.023176918 -0.033851095 -0.014294669 0.028863389 -0.036439247 0.028443629 -0.022481658 0.08272198
0.042748056 0.021243498 0.058042806 -0.0738014 -0.02295418 -0.069054 0.0030552961 0.033669256
0.08613573 -0.048815146 -0.06393689 -0.025012072 0.07617173 -0.012033624 0.07233625 0.029875137
0.05483588 -0.046182264 0.00072204834 0.039348837 -0.06870815 0.07292223 -0.030491881 -0.00939398
0.024025505 -0.086299114 0.054119375 0.042469252 -0.048780065 0.046542853 0.08180116 -0.055893656
-0.059566077 0.052903026 0.01899867 0.055800807 -0.030771423 0.08661504 -0.063025884 0.041102514
0.07843723 -0.027432889 0.02909695 0.008687146 -0.100620516 -0.05148646 0.01958976 0.08924697
0.028100977 -0.033400953 -0.06134879 0.0863203 -0.082232684 0.06983676 -0.07189424 -0.003542524
-0.040774312 -0.07279601 -0.00222122 -0.021599546 0.02730918 -0.03859867 0.06410939 0.0046680295
0.035427265 0.080283724 0.02046503 0.035569895 0.008637567 -0.08805003 0.028436735 -0.064076975
0.0707244 -0.024554703 0.0055753943 0.0679144 0.020964857 0.12400136 0.0455054 -0.07606786
0.10654951 0.02469139 0.02311798 0.055702414 0.08668753 0.07329097 0.03515407 0.060851205
0.027984045 0.0027013873 -0.074224256 0.013090798 -0.020174421 0.031321008 0.06663842 -0.04845843
-0.04039693 0.04070949 0.0015637476 -0.0151835745 -0.002304401 0.07277544 0.004556015 0.065516844
-0.06542643 -0.049852498 -0.051241234 -0.01124905 -0.017984318 0.029036224 0.10268048 -0.059938055
0.026762303 0.0871403 0.0015460948 -0.10502225 -0.04914255 0.09737968 0.039537318 0.08343701
-0.07071307 -0.04151536 0.038864546 0.057745032 0.07123902 -0.02976973 0.04164457 0.0074803084
-0.057426576 -0.025928652 -0.04152004 0.01338862 -0.015876377 0.04266118 -0.0804746 0.09170767
0.057751577 -0.06778797 -0.056628253 0.013180971 -0.051686842 -0.0604332 -0.014495763 -0.06484434
-0.033805206 -0.009426765 -0.026111407 0.05424522 0.08387259 -0.096113004 -0.0020320306 -0.09009003
0.07327561 0.052857004 -0.022794092 -0.05261473 -0.029932428 -0.01089267 0.05838257 -0.03460391
0.06613438 0.055493154 0.08127805 0.027623061 -0.108304136 0.010470386 -0.064484276 -0.054254737
00000000: 31f4 42bd e225 a33c 720f 953d 98d3 8cbc
00000010: 26ba 293d b6eb 72bb 7796 a23d cfd9 2dbd
00000020: f29c 8cbc 3ac1 9bbc 1274 30bd 73fd 2c3c
00000030: 4495 093c 53b9 553d e435 843d 67c4 51bd
00000040: 3442 a5bc d0d0 e63c d2bd 2e3c b684 ebbc
00000050: 353b f0bb a974 c5bc 384a 0cbd 1b79 4b3c
00000060: f013 053d 1967 b5bd 6a94 3a3d 1cdc 30bd
00000070: 47a5 09bd f0d7 8f3b 6fd1 39bd 8716 3fbd
00000080: c6f4 e73a 4995 443d 0eca c03c 542a 2abd
00000090: ff28 dd3c 2f79 c138 1f90 d2bc e08b 3cbd
000000a0: 50da a9bd 8676 01bc 3acf 593d b14b ba3d
000000b0: 3792 9bbd 7e25 813d c0ca 95bc aa18 0abd
000000c0: 7b28 873d 5b7a 58bd ffea 9b3d f5e3 623d
000000d0: fdde 203d 3079 923d 933e f8bc 16b2 85bc
000000e0: 20c3 aa3d df34 613d a1c7 203d 3553 39bd
000000f0: 0159 dfbc 5551 b1bc b371 9e3c 765d bb3c
00000100: 525c 93bd c56e 583d 1f8e 613b 2e7a 72bd
00000110: 7ea7 f73d 7585 d0bc 832a 383d c9be b8bc
00000120: e4e1 8b3d a523 e73c 2509 e43c faff 35bd
00000130: a1b0 d23c d127 013d f557 683d aa95 87bd
00000140: 85dd bdbc 72a7 0abd 3034 6abc ea72 ec3c
00000150: 5241 15bd 9d02 e93c 742b b8bc 246a a93d
00000160: 9618 2f3d d806 ae3c 4bbe 6d3d 3025 97bd
00000170: 680a bcbc 2f6c 8dbd 5d3b 483b c6e8 093d
00000180: ee67 b03d 64f2 47bd 58f1 82bd 1ee6 ccbc
00000190: edff 9b3d ad28 45bc 0725 943d b4bc f43c
000001a0: 969b 603d 9d29 3dbd d847 3d3a 3f2c 213d
000001b0: dcb6 8cbd 4058 953d 1cca f9bc 35e9 19bc
000001c0: 23d1 c43c 97bd b0bd 47ac 5d3d 3df4 2d3d
000001d0: 9bcd 47bd b8a3 3e3d 5e87 a73d bff0 64bd
000001e0: 8ffb 73bd d8b0 583d 19a3 9b3c 638f 643d
000001f0: 5a14 fcbc 3a63 b13d b713 81bd 1c5b 283d
00000200: b3a3 a03d f0ba e0bc ba5c ee3c 8854 0e3c
00000210: 2112 cebd 77e3 52bd b47a a03c 1ec7 b63d
00000220: 0534 e63c 70cf 08bd de48 7bbd b3c8 b03d
00000230: 9c69 a8bd 9306 8f3d 4a3d 93bd b129 68bb
00000240: f702 27bd 1316 95bd e391 11bb 88f1 b0bc
00000250: 80b7 df3c a419 1ebd c94b 833d 45f6 983b
00000260: 2e1c 113d cb6b a43d 47a6 a73c bdb1 113d
00000270: 9584 0d3c 9353 b4bd 28f4 e83c ca3a 83bd
00000280: f4d7 903d f226 c9bc ccb1 b63b b416 8b3d
00000290: 7ebe ab3c 6df4 fd3d df63 3a3d 77c9 9bbd
000002a0: a136 da3d 9945 ca3c eb61 bd3c 3728 643d
000002b0: 3b89 b13d 9319 963d b7fd 0f3d 1d3f 793d
000002c0: cc3e e53c c209 313b e302 98bd c97a 563c
000002d0: d444 a5bc 754a 003d b979 883d 597c 46bd
000002e0: 4077 25bd ffbe 263d aaf6 cc3a 87c4 78bc
000002f0: 6f05 17bb 4a0b 953d a04a 953b b22d 863d
00000300: 4bfe 85bd 2232 4cbd 54e2 51bd ef4d 38bc
00000310: d953 93bc 60dd ed3c 254a d23d 9b81 75bd
00000320: 9e3c db3c 9d76 b23d 55a6 ca3a e815 d7bd
00000330: b349 49bd ff6e c73d e2f1 213d 06e1 aa3d
00000340: 04d2 90bd 030c 2abd 6e30 1f3d 0e86 6c3d
00000350: c3e5 913d a6df f3bc 7f93 2a3d 601d f53b
00000360: 2138 6bbd 5368 d4bc eb10 2abd f15b 5b3c
00000370: 2d0f 82bc 7dbd 2e3d decf a4bd 3bd1 bb3d
00000380: eb8c 6c3d 6bd4 8abd 07f3 67bd 00f5 573c
00000390: 95b5 53bd ce88 77bd a37f 6dbc 1ccd 84bd
000003a0: 5477 0abd b872 1abc 97e7 d5bc 3c30 5e3d
000003b0: 64c5 ab3d e5d6 c4bd d12b 05bb 1f81 b8bd
000003c0: 8611 963d 9680 583d adba babc 8b82 57bd
000003d0: da34 f5bc 2b77 32bc 9022 6f3d d4bc 0dbd
000003e0: 7671 873d ca4c 633d 1b75 a63d c249 e23c
000003f0: 8fce ddbd fb8b 2b3c 5510 84bd 373a 5ebd

bias f4 [168]
0.07061678 0.1830505 0.22767141 0.10319117 -0.024189204 0.20275186 -0.044730168 0.061436392
-0.060072616 -0.052028965 -0.07007638 0.12492103 -0.06231923 -0.043864824 -0.039992847 0.11233989
-0.043061614 0.012560458 -0.04173036 -0.0300385 0.06942145 0.06759524 -0.056687694 0.0003182859
-0.052337673 0.19465703 0.043831337 0.12049965 0.041202832 -0.053076368 -0.034931116 0.008447073
-0.034829125 0.054653518 0.13552704 0.060221065 -0.030815734 -0.020924227 0.10083363 -0.04423893
0.11257944 -0.010201999 0.010587113 -0.08040638 -0.02057583 0.07333908 0.045175143 0.02289692
0.0895406 -0.014824558 0.15537892 0.07240198 0.059768584 0.17370379 0.020389749 0.062387913
0.09805265 0.032104097 0.10922758 -0.020505054 -0.014295928 -0.05915073 0.08608017 0.08186191
-0.07623617 -0.0017625303 -0.029193096 0.068510294 0.104504 -0.010559386 0.0566012 -0.030899527
-0.022316545 0.054610487 -0.024434434 0.079905786 0.043944243 -0.032794606 0.0002289758 -0.046812184
0.08767192 -0.050531328 0.10662756 0.06551033 -0.020732075 -0.0051553245 -0.031394355 -0.0049168337
0.06390122 -0.005427583 0.013677988 -0.037933365 0.031109756 -0.067987986 0.1118956 0.16410835
-0.006380695 0.028125431 -0.04912168 0.08040389 0.053053975 0.074711055 0.0114322575 0.029445063
-0.0016099073 -0.01606973 0.09998312 0.006002129 0.16699424 -0.026512505 0.09695914 0.040239647
0.043679018 0.03363097 0.022970116 -0.010170958 -0.03525257 -0.044269223 0.008198291 -0.02660939
0.032115933 0.15045933 -0.0048046666 0.12573263 0.008833475 0.008743586 0.02841377 0.032266706
0.08160963 -0.069705054 -0.041707177 0.0011193713 0.06195893 -0.015544357 0.017281037 -0.04758906
0.040876143 -0.03538054 -0.073339045 0.14301081 -0.047308568 0.014791656 -0.009990039 -0.05826397
0.031070635 0.09807205 0.0659667 0.14792643 0.08154562 -0.054024324 0.015914684 0.003780854
0.17771697 -0.033307064 -0.024568744 0.031761356 0.07920854 -0.04644485 0.19335507 -0.033491798
0.014766804 -0.07780815 0.061103925 0.18948857 -0.023191964 0.104135 0.11611503 -0.056437653
00000000: 889f 903d 9771 3b3e b222 693e e455 d33d
00000010: 7028 c6bc 2f9e 4f3e fb36 37bd baa4 7b3d
00000020: b40e 76bd 531c 55bd 3584 8fbd 99d6 ff3d
00000030: 7342 7fbd 9aab 33bd 8acf 23bd 7512 e63d
00000040: 6061 30bd 61ca 4d3c 74ed 2abd 4d13 f6bc
00000050: d52c 8e3d 606f 8a3d 5b31 68bd 9cdf a639
00000060: 0760 56bd 2c54 473e 7d88 333d 85c8 f63d
00000070: 4dc4 283d 9b66 59bd ee13 0fbd 9865 0a3c
00000080: fca8 0ebd 5edc 5f3d 9ac7 0a3e 5daa 763d
00000090: 4771 fcbc 4969 abbc dd81 ce3d e133 35bd
000000a0: 0d90 e63d 4926 27bc 9275 2d3c 1aac a4bd
000000b0: a58e a8bc cd32 963d 9209 393d 5292 bb3c
000000c0: 1061 b73d b4e2 72bc a71b 1f3e 7d47 943d
000000d0: e7cf 743d 68df 313e 6708 a73c 788a 7f3d
000000e0: d4cf c83d 967f 033d b6b2 df3d 37fa a7bc
000000f0: 7839 6abc 0948 72bd cd4a b03d 38a7 a73d
00000100: b621 9cbd b404 e7ba 5c26 efbc 204f 8c3d
00000110: 3106 d63d 4601 2dbc a9d6 673d 0121 fdbc
00000120: 30d1 b6bc 3faf 5f3d b92a c8bc a5a5 a33d
00000130: e1fe 333d a353 06bd 3919 7039 22be 3fbd
00000140: 568d b33d f0f9 4ebd 8d5f da3d 482a 863d
00000150: 50d6 a9bc ffed a8bb 5e97 00bd 641d a1bb
00000160: a5de 823d ded9 b1bb a419 603c 0460 1bbd
00000170: e3d9 fe3c 493d 8bbd 8529 e53d 050c 283e
00000180: 2615 d1bb 4e67 e63c d133 49bd cbaa a43d
00000190: 204f 593d 1c02 993d 5d4e 3b3c c636 f13c
000001a0: 8603 d3ba aba4 83bc f3c3 cc3d 82ad c43b
000001b0: 8a00 2b3e c130 d9bc 8392 c63d 54d2 243d
000001c0: c5e8 323d a1c0 093d d32b bc3c 17a4 26bc
000001d0: 0065 10bd a553 35bd 2052 063c effb d9bc
000001e0: ff8b 033d 0312 1a3e 7770 9dbb 0ec0 003e
000001f0: 48ba 103c 4241 0f3c ffc3 e83c 182a 043d
00000200: f322 a73d 86c1 8ebd 25d5 2abd deb7 923a
00000210: a6c8 7d3d c2ad 7ebc f690 8d3c bfec 42bd
00000220: be6d 273d 2feb 10bd c832 96bd 6d71 123e
00000230: a1c6 41bd b458 723c 43ad 23bc 33a6 6ebd
00000240: d887 fe3c 00da c83d 8d19 873d 077a 173e
00000250: 6401 a73d 9c48 5dbd 835f 823c 34c8 773b
00000260: 70fb 353e fd6c 08bd 6444 c9bc 3218 023d
00000270: 1638 a23d f43c 3ebd dffe 453e b22e 09bd
00000280: 77f0 713c e159 9fbd 1c48 7a3d 4b09 423e
00000290: 13fd bdbc bb44 d53d b8cd ed3d 2b2b 67bd

weight f4 [84, 168]
0.003849025 0.05769723 0.019062644 0.0030788796 0.074588895 -0.053017132 0.06335569 0.060971454
-0.05848742 -0.0812454 -0.020884082 -0.037925337 -0.027514301 0.049694967 0.053246908 0.03902424
0.06100653 -0.010106837 0.017705651 -0.0711069 -0.022415193 -0.008854336 -0.015667407 0.031624477
0.03466491 -0.079806164 0.06957531 0.019924492 0.026090965 -0.06855571 0.057467394 0.037024368
0.0062692496 0.063545085 0.0065707983 0.008394423 -0.0331904 -0.031735208 0.07594799 0.0050138463
0.03488065 0.087518685 0.021537 0.02278009 0.07529356 -0.012391681 0.09692607 -0.0070571927
0.02371015 -0.07635702 0.049753927 -0.06368 0.0044278097 0.051035192 -0.016820136 0.015193269
-0.028742889 0.041291792 0.05087228 0.03211995 0.02173713 0.040225502 -0.037036046 0.04374702
-0.018629512 -0.054856006 0.055777267 -0.006509621 -0.056883678 0.041808765 0.08807327 0.09106449
0.011948667 -0.027251273 0.07138332 0.014713062 0.08067987 0.034655888 -0.03739369 -0.027151456
-0.049803887 -0.0029647935 -0.03442332 -0.0898936 0.026422007 0.044991694 0.030777931 -0.06548145
0.04233323 -0.00083055743 -0.0032058053 -0.051871613 -0.047986288 -0.06990864 0.050116908 -0.0068612746
-0.005775683 -0.057964012 -0.06700591 -0.011762744 -0.002088109 0.07399959 -0.043816566 0.064245306
0.031278748 0.0150892455 0.07685615 0.055225857 -0.057551716 -0.053959068 -0.040111657 0.0052978224
-0.05773511 -0.077910826 0.009214229 0.09446719 -0.054174293 0.016878113 0.016684553 -0.03625778
0.0721158 0.011903573 -0.06722771 -0.040046133 -0.049661253 0.005816912 -0.015233149 0.077440895
-0.03899961 -0.045998365 0.017263398 0.018758632 -0.024727097 0.07408203 -0.06535996 0.06960089
0.069336236 0.006601658 0.037055463 -0.029120656 -0.011240934 0.007162466 -0.017228112 0.04459993
0.03430177 0.09298834 -0.028115738 -0.09201004 -0.021839956 0.02836655 0.08673211 -0.006076032
0.0014727082 -0.043114953 0.071769565 -0.028939197 -0.011141717 -0.06281184 0.04579475 -0.039267205
-0.012277944 0.013275854 0.07039738 0.040184386 0.057538304 -0.008890378 -0.028866483 -0.07293405
-0.034249533 0.058975305 0.0072718253 0.024915036 -0.0026178644 0.014271903 -0.07138177 0.021319121
-0.056713037 0.03755673 -0.07638376 0.056495894 -0.031778343 0.036891237 -0.00041309235 0.04607926
-0.011915204 0.06877535 -0.035929535 -0.055642523 -0.019785535 -0.07538872 -0.011277324 0.043383066
0.0077691427 0.023725037 -0.03312692 -0.068429224 -0.02657737 0.022983694 -0.039794516 0.014528873
-0.07226891 0.0024510887 0.013157203 -0.047497828 0.07147948 -0.07348247 -0.040631335 0.034410644
0.03854731 -0.0025182466 0.011299647 -0.033300012 -0.045236837 -0.05018309 -0.040022887 -0.015551087
0.047732964 -0.028621024 -0.06044694 -0.06803885 -0.066161655 -0.0033462967 -0.07154913 -0.017768206
0.048400264 0.022363702 -0.052988146 -0.026044477 -0.006518602 -0.018064108 -0.02745619 0.026506627
0.016247557 0.02341035 0.0036671425 -0.0365999 -0.06517998 0.060251836 -0.07129846 -0.046726022
0.041999537 -0.04438586 -0.007693153 0.07438254 0.03271495 0.05184717 -0.030061083 0.0068415073
-0.027939964 0.016563918 -0.0769937 0.0016503533 -0.009208993 -0.044460867 -0.033595957 -0.051364623
00000000: ec3f 7c3b ee53 6c3d 4329 9c3c 07c7 493b
00000010: 10c2 983d 7e28 59bd a1c0 813d 34bd 793d
00000020: 8190 6fbd fd63 a6bd 1815 abbc 9957 1bbd
00000030: ac65 e1bc f38c 4b3d 6e19 5a3d e2d7 1f3d
00000040: fce1 793d 2697 25bc 710b 913c 7fa0 91bd
00000050: 11a0 b7bc c711 11bc ef58 80bc ab88 013d
00000060: cbfc 0d3d 6a71 a3bd 807d 8e3d b038 a33c
00000070: b8bc d53c f066 8cbd ee62 6b3d dda6 173d
00000080: 476e cd3b ed23 823d da4f d73b c388 093c
00000090: a8f2 07bd c7fc 01bd 9f8a 9b3d 314b a43b
000000a0: 03df 0e3d ff3c b33d 5d6e b03c 509d ba3c
000000b0: 8333 9a3d 7a06 4bbc 2d81 c63d 0640 e7bb
000000c0: ca3b c23c 1261 9cbd c6ca 4b3d a96a 82bd
000000d0: 2917 913b 470a 513d 62ca 89bc 30ed 783c
000000e0: 3576 ebbc 9521 293d 745f 503d 3590 033d
000000f0: 1112 b23c 7fc3 243d 1cb3 17bd 1330 333d
00000100: eb9c 98bc b1b0 60bd b476 643d a94e d5bb
00000110: dcfe 68bd ab3f 2b3d c25f b43d 0580 ba3d
00000120: 57c4 433c 103e dfbc 6b31 923d 0e0f 713c
00000130: 7d3b a53d 55f3 0d3d 202a 19bd bb6c debc
00000140: 29ff 4bbd fb4c 42bb 78ff 0cbd 231a b8bd
00000150: f772 d83c 3649 383d 0022 fc3c 231b 86bd
00000160: 9c65 2d3d c4b9 59ba 7d18 52bb 5477 54bd
00000170: 458d 44bd 432c 8fbd 6347 4d3d 8bd4 e0bb
00000180: f141 bdbb ac6b 6dbd 653a 89bd 86b8 40bc
00000190: a8d8 08bb 198d 973d 0079 33bd 0b93 833d
000001a0: 251e 003d e238 773c c266 9d3d 8234 623d
000001b0: 59bb 6bbd 2f04 5dbd 1f4c 24bd 5b99 ad3b
000001c0: a77b 6cbd b68f 9fbd 47f7 163c 0478 c13d
000001d0: dde5 5dbd f843 8a3c 0bae 883c 0a83 14bd
000001e0: 73b1 933d 3407 433c aeae 89bd 6a07 24bd
000001f0: 9969 4bbd cb9b be3b 7594 79bc 5599 9e3d
00000200: 0ebe 1fbd c868 3cbd f86b 8d3c b4ab 993c
00000210: 7b90 cabc 52b8 973d 71db 85bd e98a 8e3d
00000220: 2800 8e3d b952 d83b 78c7 173d 718e eebc
00000230: e52b 38bc 1fb3 ea3b f821 8dbc 6bae 363d
00000240: 0380 0c3d ac70 be3d fa52 e6bc c36f bcbd
00000250: b5e9 b2bc f860 e83c 9ba0 b13d 7319 c7bb
00000260: e307 c13a 4e99 30bd ecfb 923d e511 edbc
00000270: c08b 36bc 7ea3 80bd 4793 3b3d a6d6 20bd
00000280: 6e29 49bc f882 593c 802c 903d 6298 243d
00000290: 49ad 6b3d f3a8 11bc 6779 ecbc 725e 95bd
000002a0: 3d49 0cbd 1790 713d 7e48 ee3b 9e1a cc3c
000002b0: 7a90 2bbb b3d4 693c 9b30 92bd 70a5 ae3c
000002c0: ee4b 68bd 16d5 193d 176f 9cbd 3d68 673d
000002d0: 022a 02bd 441b 173d 5194 d8b9 9bbd 3c3d
000002e0: fd37 43bc 17da 8c3d d92a 13bd 6ae9 63bd
000002f0: 4615 a2bc 6765 9abd 86c4 38bc 71b2 313d
00000300: 4b94 fe3b 025b c23c 18b0 07bd 9f24 8cbd
00000310: c9b8 d9bc 4d48 bc3c 93ff 22bd 830a 6e3c
00000320: b901 94bd 72a2 203b 4f91 573c 158d 42bd
00000330: d563 923d fa7d 96bd 0b6d 26bd 2df2 0c3d
00000340: c9e3 1d3d 2b09 25bb 2822 393c 9865 08bd
00000350: 434a 39bd c98c 4dbd 0aef 23bd fdc9 7ebc
00000360: a483 433d a376 eabc 3697 77bd f457 8bbd
00000370: c37f 87bd 8b4d 5bbb 5a88 92bd a18e 91bc
00000380: 5b3f 463d 1534 b73c 190a 59bd 3a5b d5bc
00000390: ff99 d5bb 2efb 93bc ceeb e0bc 6d24 d93c
000003a0: 9919 853c 10c7 bf3c 7154 703b c7e9 15bd
000003b0: 157d 85bd a1ca 763d ed04 92bd c963 3fbd
000003c0: b507 2c3d f3cd 35bd d816 fcbb e055 983d
000003d0: 1d00 063d b35d 543d a942 f6bc b92e e03b
000003e0: 5ae2 e4bc 0eb1 873c dfae 9dbd ab50 d83a
000003f0: 51e1 16bc 991c 36bd ea9b 09bd b663 52bd

bias f4 [84]
-0.024665006 -0.0758804 -0.03007552 0.071682446 0.015183486 0.04305426 -0.062321138 0.061126024
0.018506588 0.0937689 0.065738335 0.11592751 0.07290474 -0.07958585 -0.018796952 0.17166407
-0.019926984 0.045058396 0.049714316 -0.04551256 -0.06245598 0.21851303 0.10924228 -0.045445975
0.049310803 0.00034859643 -0.053236425 0.011447833 0.07291666 -0.08706143 0.05846424 0.05167596
-0.022414425 0.12486384 0.10910957 -0.052098785 0.18356071 0.0020064854 0.043433253 0.05594117
0.08756134 0.057643108 -0.07169618 0.08668881 0.16140914 0.04276327 0.29785565 0.07453786
0.03632613 0.11799622 -0.022947885 0.0788457 0.15076512 -0.03138016 0.035680484 -0.005014257
-0.06237917 0.1790457 0.11453957 -0.06055964 0.018064689 -0.07420472 -0.06826008 0.21083188
0.07071208 0.12578493 0.034340844 0.1551896 -0.007930532 -0.018420013 0.013926298 0.009363305
0.09911478 0.03727503 0.15864882 0.31783924 0.029044008 -9.945656e-05 0.13201618 -0.0056304284
-0.06805405 0.03253086 -0.058220014 0.19022232
00000000: 440e cabc 2f67 9bbd f060 f6bc 3fce 923d
00000010: 28c4 783c aa59 303d 7344 7fbd 485f 7a3d
00000020: 219b 973c e909 c03d d2a1 863d 676b ed3d
00000030: 154f 953d e8fd a2bd 11fc 99bc b5c8 2f3e
00000040: ea3d a3bc 278f 383d 3da1 4b3d 616b 3abd
00000050: d7d1 7fbd e1c1 5f3e 6bba df3d 8f25 3abd
00000060: 20fa 493d d2c3 b639 700e 5abd b18f 3b3c
00000070: 5455 953d 434d b2bd 3378 6f3d 2caa 533d
00000080: 759e b7bc 9db8 ff3d d774 df3d 8965 55bd
00000090: 57f7 3b3e 3d7f 033b 11e7 313d 9122 653d
000000a0: 5c53 b33d 2e1b 6c3d 72d5 92bd e789 b13d
000000b0: 7048 253e 8a28 2f3d 8980 983e 4ea7 983d
000000c0: b5ca 143d 01a8 f13d 34fd bbbc db79 a13d
000000d0: 2c62 1a3e 7c88 00bd b325 123d a34e a4bb
000000e0: 4d81 7fbd c257 373e b993 ea3d 630d 78bd
000000f0: 66fc 933c a5f8 97bd f1cb 8bbd 50e4 573e
00000100: 7fd1 903d c4cd 003e fca8 0c3d 06ea 1e3e
00000110: 10ef 01bc 91e5 96bc 212b 643c 8c68 193c
00000120: b1fc ca3d b4ad 183d d674 223e d3bb a23e
00000130: b3ed ed3c 5693 d0b8 402f 073e 757f b8bb
00000140: ec5f 8bbd 143f 053d 1c78 6ebd a4c9 423e

weight f4 [7, 84]
0.07982509 -0.048875976 0.03717951 -0.21970199 0.17066726 0.053251892 -0.05655874 0.08185634
0.24815865 0.051438298 -0.103793055 0.04700774 0.13750963 -0.042478193 0.22589295 -0.13785096
0.29140073 0.06144973 -0.03266822 -0.019904986 -0.10435698 -0.20164895 0.11141272 0.019680826
-0.10149238 0.13472956 0.06211003 0.010379537 -0.034491457 0.14578347 0.003892241 0.16659884
0.15190586 -0.09212433 0.032877482 0.018514121 0.10855848 0.13589911 -0.16408381 -0.10066014
0.19478022 0.0053557367 -0.02474111 0.02687325 -0.06093466 0.1346348 -0.1484446 -0.08416108
-0.030421043 -0.17480692 0.07600639 0.060184292 -0.08424523 -0.0066498294 0.14260824 0.2293199
-0.040538706 -0.091510646 -0.10710697 -0.02328074 -0.008318963 -0.011786489 -0.01954877 -0.080094874
0.028935606 -0.08261472 0.004115638 -0.07494241 0.10545188 -0.037389126 0.033925302 0.16634291
0.05200564 -0.07305314 -0.060664143 -0.26129112 -0.004806746 -0.022598468 -0.050084457 0.06550157
-0.07585016 -0.008624849 0.02930054 0.06832396 0.050250806 0.02755851 0.08069328 0.1584119
-0.02176675 0.025628539 0.00093369826 -0.08386473 -0.07174471 -0.13459037 0.25172716 -0.123999245
0.33202636 -0.12908451 0.07521167 -0.30509752 -0.035076156 -0.24270965 -0.043626476 -0.050696224
0.04896011 -0.035131313 -0.042895764 -0.1068454 -0.16899492 -0.0071077896 -0.097832285 -0.13457753
-0.084566146 -0.28182036 0.19952808 0.26703957 -0.16637877 -0.1190811 -0.13843961 -0.12982781
-0.1796635 -0.105146766 0.024729352 -0.082566224 0.17450482 -0.04795157 0.033386625 0.016099246
-0.28958267 -0.023818426 -0.30884504 -0.031273868 0.025559101 -0.12553327 0.066944875 -0.06810697
-0.07183169 -0.08295198 -0.10104347 0.010787081 0.081608474 -0.10965752 -0.06382342 -0.029744431
0.08808643 0.020018341 0.075019106 -0.17693275 0.15962048 -0.038899157 0.07700151 -0.19484153
0.17921464 0.076666504 -0.15297209 0.041820057 0.017009383 0.1290291 -0.046978164 0.11391415
-0.08439586 0.07226025 -0.05338476 0.08566077 -0.036555782 -0.10704453 0.08954554 -0.048053984
-0.10800756 0.0025617422 0.21993352 -0.2377389 -0.14419846 0.12795503 -0.020778509 -0.073827974
-0.17231302 -0.07514858 -0.36090982 -0.008023893 -0.08621983 -0.2815099 0.018091343 0.317246
-0.21381055 -0.012986213 0.100622565 0.101934865 0.028845966 0.20529565 0.17134334 0.11026502
-0.03528837 0.0634853 0.062308732 -0.014520805 0.06474037 0.05619241 -0.14042398 -0.23078184
0.12285261 0.21275926 0.21394843 -0.069780655 0.009134399 0.08497638 -0.117694065 0.12253682
0.16134675 -0.020767093 -0.02790717 -0.13365112 0.08750596 0.15848999 0.4413143 -0.013004724
0.064965375 0.35672605 -0.046659905 -0.059090372 0.15234327 -0.19028531 -0.05714927 0.022361342
-0.08498455 -0.090259604 0.044865407 0.07092417 0.01503209 -0.07219838 0.065569274 0.1680278
0.08033106 0.007697384 0.07989357 0.1635831 -0.14904197 -0.0654928 -0.09473897 -0.14000174
-0.15582876 -0.24027963 0.1987392 0.4160804 -0.16014493 0.009161515 -0.11634121 -0.007374505
-0.028562784 -0.16454229 0.07576763 0.2250696 0.078492016 -0.05407036 -0.13292573 0.01915154
00000000: 567b a33d 2d32 48bd 8b49 183d 8ff9 60be
00000010: 66c3 2e3e a81e 5a3d 23aa 67bd 4ca4 a73d
00000020: 4d1d 7e3e f7b0 523d 7491 d4bd 308b 403d
00000030: 53cf 0c3e 9dfd 2dbd 7b50 673e cd28 0dbe
00000040: 7a32 953e b6b2 7b3d 1dcf 05bd c80f a3bc
00000050: 1db9 d5bd 107d 4ebe 5a2c e43d af39 a13c
00000060: 3ddb cfbd 8cf6 093e 1667 7e3d ef0e 2a3c
00000070: ea46 0dbd 4348 153e f814 7f3b e398 2a3e
00000080: 368d 1b3e aeab bcbd 8aaa 063d edaa 973c
00000090: e953 de3d 2329 0b3e 9605 28be e726 cebd
000000a0: 7774 473e 2d7f af3b dead cabc 4a25 dc3c
000000b0: 9f96 79bd b4dd 093e dc01 18be a55c acbd
000000c0: 8d35 f9bc 9600 33be 3da9 9b3d ce83 763d
000000d0: c388 acbd d0e6 d9bb e507 123e d6d2 6a3e
000000e0: ea0b 26bd ef69 bbbd e65a dbbd 40b7 bebc
000000f0: 434c 08bc 1e1c 41bc be24 a0bc c808 a4bd
00000100: 5d0a ed3c e831 a9bd 79dc 863b 687b 99bd
00000110: 28f7 d73d 5725 19bd 42f5 0a3d cc55 2a3e
00000120: de03 553d e29c 95bd f77a 78bd f3c7 85be
00000130: e881 9dbb 6c20 b9bc 5c25 4dbd b025 863d
00000140: 5457 9bbd 3d4f 0dbc b007 f03c 6fed 8b3d
00000150: cad3 4d3d 62c2 e13c 8542 a53d bb36 223e
00000160: 2f50 b2bc f1f2 d13c 6ec3 743a 46c1 abbd
00000170: e4ee 92bd 0fd2 09be 62e2 803e 51f3 fdbd
00000180: 5cff a93e bb2e 04be 9308 9a3d be35 9cbe
00000190: 04ac 0fbd e188 78be adb1 32bd d8a6 4fbd
000001a0: 658a 483d dae5 0fbd 78b3 2fbd c3d1 dabd
000001b0: 010d 2dbe 76e8 e8bb 4b5c c8bd b1ce 09be
000001c0: 0431 adbd c24a 90be 1751 4c3e 69b9 883e
000001d0: 325f 2abe cbe0 f3bd 1dc3 0dbe 95f1 04be
000001e0: b5f9 37be 3057 d7bd 3695 ca3c 7b18 a9bd
000001f0: 64b1 323e de68 44bd 6ac0 083d 91e2 833c
00000200: 2e44 94be dc1e c3bc f020 9ebe 0719 00bd
00000210: 5261 d13c cb8b 00be 651a 893d ab7b 8bbd
00000220: 7e1c 93bd bae2 a9bd e1ef cebd 4cbc 303c
00000230: 5822 a73d 1f94 e0bd dab5 82bd 98aa f3bc
00000240: a966 b43d 81fd a33c 9ea3 993d dc2d 35be
00000250: 8d73 233e b954 1fbd f8b2 9d3d 8a84 47be
00000260: 0b84 373e 5403 9d3d b7a4 1cbe 824b 2b3d
00000270: 4357 8b3c 3420 043e 2d6c 40bd d24b e93d
00000280: bdd7 acbd 2ffd 933d faa9 5abd ea6e af3d
00000290: 84bb 15bd 2a3a dbbd a763 b73d 41d4 44bd
000002a0: 1133 ddbd e7e2 273b 4136 613e d471 73be
000002b0: c3a8 13be a506 033e b137 aabc 1f33 97bd
000002c0: d372 30be 80e7 99bd 2cc9 b8be a676 03bc
000002d0: 0694 b0bd 1122 90be 4c34 943c 116e a23e
000002e0: 27f1 5abe 20c4 54bc 3413 ce3d 3ac3 d03d
000002f0: 604e ec3c 0639 523e a174 2f3e a0d2 e13d
00000300: 8a8a 10bd 9504 823d 7137 7f3d ace8 6dbc
00000310: 9996 843d 032a 663d 4ecb 0fbe 1352 6cbe
00000320: 269a fb3d 90dd 593e 4c15 5b3e 29e9 8ebd
00000330: 72a8 153c 1908 ae3d 9609 f1bd 96f4 fa3d
00000340: 1538 253e c01f aabc 949d e4bc d7db 08be
00000350: 5336 b33d 334b 223e f3f3 e13e c411 55bc
00000360: 910c 853d cca4 b63e 751e 3fbd bf08 72bd
00000370: e0ff 1b3e 27da 42be 5a15 6abd 222f b73c
00000380: 610c aebd 07da b8bd cac4 373d b140 913d
00000390: 2849 763c bfdc 93bd 2f49 863d 7b0f 2c3e
000003a0: 9c84 a43d 563a fc3b 3d9f a33d 5482 273e
000003b0: 759e 18be 1721 86bd 8106 c2bd 9e5c 0fbe
000003c0: 9391 1fbe dd0b 76be 4a82 4b3e 7d08 d53e
000003d0: 08fd 23be 2e1a 163c 4d44 eebd d5a5 f1bb
000003e0: 80fc e9bc c67d 28be 0f2c 9b3d a578 663e
000003f0: 6cc0 a03d e278 5dbd af1d 08be b1e3 9c3c

bias f4 [7]
-0.55942065 0.12796398 0.31386864 0.0050433455 0.57941264 0.21474591 -0.35104468
00000000: 3136 0fbf fd08 033e 64b3 a03e a642 a53b
00000010: 6354 143f 5ae6 5b3e 21bc b3be
