weird_parameters.pt (torch, 14997 bytes, 10 tensors)

weight f4 [20, 43]
-0.08168019 -0.113160126 0.14646843 -0.084104516 0.10881313 -0.036127105 -0.09090442 0.14978354
0.10270364 -0.2078059 -0.1255651 0.083783194 0.14844719 0.026631024 -0.050006058 0.21607757
-0.118402794 -0.36618286 -0.039813384 0.11689719 0.05915065 -0.1107301 -0.57700074 0.34811753
0.41439876 0.29644197 -0.1505923 0.07262704 0.11049193 -0.10621504 -0.8293014 -0.4306913
0.5911496 -0.36160207 0.41506982 0.6647021 0.07131875 -0.5726207 0.13584945 0.5372426
0.5338019 -0.35131106 0.060319234 -0.23682946 0.52217513 -0.10462362 -0.22867404 0.4948257
-0.1685373 0.26909983 -0.07623221 -0.11422622 0.2042224 0.1448054 -0.38125628 -0.18334575
-0.28335488 0.24615897 -0.21442002 0.031504273 0.36471114 -0.5227513 0.83094496 0.09723719
-1.0177252 0.33955875 -0.44059846 0.24436867 1.0193496 0.5197025 -0.61269027 -0.51805276
-0.06075879 -0.2339937 1.5284756 -0.8544458 -0.7099909 -0.27887893 0.21110561 1.9093735
0.29908952 -0.22555782 -1.2913443 0.011284366 -0.9833692 0.13657951 0.09006751 -0.090987004
0.043864183 0.04906005 -0.1467009 -0.11924579 -0.13953438 0.022265209 0.13685916 0.1085213
-0.06985405 0.37855157 0.31989485 0.021986062 0.053283706 -0.18326016 -0.634513 0.41333422
-0.5310275 0.26518324 -0.14698565 -0.089395076 0.052885756 0.1492805 0.2819381 -0.23003528
0.4103994 0.30131912 -0.20826262 -0.2030446 -0.24524984 -0.4884804 0.086884364 0.45304453
-0.07768887 -0.34651095 0.107250296 1.4132453 0.24332583 -0.26727575 -1.0772407 0.5661217
-0.05998229 -0.096519895 -0.099012986 -0.028873986 -0.09981812 -0.1520303 -0.35773033 0.14734651
-0.16840217 0.19991016 0.096777044 0.18341826 0.185744 0.0014404181 -0.09297091 -0.19149904
-0.0077897697 0.18337338 -0.3740517 -0.24732833 0.36450762 0.23455907 0.3211966 -0.65318656
0.05090864 0.01491132 0.30780855 -0.10006069 0.058957953 0.011640626 0.35818493 0.24335116
-0.19824566 0.2932138 -0.06908914 0.304019 0.27378535 -7.192269e-05 0.09899811 -0.40769175
0.11613596 0.15844688 0.0029684566 -0.017986003 0.029568594 -0.09600837 0.15282603 -0.09747205
0.18046445 0.008057508 0.0623441 0.031769373 0.21935585 -0.09375126 -0.031012964 0.01115548
0.07490185 0.06744674 0.10048572 -0.04370507 0.052618533 -0.34412408 0.11751715 -0.14987978
-0.18405113 -0.05983074 0.198832 0.25517112 0.19587919 0.099926025 0.03244982 0.14756183
-0.0031335433 0.6329616 0.11504068 0.04263245 -0.81085646 -0.41741368 0.078464024 -0.17959753
0.31340513 0.53729534 -0.42752305 0.05963174 -0.5040544 0.11080719 0.029482735 0.112843566
-0.18467139 -0.49114126 -0.13756722 0.18240012 -0.012060338 0.09228041 0.16872816 -0.1645809
0.40789777 0.3041184 0.35886183 0.15209018 -0.09123573 -0.054004956 -0.1493613 -0.20910765
0.387728 -0.32751533 -0.11588072 0.01456317 -0.20203976 0.70763296 -0.47118667 0.23259354
0.3162297 -0.2986258 0.28488564 -0.3968734 -0.029144097 -0.42692 -0.117170885 0.14466219
0.44599086 -0.44191703 0.56646323 -0.08526144 0.77442604 0.2168046 0.011186916 -1.0597242
00000000: f247 a7bd 7fc0 e7bd d2fb 153e fd3e acbd
00000010: 6bd9 de3d 04fa 13bd 192c babd db60 193e
00000020: 4956 d23d 12cb 54be 2394 00be 8696 ab3d
00000030: 8a02 183e 4e29 da3c 27d3 4cbd 7043 5d3e
00000040: 2a7d f2bd 527c bbbe 5c13 23bd cb67 ef3d
00000050: f447 723d 76c6 e2bd 52b6 13bf 763c b23e
00000060: 132c d43e 3ec7 973e de34 1abe 7cbd 943d
00000070: 9849 e23d 4587 d9bd 194d 54bf 9283 dcbe
00000080: 9555 173f e823 b9be 0884 d43e eb29 2a3f
00000090: 910f 923d 4597 12bf 1e1c 0b3e bb88 093f
000000a0: 3ea7 083f 0bdf b3be 4d11 773d 6c83 72be
000000b0: 45ad 053f e944 d6bd 8729 6abe cb59 fd3e
000000c0: 0b95 2cbe 74c7 893e a21f 9cbd 70ef e9bd
000000d0: ad1f 513e de47 143e 0634 c3be fdbe 3bbe
000000e0: e413 91be 1911 7c3e ec90 5bbe a00a 013d
000000f0: 6bbb ba3e 07d3 05bf cfb8 543f 4b24 c73d
00000100: d244 82bf a5da ad3e 1f96 e1be c83b 7a3e
00000110: 0c7a 823f 390b 053f 45d9 1cbf 1b9f 04bf
00000120: 35de 78bd 0b9c 6fbe 17a5 c33f f6bc 5abf
00000130: f7c1 35bf 38c9 8ebe 122c 583e 5a66 f43f
00000140: 4322 993e a1f8 66be c54a a5bf 10e2 383c
00000150: 15be 7bbf 80db 0b3e 5175 b83d 6557 babd
00000160: eeaa 333d 31f3 483d c338 16be 2337 f4bd
00000170: 1ae2 0ebe 8765 b63c cf24 0c3e 6a40 de3d
00000180: a40f 8fbd 83d1 c13e 42c9 a33e 1d1c b43c
00000190: 0440 5a3d 8da8 3bbe 726f 22bf 8ba0 d33e
000001a0: 6bf1 07bf 19c6 873e 6883 16be c414 b7bd
000001b0: bc9e 583d fddc 183e 315a 903e 5e8e 6bbe
000001c0: df1f d23e 8046 9a3e cc42 55be ecea 4fbe
000001d0: c622 7bbe 1a1a fabe 6ef0 b13d 74f5 e73e
000001e0: 581b 9fbd e269 b1be 0ba6 db3d 39e5 b43f
000001f0: 682a 793e 5ed8 88be 06e3 89bf 5aed 103f
00000200: fdaf 75bd 39ac c5bd 52c7 cabd 2389 ecbc
00000210: 716d ccbd d5ad 1bbe 6e28 b7be 01e2 163e
00000220: 9e71 2cbe 40b5 4c3e 0b33 c63d ffd1 3b3e
00000230: ad33 3e3e 69cc bc3a 8867 bebd 5318 44be
00000240: 5341 ffbb 3bc6 3b3e b483 bfbe a343 7dbe
00000250: bea0 ba3e 4130 703e e173 a43e 3c37 27bf
00000260: 9485 503d 9c4e 743c 1599 9d3e 9eec ccbd
00000270: e57d 713d 53b8 3e3c 0464 b73e 0c31 793e
00000280: e900 4bbe 1f20 963e 9b7e 8dbd 61a8 9b3e
00000290: 982d 8c3e 33d5 96b8 85bf ca3d f9bc d0be
000002a0: b1d8 ed3d e63f 223e 708a 423b 6257 93bc
000002b0: d639 f23c 09a0 c4bd 6d7e 1c3e 6d9f c7bd
000002c0: accb 383e a303 043c 875c 7f3d 9a20 023d
000002d0: d29e 603e a900 c0bd e60e febc 79c5 363c
000002e0: 2466 993d 8421 8a3d 75cb cd3d 1604 33bd
000002f0: 8886 573d 0831 b0be d5ac f03d 167a 19be
00000300: e677 3cbe 1411 75bd 9e9a 4b3e caa5 823e
00000310: 8e94 483e 04a6 cc3d 1aea 043d 731a 173e
00000320: 225c 4dbb c509 223f 739a eb3d 5d9f 2e3d
00000330: 4a94 4fbf 3fb7 d5be bfb1 a03d 6ae8 37be
00000340: a376 a03e 308c 093f 4de4 dabe 6940 743d
00000350: b609 01bf e1ee e23d c785 f13c 871a e73d
00000360: 7f1a 3dbe de76 fbbe 6cde 0cbe 19c7 3a3e
00000370: b998 45bc 83fd bc3d 13c7 2c3e e587 28be
00000380: fad7 d03e 68b5 9b3e bdbc b73e 87bd 1b3e
00000390: ccd9 babd 4d34 5dbd 2bf2 18be 5120 56be
000003a0: 4984 c63e 17b0 a7be df52 edbd 5d9a 6e3c
000003b0: 83e3 4ebe 6f27 353f 613f f1be 002d 6e3e
000003c0: dce8 a13e 7be5 98be 88dc 913e fe32 cbbe
000003d0: 9abf eebc 4295 dabe 4af7 efbd 5322 143e
000003e0: ea58 e43e f342 e2be bc03 113f 8d9d aebd
000003f0: c940 463f 0602 5e3e 5449 373c 0ba5 87bf

bias f4 [20]
0.27467993 0.26484683 0.11400616 -0.5220102 -0.057569325 -0.22700827 -0.6894823 -0.2342622
-0.19404231 0.0018005528 -0.38741082 -0.1414709 0.47641194 -0.29614124 0.8486129 -0.59559846
0.3665714 0.3792335 -0.62942314 -0.6459712
00000000: d9a2 8c3e 019a 873e 107c e93d 76a2 05bf
00000010: d0cd 6bbd db74 68be e981 30bf 6ee2 6fbe
00000020: 07b3 46be 8700 ec3a b65a c6be bfdd 10be
00000030: 44ec f33e d39f 97be b23e 593f 2479 18bf
00000040: 3faf bb3e e52a c23e e021 21bf 5e5e 25bf

weight f4 [20, 20]
-0.13140337 -0.41646597 -0.18227594 -0.3383523 -0.0042528287 -0.10098529 -0.32377154 -0.019398645
0.20232849 -0.2621129 0.2014482 0.12056917 -0.0805478 -0.27427924 -0.053292733 0.023598224
-0.32927528 0.018151168 0.10966581 -0.04188743 -0.37089843 -1.7554464 0.08710993 -0.19572523
-0.10180343 -0.4659592 0.06719558 -0.035628904 -0.16585588 -0.024681153 0.050495163 -0.11121265
0.15006176 0.25699192 -0.21052012 -0.2809479 -0.8212487 -0.15253018 -0.62387866 0.2640265
-0.08810378 -0.09893894 0.017111275 0.029951816 -0.24633718 -0.08277791 -0.1048583 -0.035618626
-0.0077863634 0.012165526 -0.046762846 -0.05421229 -0.029445032 0.038679525 -0.072240464 -0.22883518
0.14319924 -0.0180117 0.076405264 -0.26246148 -0.18340321 -0.10671709 -0.07131341 -0.072291136
0.15140036 -0.068476796 -0.19028944 -0.008806858 -0.11487819 0.1410053 -0.21645722 0.17933317
0.1136509 0.012531926 -0.13618791 -0.05489713 -0.18571077 -0.15517558 -0.20661516 0.18075778
-0.04961665 -0.35639167 -0.26970923 0.058039356 -0.14342338 -0.012563724 -0.23447055 -0.17286396
-0.15517052 -0.21778046 -0.20875324 -0.22599053 -0.04792478 0.15300207 -0.22478144 0.060190447
-0.1101916 -0.171073 -0.1303116 0.13992165 -0.04784864 -0.16397487 -0.115663186 -0.15526484
-0.047521576 -0.0475547 0.02592789 -0.051750842 0.039421417 -0.22960575 -0.2105616 -0.08645356
0.13667874 -0.09412764 -0.29500183 0.07563635 -0.16061817 -0.058512334 -0.082488164 -0.06977449
-0.053743277 -0.5737228 -0.18806052 -0.41170055 0.22017996 -0.27724707 0.024188422 -0.26573905
0.02750075 -0.06845137 -0.1432608 0.07841086 -0.39390627 0.08776243 -0.083243944 0.015144107
-0.034763526 -0.35338616 -0.49698654 0.2943391 -0.67610276 1.0937685 -0.50011766 -0.30244005
-0.14729889 -0.16324127 -0.20542504 -0.19625074 0.02470067 -0.41229013 0.26729822 -1.0372969
-0.9566503 1.0027893 -0.1484631 0.04085567 1.1782774 -0.06508961 -0.15966208 -0.52286005
0.84474826 -0.65762436 -0.10140591 0.21409078 -0.52324486 -0.1099455 -0.0623283 0.38227725
0.038002167 0.029132115 0.1497307 1.4865055 1.2229804 -0.0960182 1.1624717 -0.4998985
-0.8224333 0.54881674 0.24961351 0.19940683 -0.12318918 -0.9580928 0.030735752 -0.056445308
0.049627632 -0.1554106 0.010763364 -0.08199333 -0.02057429 0.093259454 0.17253442 -0.2928965
0.13137692 0.14298639 0.036424465 -0.26229805 -0.43589315 -0.28264162 -0.17282587 0.071612984
-0.13707082 -0.16855057 0.19596118 -0.14598027 -0.11934022 -0.019643862 0.026429117 0.23010775
0.05349086 -0.22440614 -0.12131361 -0.18162522 0.133631 0.13381422 -0.20194997 0.062339135
-0.051772576 -0.036523536 -0.18769184 -0.084138855 -0.113290116 -0.12690382 0.023149408 -0.20054597
0.08648367 -0.15275875 0.13499683 -0.22623214 -0.22201832 0.13968688 -0.2330508 -0.0643193
-0.21634255 0.12463149 -0.1511341 -0.05112319 -0.10612572 0.013012407 -0.047166005 -0.20047283
-0.10568033 -0.23086388 -0.2025336 0.0813026 -0.030723868 -0.13958144 -0.061927807 0.028600436
-0.017196454 -0.1676504 -0.14385906 0.0976356 -0.1911677 -0.24890423 -0.07787887 0.22957791
00000000: 9b8e 06be 073b d5be 8ba6 3abe 833c adbe
00000010: 505b 8bbb 60d1 cebd 62c5 a5be e8e9 9ebc
00000020: 332f 4f3e a933 86be 7048 4e3e f8ec f63d
00000030: 3ff6 a4bd 546e 8cbe 7b49 5abd 1051 c13c
00000040: c596 a8be c2b1 943c 7898 e03d 2792 2bbd
00000050: 66e6 bdbe 78b2 e0bf b166 b23d 326c 48be
00000060: 517e d0bd 3492 eebe d69d 893d 9def 11bd
00000070: 20d6 29be 2130 cabc 04d4 4e3d 75c3 e3bd
00000080: caa9 193e 7294 833e 9692 57be 67d8 8fbe
00000090: 5b3d 52bf df30 1cbe 83b6 1fbf 7b2e 873e
000000a0: c16f b4bd 80a0 cabd f22c 8c3c 835d f53c
000000b0: d03f 7cbe 7787 a9bd f3bf d6bd d6e4 11bd
000000c0: c024 ffbb ea51 473c 668a 3fbd b50d 5ebd
000000d0: b536 f1bc 6c6e 1e3d cff2 93bd c553 6abe
000000e0: d2a2 123e 468d 93bc 5d7a 9c3d 5a61 86be
000000f0: 0dce 3bbe 7d8e dabd c40c 92bd 600d 94bd
00000100: b208 1b3e 903d 8cbd 3cdb 42be a44a 10bc
00000110: 4245 ebbd b263 103e f6a6 5dbe 1da3 373e
00000120: cec1 e83d b552 4d3c d874 0bbe d0db 60bd
00000130: f72a 3ebe 59e6 1ebe ed92 53be 9118 393e
00000140: d43a 4bbd f878 b6be 5417 8abe adba 6d3d
00000150: 94dd 12be 14d8 4dbc 0c19 70be 4003 31be
00000160: 05e5 1ebe d701 5fbe 69c3 55be 106a 67be
00000170: c64c 44bd 93ac 1c3e 1b2d 66be 428a 763d
00000180: 22ac e1bd c32d 2fbe 6770 05be 9f47 0f3e
00000190: effc 43bd 07e9 27be d2e0 ecbd bffd 1ebe
000001a0: fca5 42bd b8c8 42bd ba66 d43c b1f8 53bd
000001b0: 5a78 213d c51d 6bbe 769d 57be 900e b1bd
000001c0: 83f5 0b3e fec5 c0bd 7b0a 97be 3be7 9a3d
000001d0: 1779 24be a1aa 6fbd 8eef a8bd eee5 8ebd
000001e0: e921 5cbd 7fdf 12bf f092 40be 6aca d2be
000001f0: db76 613e 54f3 8dbe cc26 c63c f30e 88be
00000200: 4149 e13c 3b30 8cbd f6b2 12be df95 a03d
00000210: 15ae c9be cabc b33d cd7b aabd fd1e 783c
00000220: 3364 0ebd 08ef b4be 0575 febe 9db3 963e
00000230: 1215 2dbf 9b00 8c3f b607 00bf 6cd9 9abe
00000240: 85d5 16be b828 27be f15a 52be f4f5 48be
00000250: 0f59 ca3c b117 d3be 50db 883e 25c6 84bf
00000260: 09e7 74bf 665b 803f b606 18be 4658 273d
00000270: cbd1 963f b44d 85bd 757e 23be 28da 05bf
00000280: 6c41 583f 125a 28bf e7ad cfbd 9d3a 5b3e
00000290: 60f3 05bf 1b2b e1bd f64b 7fbd d8b9 c33e
000002a0: 29a8 1b3d 79a6 ee3c 0153 193e d045 be3f
000002b0: 9f8a 9c3f 31a5 c4bd dfcb 943f b2f2 ffbe
000002c0: fd8a 52bf 417f 0c3f af9a 7f3e 4e31 4c3e
000002d0: 9c4a fcbd 9245 75bf 8bc9 fb3c 3233 67bd
000002e0: 5846 4b3d f523 1fbe d258 303c 1eec a7bd
000002f0: 6a8b a8bc d0fe be3d ddac 303e 88f6 95be
00000300: ac87 063e 066b 123e d231 153d ee4b 86be
00000310: 632d dfbe 67b6 90be 44f9 30be d4a9 923d
00000320: 4b5c 0cbe 8598 2cbe 0caa 483e da7b 15be
00000330: a568 f4bd 2aec a0bc e081 d83c 5ea1 6b3e
00000340: 3b19 5b3d b9ca 65be 4573 f8bd f6fb 39be
00000350: 91d6 083e 9806 093e f9cb 4ebe 5257 7f3d
00000360: 7b0f 54bd b499 15bd 4a32 40be fe50 acbd
00000370: a604 e8bd 13f3 01be d4a3 bd3c ec5b 4dbe
00000380: 5a1e b13d ca6c 1cbe 9c3c 0a3e 66a9 67be
00000390: c558 63be 140a 0f3e dea4 6ebe d6b9 83bd
000003a0: e788 5dbe cb3e ff3d e6c2 1abe 8d66 51bd
000003b0: 7158 d9bd fe31 553c 2431 41bd c048 4dbe
000003c0: ee6e d8bd 9567 6cbe f864 4fbe fa81 a63d
000003d0: 9fb0 fbbc 70ee 0ebe 03a8 7dbd 764b ea3c
000003e0: 94df 8cbc 8cac 2bbe ca4f 13be 2cf5 c73d
000003f0: 77c1 43be c0e0 7ebe f57e 9fbd 7916 6b3e

bias f4 [20]
-0.092955284 -0.21227469 0.024402251 -0.18799093 0.030413108 -0.106111586 -0.21890189 0.22529295
0.2663764 -0.2446713 -0.1469484 -0.12671484 -0.12985559 -0.18853629 -0.058987986 -0.02575487
-0.23323062 0.08724441 0.6394123 -0.56084627
00000000: 575f bebd 895e 59be 3be7 c73c b280 40be
00000010: e924 f93c 0851 d9bd d127 60be 32b3 663e
00000020: 7d62 883e 1d8b 7abe a479 16be 89c1 01be
00000030: ddf8 04be a80f 41be 639d 71bd e1fb d2bc
00000040: 02d4 6ebe 32ad b23d 86b0 233f 9f93 0fbf

weight f4 [20, 20]
0.14509657 -0.02054837 0.03553994 -0.21881543 -0.1356651 0.17538561 0.010043877 -0.21677518
-0.102486774 -0.0020635482 0.19381253 -0.045907125 -0.10739675 -0.073832825 0.19507363 -0.21850443
-0.16432078 0.017415803 -0.19520694 -0.20756793 -0.26147324 -0.12678112 -0.051745154 -0.12186615
0.108841784 0.10803624 -0.18716945 -0.17810751 -0.12932184 0.19173817 -0.030356385 -0.12801193
-0.02190631 -0.09161797 -0.035785664 -0.031285785 0.24767232 -0.111657806 -0.18171012 0.26823616
0.0016426962 -0.098354466 0.062036414 0.11001577 -0.20304827 -0.07594814 -0.41855976 0.94419956
-0.56060874 -0.17008255 0.21612917 0.050388828 -0.038453296 -0.024406642 -0.10108379 -0.0655781
-0.06294957 0.09099215 -0.40134922 -0.17698698 0.14750972 0.61228395 0.13500822 -0.23668922
-0.17455633 0.17458194 0.1698232 -0.15992275 -0.14450248 0.3992917 0.1792585 -0.18496887
-0.17924814 0.032795385 0.05269961 0.16658105 0.0043229396 -0.16094038 -0.68776435 0.016781533
-0.20686549 -0.50083673 -0.111574896 -0.07478798 -0.0046804952 -0.020312965 -0.026594598 -0.08049403
-0.1556463 0.10390506 0.15192918 0.049187534 -0.10262553 -0.046340097 -0.052196868 -0.15211196
0.071998656 -0.03352294 -0.022368286 -0.10676124 -0.14705004 -0.36684397 0.05007575 -0.10164918
-0.17502615 0.09750823 -0.13731219 -0.42720014 -0.3726912 -0.0053090723 0.16565384 0.12369786
0.056796953 0.1271321 0.081981644 -0.08529173 -0.3656599 0.27702886 -0.62733537 -0.17632228
0.24745567 -0.56700027 -0.06620385 0.0836235 0.24591719 0.21872567 0.021026298 -0.3026033
-0.1767307 -0.36319304 -0.17153597 -0.18573919 -0.09488667 -0.1479637 0.12534942 0.19397749
0.21762155 -0.25397855 -0.7493712 0.287643 0.23312181 -0.22649455 -0.0065111923 0.13309859
0.13494216 0.010814321 -0.023387475 0.775649 -0.55804604 -0.026836634 -0.07578612 0.15085982
0.098063625 0.1860328 0.051305145 -0.12919626 0.16172744 -0.3271192 -0.12991023 -0.084364004
-0.15392062 -0.12830088 -0.022483548 0.093270734 0.16127676 -0.0919844 0.27616173 -0.17283826
-0.1854696 0.018922959 -0.030630764 0.22156745 -0.14621264 -0.12487092 0.08246627 -0.19571742
0.11125744 -0.06975692 0.0026408096 -0.05017364 -0.1585224 -0.21856683 0.151704 0.21711996
0.18024203 0.07937913 0.013205114 -0.17235258 -0.09149965 0.041478638 -0.11078777 -0.20145416
-0.021910947 -0.19526513 -0.042084277 -0.12411402 0.04759271 -0.21097842 0.008553996 -0.060342953
-0.028607143 0.52124184 0.19280823 -0.08290447 -0.07347276 -0.09758611 0.28657332 0.2550304
-1.2033547 0.22952563 0.13829654 0.027951209 -0.19597928 0.12018818 -0.2618959 0.16559814
-0.17163126 -0.7369584 -0.32964182 -0.22535554 0.123664126 -0.23187566 -0.1866545 0.08797088
-0.039221145 -0.259187 -0.020589303 0.19646072 -0.7800226 -0.04039073 0.18097465 0.033505753
-0.24780941 0.21417443 -0.4025814 -0.12985693 -0.1666985 -0.54873997 -0.42245522 -0.07416052
0.067889765 -0.19697358 -0.08343412 0.05941721 -0.048781432 0.08359283 -0.21570687 -0.11584588
-0.16351439 -0.14544322 0.18016137 0.18174425 -0.05419688 -0.019354288 0.033230044 0.037194684
00000000: 3294 143e 0e55 a8bc 5492 113d 2711 60be
00000010: cbeb 0abe 4998 333e 138f 243c 50fa 5dbe
00000020: 96e4 d1bd 983c 07bb cb76 463e 1c09 3cbd
00000030: d4f2 dbbd aa35 97bd 62c1 473e a0bf 5fbe
00000040: b543 28be 96ab 8e3c 54e4 47be b08c 54be
00000050: d2df 85be e9d2 01be baf2 53bd f694 f9bd
00000060: 71e8 de3d 1b42 dd3d 59a9 3fbe d161 36be
00000070: f26c 04be 0357 443e f4ad f8bc 8f15 03be
00000080: dd74 b3bc 34a2 bbbd fd93 12bd 8625 00bd
00000090: d09d 7d3e d9ac e4bd 3812 3abe 4056 893e
000000a0: bd4f d73a 116e c9bd e519 7e3d f34f e13d
000000b0: e3eb 4fbe b38a 9bbd 774d d6be 10b7 713f
000000c0: 0e84 0fbf 1f2a 2ebe f750 5d3e 8464 4e3d
000000d0: 3481 1dbd 70f0 c7bc 0505 cfbd d04d 86bd
000000e0: b4eb 80bd 185a ba3d a57d cdbe 133c 35be
000000f0: ca0c 173e a4be 1c3f 983f 0a3e a95e 72be
00000100: e5be 32be 9cc5 323e 22e6 2d3e cac2 23be
00000110: 75f8 13be f66f cc3e 8a8f 373e 7b68 3dbe
00000120: d38c 37be 7454 063d 8cdb 573d 3994 2a3e
00000130: 72a7 8d3b 8ecd 24be 5311 30bf 6d79 893c
00000140: 8cd4 53be d636 00bf 6181 e4bd 712a 99bd
00000150: d75e 99bb 6067 a6bc eadc d9bc 0eda a4bd
00000160: be61 1fbe 2dcc d43d 5393 1b3e de78 493d
00000170: 552d d2bd 1dcf 3dbd 62cc 55bd 3dc3 1bbe
00000180: 0874 933d 5a4f 09bd b23d b7bc a3a5 dabd
00000190: 4994 16be f9d2 bbbe 3b1c 4d3d 722d d0bd
000001a0: 0e3a 33be 65b2 c73d 919b 0cbe fab9 dabe
000001b0: 62d1 bebe baf7 adbb 29a1 293e 4e55 fd3d
000001c0: eca3 683d eb2e 023e fee5 a73d 6ead aebd
000001d0: c637 bbbe bad6 8d3e 0d99 20bf d48d 34be
000001e0: 0565 7d3e ee26 11bf e295 87bd cc42 ab3d
000001f0: b7d1 7b3e 9ff9 5f3e 583f ac3c d2ee 9abe
00000200: e5f8 34be 70f4 b9be 20a7 2fbe 6a32 3ebe
00000210: f153 c2bd cc83 17be 995b 003e 09a2 463e
00000220: 2fd8 5e3e 7a09 82be cad6 3fbf f145 933e
00000230: 7cb7 6e3e 30ee 67be d75b d5bb ff4a 083e
00000240: 472e 0a3e 8d2e 313c 1797 bfbc ef90 463f
00000250: 1bdc 0ebf 80d8 dbbc c135 9bbd ff7a 1a3e
00000260: 95d5 c83d 627f 3e3e 5825 523d 064c 04be
00000270: e19b 253e 2b7c a7be 3007 05be 09c7 acbd
00000280: 5e9d 1dbe 4e61 03be 6b2f b8bc ba04 bf3d
00000290: bc25 253e 5162 bcbd 1265 8d3e 83fc 30be
000002a0: beeb 3dbe 5204 9b3c 5eed fabc 94e2 623e
000002b0: c4b8 15be 53bc ffbd 13e4 a83d 266a 48be
000002c0: f1da e33d b7dc 8ebd 6f11 2d3b e082 4dbd
000002d0: b253 22be fccf 5fbe 4b58 1b3e b254 5e3e
000002e0: 5e91 383e 8691 a23d 435a 583c 327d 30be
000002f0: 2b64 bbbd 81e5 293d b3e4 e2bd 004a 4ebe
00000300: 967e b3bc 95f3 47be 9060 2cbd 7e2f febd
00000310: 93f0 423d ba0a 58be 0f26 0c3c 2c2a 77bd
00000320: 8759 eabc 1b70 053f 856f 453e d2c9 a9bd
00000330: e378 96bd 3adb c7bd bdb9 923e 5893 823e
00000340: 8707 9abf c408 6b3e 9c9d 0d3e eff9 e43c
00000350: cbae 48be 3825 f63d 3817 86be 8f92 293e
00000360: 1bc0 2fbe 4ea9 3cbf d0c6 a8be 9ac3 66be
00000370: 9e43 fd3d d070 6dbe 5b22 3fbe 142a b43d
00000380: 5aa6 20bd 29b4 84be e6aa a8bc 002d 493e
00000390: 90af 47bf c070 25bd 6b51 393e 543d 093d
000003a0: c0c1 7dbe 8b50 5b3e 261f cebe 37f9 04be
000003b0: 03b3 2abe 397a 0cbf 0d4c d8be 79e1 97bd
000003c0: ca09 8b3d 71b3 49be 82df aabd 765f 733d
000003d0: 0acf 47bd b832 ab3d 43e2 5cbe 9b40 edbd
000003e0: 5170 27be 11ef 14be 397c 383e 2a1b 3a3e
000003f0: 8cfd 5dbd e28c 9ebc 3a1c 083d 7459 183d

bias f4 [20]
-0.16978373 -0.09570583 0.13731533 -0.7668434 -0.046006687 0.6547522 -0.43506303 0.34191874
-0.13866183 -0.15485626 -0.0115613155 0.035875853 -0.188244 -0.13795762 -0.26507258 -0.27854276
-0.2722319 -0.02861468 -0.12526256 -0.10595183
00000000: c9db 2dbe 6b01 c4bd 649c 0c3e d94f 44bf
00000010: 8271 3cbd d79d 273f 95c0 debe f90f af3e
00000020: 5efd 0dbe a492 1ebe ac6b 3dbc 8ff2 123d
00000030: 09c3 40be c344 0dbe 98b7 87be 289d 8ebe
00000040: fb61 8bbe 5569 eabc d444 00be 46fd d8bd

weight f4 [20, 20]
0.14600945 -0.024771618 -0.02838132 -0.15463595 0.14145178 -0.20531149 -0.024656989 -0.040517934
0.1377274 -0.12140967 -0.32106 -0.14837538 -0.035532847 0.017973663 -0.11873975 -0.09304318
0.08080201 0.014073641 -0.1713696 0.0753077 -0.064857155 -0.12737386 -0.09826918 -0.24761344
0.043534305 0.0036159374 -0.15513518 -0.012814343 0.09295009 0.020715078 -0.11064218 -0.09557623
0.02432027 0.12980834 -0.19327857 -0.2225692 0.09732364 -0.049183574 -0.011893674 0.18255661
-0.06666318 -0.22543548 -0.011328211 -0.06464183 -0.018894678 -0.2804203 -0.08136643 0.062344164
-0.029929403 -0.025520131 -0.084197655 0.068542734 -0.05523671 0.024271106 0.024071634 -0.12901857
0.24926938 -0.22568706 -0.12136709 0.12793197 -0.007892663 0.0657989 -0.41248557 -0.16038404
0.1782365 0.28042805 -0.09929561 -0.40360862 -0.013532984 0.19148983 -0.028704748 -0.20194045
-0.16270497 -0.12808314 0.00500855 -0.016867628 0.09385966 -0.100808375 0.05942537 -0.18963094
-0.026239693 -0.14550094 -0.13168558 0.015390254 -0.1134162 -0.110254206 -0.0506698 -0.010030349
0.0087708235 -0.04658223 -0.0041000675 -0.103867434 0.035602428 0.074300215 0.11734585 -0.23036061
0.08999724 -0.0053226887 -0.08447363 -0.09906163 -0.17872974 -0.03635936 -0.073103234 -0.30493462
0.010163198 -0.28059846 -0.23499046 -0.31366563 -0.1642243 -0.1930398 -0.1408016 -0.11091312
0.07150753 -0.08499771 -0.10225147 -0.23967628 0.005876733 -0.38580436 -0.12537794 0.016311532
-0.020437988 0.14436918 -0.14768028 -0.1850738 -0.21685073 0.06076478 -0.16328566 -0.08981334
-0.08562591 -0.05611244 -0.0897428 0.28910196 -0.2061846 0.10202465 -0.008377025 -0.005967118
-0.0063604317 -0.2191558 -0.16970776 0.04612403 0.20351216 -0.17737165 0.11750384 -0.56919485
-0.18090102 0.02411013 -0.56138474 0.100398205 -0.039994515 0.027801137 -0.47079894 -0.3921248
-0.050761238 -0.10222551 0.012659965 0.06383901 -0.37734854 -0.5889086 -0.15019467 -0.13626066
-0.117401265 -0.0014126304 0.009281447 -0.14282416 -0.25721458 -0.7095506 -0.30586016 -0.09141793
-0.09852962 0.1289967 -0.5793843 -0.33297238 0.00082426844 -0.15993644 -0.14869137 -0.12317973
-0.058359023 -0.9874776 -0.09235403 0.10386741 -0.21883012 0.1704301 -0.2217744 -0.09905738
-0.07194028 -0.020542918 -0.1677204 -0.23836203 -0.019686757 -0.13022098 -0.16178848 0.0045538316
0.19374478 -0.1916179 0.03620477 0.06715714 -0.28207052 -0.043319575 -0.0068691336 0.112987176
0.14688618 -0.133125 -0.25054643 -0.26071084 -0.09584712 -0.21565089 -0.24396476 -0.26569787
0.13073997 0.027114345 -0.16537508 -0.24076428 -0.07559348 -0.1790815 -0.1656313 -0.07675851
-0.17560172 -0.33119768 -0.24922192 -0.048790205 -0.014637587 -0.078110166 -0.36931366 -0.036460556
-0.21597813 -0.25503215 -0.15449576 0.04523329 -0.07512245 0.1090159 0.009309213 0.20294978
0.15136333 0.030423513 -0.111932755 -0.043385327 -0.022350594 -0.41578308 -0.19422199 0.019645598
-0.15751408 0.062264383 -0.08098758 0.006765971 -0.0028466035 -0.08244526 -0.17572531 0.027185148
0.0683868 0.07183559 -0.10151158 0.09971882 -0.1723766 -0.07133262 0.07701815 -0.1636577
00000000: 8083 153e d9ed cabc f17f e8bc e358 1ebe
00000010: bcd8 103e 2d3d 52be 74fd c9bc 22f6 25bd
00000020: 6908 0d3e a2a5 f8bd fa61 a4be b7ef 17be
00000030: e48a 11bd 813d 933c d32d f3bd 6c8d bebd
00000040: 867b a53d 2195 663c 837b 2fbe ec3a 9a3d
00000050: d4d3 84bd 4b6e 02be 5a41 c9bd 618e 7dbe
00000060: 0751 323d 5df9 6c3b c2db 1ebe 40f3 51bc
00000070: 9e5c be3d abb2 a93c 5e98 e2bd 78bd c3bd
00000080: 4e3b c73c 7aec 043e d1ea 45be 2ee9 63be
00000090: 9e51 c73d b774 49bd afdd 42bc 1ff0 3a3e
000000a0: b586 88bd 8fd8 66be f699 39bc f062 84bd
000000b0: 03c9 9abc 4093 8fbe 71a3 a6bd 985c 7f3d
000000c0: 822e f5bc 980f d1bc d26f acbd 2260 8c3d
000000d0: e33f 62bd 33d4 c63c e031 c53c 721d 04be
000000e0: 7940 7f3e 821a 67be 4f8f f8bd 9900 033e
000000f0: 3a50 01bc 93c1 863d 4f31 d3be b73b 24be
00000100: a183 363e 4494 8f3e 7f5b cbbd caa5 cebe
00000110: 73b9 5dbc e915 443e 3826 ebbc 7ac9 4ebe
00000120: 229c 26be 3a28 03be c31e a43b fb2d 8abc
00000130: 7e39 c03d 9f74 cebd 0468 733d 9d2e 42be
00000140: a0f4 d6bc 33fe 14be 96d8 06be 6727 7c3c
00000150: c146 e8bd f5cc e1bd 238b 4fbd 5556 24bc
00000160: 80b3 0f3c 02cd 3ebd dc59 86bb 73b8 d4bd
00000170: dad3 113d b62a 983d 0553 f03d a7e3 6bbe
00000180: 7950 b83d f369 aebb 8300 adbd d3e0 cabd
00000190: ee04 37be 8ded 14bd 26b7 95bd 6420 9cbe
000001a0: 8b83 263c 9aaa 8fbe 57a1 70be c898 a0be
000001b0: 6a2a 28be 3aac 45be 4b2e 10be 6b26 e3bd
000001c0: 8a72 923d 4813 aebd 3869 d1bd b36d 75be
000001d0: 9c91 c03b 2688 c5be 1363 00be c39f 853c
000001e0: 916d a7bc 84d5 133e 8039 17be fc83 3dbe
000001f0: 1e0e 5ebe 7de4 783d 5b34 27be 0ef0 b7bd
00000200: a35c afbd 28d6 65bd 13cb b7bd 2c05 943e
00000210: 0e22 53be 4df2 d03d ca3f 09bc d087 c3bb
00000220: 2b6b d0bb 616a 60be dfc7 2dbe 8dec 3c3d
00000230: 7e65 503e eaa0 35be daa5 f03d c1b6 11bf
00000240: 1e3e 39be 9b82 c53c e9b6 0fbf 939d cd3d
00000250: 4ad1 23bd 36bf e33c 8f0c f1be 95c4 c8be
00000260: 04eb 4fbd 9c5b d1bd be6b 4f3c 07be 823d
00000270: d433 c1be b7c2 16bf a2cc 19be ea87 0bbe
00000280: 1370 f0bd 0328 b9ba 3611 183c 7f40 12be
00000290: a1b1 83be 1ca5 35bf b499 9cbe 5339 bbbd
000002a0: e6c9 c9bd b617 043e 8852 14bf 5b7b aabe
000002b0: b813 583a 61c6 23be 8d42 18be a745 fcbd
000002c0: df09 6fbd 55cb 7cbf 1c24 bdbd 70b8 d43d
000002d0: 0115 60be 3a85 2e3e d418 63be 98de cabd
000002e0: 6d55 93bd 9f49 a8bc e6be 2bbe 2d15 74be
000002f0: 1f46 a1bc a658 05be e1ab 25be 4f38 953b
00000300: 0865 463e 7c37 44be 744b 143d af89 893d
00000310: 8c6b 90be de6f 31bd 7816 e1bb d265 e73d
00000320: 5569 163e ec51 08be 9f47 80be e47b 85be
00000330: 7f4b c4bd 96d3 5cbe e6d1 79be 8d09 88be
00000340: b3e0 053e e71e de3c 1658 29be e98a 76be
00000350: c1d0 9abd 2461 37be 409b 29be 9133 9dbd
00000360: f0d0 33be be92 a9be 0834 7fbe 3dd8 47bd
00000370: 7dd2 6fbc 39f8 9fbd ae16 bdbe aa57 15bd
00000380: 5f29 5dbe 9393 82be 2334 1ebe 8b46 393d
00000390: cdd9 99bd ba43 df3d ab85 183c 11d2 4f3e
000003a0: fdfe 1a3e bb3a f93c 003d e5bd d0b4 31bd
000003b0: 9818 b7bc 85e1 d4be 21e2 46be ceef a03c
000003c0: 5f4b 21be f008 7f3d d1dc a5bd 14b5 dd3b
000003d0: 158e 3abb 0fd9 a8bd 56f1 33be 63b3 de3c
000003e0: 610e 8c3d 8a1e 933d 4ee5 cfbd 6139 cc3d
000003f0: 7e83 30be d616 92bd b1bb 9d3d e295 27be

bias f4 [20]
-0.6327724 -0.10133693 -0.49296302 0.367595 -0.22159955 0.31779352 -0.46479893 -0.04575086
-0.051930048 -0.09130319 -0.010061203 -0.0661727 -0.12628983 0.081871055 -0.056153644 -0.101100385
-0.38829398 -0.06973229 -0.22866961 0.728436
00000000: 5ffd 21bf bd89 cfbd a665 fcbe 6935 bc3e
00000010: feea 62be d5b5 a23e 20fa edbe 4165 3bbd
00000020: 9ab4 54bd 2bfd babd bed7 24bc 8d85 87bd
00000030: 1f52 01be 03ac a73d 5d01 66bd b80d cfbd
00000040: 78ce c6be cecf 8ebd 5e28 6abe c87a 3a3f

weight f4 [8, 20]
0.0130564235 -0.060195576 -0.16405866 0.061832175 -0.09046544 0.15903825 0.1817477 -0.036900748
-0.2067928 -0.19928738 0.0040570577 0.1036095 -0.12846723 0.13271035 -0.12618135 -0.26047847
0.22588788 -0.16119471 -0.022832517 -0.0059677926 -0.18683556 0.086282656 0.052651092 0.08903686
-0.058771435 -0.0098455185 0.10769001 -0.054591984 -0.004053731 -0.09340406 0.0041573783 0.1627675
0.10558146 0.18665338 -0.20495743 -0.07390011 -0.06565157 0.06451642 0.12497451 0.2281679
-0.0031407913 0.028337654 0.1170047 0.1543798 0.019825898 0.09072281 -0.101016164 -0.16262238
-0.0696513 0.16487688 -0.01689876 -0.36352652 0.055697344 0.105200775 -0.05912557 0.081406385
-0.20891888 -0.040433656 -0.032034107 -0.0050543705 -0.06407298 0.008897676 0.12401173 0.15922453
0.3676967 -0.025456954 -0.054478873 -0.2009932 0.07050854 -0.12198661 -0.04894013 0.047464997
0.13586843 0.11887078 -0.27393275 -0.07827614 -0.07883807 0.057043478 0.27654105 0.20382152
-0.03812573 -0.062702596 -0.0120908255 -0.29925743 0.0008729086 -0.05393095 0.22296931 -0.031970914
0.19651854 0.20181388 0.20800881 -0.33013228 -0.0430871 -0.012173777 -0.14162035 0.08453019
0.11315454 -0.08389416 0.14636862 0.0706316 0.06621796 0.14595193 0.058057114 -0.021703953
-0.038710654 -0.011358364 -0.007476215 -0.08931273 0.18465291 -0.21135505 0.15041506 0.109055154
-0.08372811 0.11797577 0.050825994 0.094192676 -0.20869333 0.14472763 0.09476114 -0.06897555
-0.06083104 0.117936544 0.018784301 -0.08815901 0.012868551 -0.24494089 0.020865066 -0.14682291
0.03529255 0.06413776 -0.10918342 0.006288665 0.0024550655 0.07578186 -0.11293817 -0.21381901
0.10864166 0.18506388 0.028796745 -0.24557824 0.013943112 0.08783639 0.27256444 -0.38649914
0.11808219 -0.29482993 0.1963187 0.06989111 -0.16471766 0.0126057565 -0.20805697 -0.10759499
0.09415925 -0.103499584 0.0007967798 0.12484353 0.06946416 0.10608504 -0.33950067 -0.75788957
00000000: 9cea 553c a38f 76bd fefe 27be bc43 7d3d
00000010: f245 b9bd ecda 223e 121c 3a3e 3d25 17bd
00000020: 7ec1 53be fe11 4cbe 11f1 843b 3831 d43d
00000030: ea8c 03be 39e5 073e af35 01be 6f5d 85be
00000040: 274f 673e 3a10 25be 420b bbbc 798d c3bb
00000050: d251 3fbe f6b4 b03d aca8 573d f558 b63d
00000060: 51ba 70bd 194f 21bc 948c dc3d d89b 5fbd
00000070: 29d5 84bb a14a bfbd 9e3a 883b 86ac 263e
00000080: 183b d83d 1022 3f3e 5ce0 51be f158 97bd
00000090: 5574 86bd 2f21 843d a3f2 ff3d d9a4 693e
000000a0: bcd5 4dbb 5e24 e83c 29a0 ef3d bd15 1e3e
000000b0: ec69 a23c e1cc b93d 90e1 cebd 7b86 26be
000000c0: 57a5 8ebd 7cd5 283e 456f 8abc 2620 babe
000000d0: e622 643d 8173 d73d a72d 72bd 64b8 a63d
000000e0: d5ee 55be c39d 25bd 3236 03bd 229f a5bb
000000f0: b238 83bd 8fc7 113c ddf9 fd3d c10b 233e
00000100: be42 bc3e 1a8b d0bc 3d25 5fbd 29d1 4dbe
00000110: c866 903d 1ed4 f9bd 7275 48bd a86a 423d
00000120: 1821 0b3e 8672 f33d ea40 8cbe 3e4f a0bd
00000130: db75 a1bd 6ca6 693d ca96 8d3e 97b6 503e
00000140: ba29 1cbd 386a 80bd 9918 46bc 4538 99be
00000150: e8d3 643a b3e6 5cbd 1152 643e eff3 02bd
00000160: 283c 493e 4ca8 4e3e 4300 553e 1907 a9be
00000170: 197c 30bd 8674 47bc ed04 11be 2a1e ad3d
00000180: 91bd e73d b4d0 abbd a8e1 153e 4da7 903d
00000190: 489d 873d 6c74 153e 4ccd 6d3d 7dcc b1bc
000001a0: 108f 1ebd 6e18 3abc 09fb f4bb 98e9 b6bd
000001b0: a715 3d3e 756d 58be 6806 1a3e 4f58 df3d
000001c0: a579 abbd 489d f13d eb2e 503d 17e8 c03d
000001d0: b4b3 55be 7b33 143e 2112 c23d 0e43 8dbd
000001e0: f829 79bd b788 f13d 89e1 993c b68c b4bd
000001f0: 9dd6 523c c9d1 7abe 37ed aa3c bf58 16be
00000200: ec8e 103d a85a 833d 8f9b dfbd 2511 ce3b
00000210: 2ae5 203b 8533 9b3d 214c e7bd 5ff3 5abe
00000220: 857f de3d 6381 3d3e 27e7 eb3c dd78 7bbe
00000230: a771 643c 91e3 b33d 918d 8b3e 37e3 c5be
00000240: 13d5 f13d f3f3 96be c507 493e 1223 8f3d
00000250: bfab 28be 6088 4e3c e30c 55be c35a dcbd
00000260: 91d6 c03d 97f7 d3bd fdde 503a f7ad ff3d
00000270: 3a43 8e3d 1d43 d93d 08d3 adbe 0d05 42bf

bias f4 [8]
-0.4628771 0.22182187 0.11792887 0.6334438 0.02768733 -0.04313192 -0.3138958 -0.19681297
00000000: 3afe ecbe 4625 633e b184 f13d 5f29 223f
00000010: 8ad0 e23c 19ab 30bd f3b6 a0be 5789 49be
