weird_parameters.pt (torch, 14997 bytes, 10 tensors)

weight f4 [20, 43]
0.041293457 -0.09216977 0.10342947 0.025067406 0.010275513 -0.12268744 -0.06944564 0.11279633
0.010712147 0.08551687 -0.034148563 -0.01728618 -0.01190179 0.116066284 0.036682043 0.13619198
0.0074819406 0.049504444 0.047166474 -0.15057188 -0.06497459 -0.08515886 -0.041540384 0.010732129
-0.018184286 -0.08063811 0.027117724 -0.020754728 0.030831752 -0.007894431 -0.11914144 0.06439013
0.09875753 -0.110236414 0.16902965 0.083106145 0.014992576 0.074178986 -0.2119043 0.12470456
0.11243178 0.12964305 -0.00385414 -0.10492581 0.03732935 0.07620003 0.075910546 0.11542462
-0.13055128 0.1381239 -0.09630456 -0.029983534 0.12936392 -0.04354201 -0.16483045 0.15106703
0.030223243 -0.016587492 -0.092748776 -0.05027986 0.14811611 0.14895931 0.012154278 -0.15887307
-0.09738218 -0.0160578 0.04834317 0.10388583 -0.014600549 0.108322576 -0.121910505 -0.011746925
-0.17300905 -0.1231487 0.2048604 -0.11181469 0.07234597 -0.07757957 -0.031652734 -0.026236862
-0.04851981 0.03407982 -0.12731302 -0.27045178 -0.008996403 0.015436331 0.04471438 -0.075497866
0.009379334 0.22899081 -0.038904533 0.017738214 -0.12699376 -0.020703178 -0.014085687 -0.04912728
0.0412755 0.13631567 0.056890994 0.11312353 0.119049214 -0.0027291311 -0.10643941 0.05266126
-0.1248011 -0.018776435 -0.118127346 -0.065635264 0.04824886 0.0351277 0.19114801 -0.081103764
0.11968296 -0.004162282 -0.07109666 -0.04581968 0.10047039 -0.055772632 0.056784756 0.0055591483
0.01699553 0.0108527 -0.06677551 0.14849417 0.1291227 -0.081938624 -0.056291446 0.107986175
0.11270383 0.017555648 -0.12215469 0.03523929 -0.016081097 -0.0968007 -0.06926849 0.101223305
-0.15613316 0.11644122 0.08995136 0.07293602 0.17224061 -0.10390429 -0.042388886 -0.09233817
-0.08174027 0.07783728 -0.034263767 -0.013671455 0.07118601 -0.03335709 0.12556247 0.1881247
-0.007833365 0.1424296 0.1313655 0.042430427 0.092110515 -0.058605347 0.06947049 0.14113931
-0.065214895 0.12465101 -0.045255277 0.09941905 0.08322307 -0.1292205 0.11532154 -0.105699494
0.16012087 0.1321765 -0.0755785 0.048881102 -0.03403119 -0.09087935 0.13186383 -0.03247791
0.14960411 0.0103547815 -0.008215284 0.07693999 -0.05495998 -0.023613505 -0.0061071953 -0.07090489
0.055418715 0.15288877 -0.09699939 0.050468497 0.055935398 -0.084891744 0.07220551 0.16651063
-0.037649464 0.05361469 -0.12417955 0.024582805 0.13558714 -0.09719631 -0.1104599 -0.023035187
0.045471314 0.1386345 -0.037445597 0.057957295 -0.12193575 0.051719707 -0.011214358 -0.00026150703
0.14038225 -0.012344816 0.14980991 -0.023158971 -0.027391016 -0.011050265 -0.05261213 0.12228669
-0.110253505 -0.15243736 -0.041060112 0.035696853 -0.05091833 0.08571189 0.11920362 -0.10268425
0.12446637 0.0359742 0.13616891 -0.042021092 0.019450592 -0.00276505 -0.071253136 0.010472196
0.09367501 -0.08842718 0.087424725 0.16330035 0.042677023 0.13038048 -0.041038696 0.14066125
0.07307736 0.14297996 -0.10323985 0.00069659745 0.16261627 -0.039451454 -0.0009416077 0.11433503
-0.120400995 -0.047565997 -0.05718076 -0.10880544 0.0020889076 -0.11576064 0.017446207 -0.00038904283
00000000: 5423 293d 81c3 bcbd d4d2 d33d 295a cd3c
00000010: a05a 283c 8d43 fbbd 8439 8ebd c301 e73d
00000020: 0082 2f3c 7823 af3d 5ddf 0bbd bf9b 8dbc
00000030: baff 42bc 29b4 ed3d e93f 163d e975 0b3e
00000040: 112b f53b 2cc5 4a3d a231 413d 842f 1abe
00000050: 6611 85bd c567 aebd 4026 2abd d0d5 2f3c
00000060: 36f7 94bc 9825 a5bd fd25 de3c d205 aabc
00000070: df92 fc3c a557 01bc 6d00 f4bd f9de 833d
00000080: 6341 ca3d a1c3 e1bd 1c16 2d3e 8e33 aa3d
00000090: 6ca3 753c 27eb 973d 71fd 58be 1b65 ff3d
000000a0: a242 e63d 26c1 043e bd95 7cbb 58e3 d6bd
000000b0: a9e6 183d c30e 9c3d fd76 9b3d be63 ec3d
000000c0: 3caf 05be 5a70 0d3e 533b c5bd 07a0 f5bc
000000d0: fa77 043e 1b59 32bd 50c9 28be 51b1 1a3e
000000e0: bc96 f73c 7ee2 87bc 12f3 bdbd 41f2 4dbd
000000f0: c0ab 173e ca88 183e bd22 473c 9faf 22be
00000100: 4f70 c7bd a68b 83bc 7d03 463d 18c2 d43d
00000110: 2437 6fbc 3ad8 dd3d 37ac f9bd 2d76 40bc
00000120: 4929 31be 6335 fcbd edc6 513e 1aff e4bd
00000130: 202a 943d 0ae2 9ebd 4ca6 01bd b0ee d6bc
00000140: b5bc 46bd 4897 0b3d 585e 02be a878 8abe
00000150: a665 13bc aae8 7c3c 6d26 373d a09e 9abd
00000160: c7ab 193c 917c 6a3e 5c5a 1fbd bb4f 913c
00000170: a70a 02be b699 a9bc a7c7 66bc b039 49bd
00000180: 8010 293d 5696 0b3e 8806 693d 4fad e73d
00000190: 13d0 f33d 39db 32bb e8fc d9bd 55b3 573d
000001a0: b897 ffbd 0ad1 99bc c0ec f1bd c86b 86bd
000001b0: 99a0 453d 10e2 0f3d 4ebc 433e bb19 a6bd
000001c0: 571c f53d c163 88bb 209b 91bd 6bad 3bbd
000001d0: 6bc3 cd3d d871 64bd 2297 683d 8429 b63b
000001e0: 363a 8b3c 86cf 313c 99c1 88bd db0e 183e
000001f0: be38 043e 70cf a7bd dc91 66bd db27 dd3d
00000200: 44d1 e63d ddd0 8f3c 3d2c fabd 1357 103d
00000210: 81bc 83bc 723f c6bd a3dc 8dbd 2a4e cf3d
00000220: 5fe1 1fbe bc78 ee3d 6b38 b83d 7b5f 953d
00000230: d85f 303e c6cb d4bd f89f 2dbd cb1b bdbd
00000240: 7167 a7bd 2769 9f3d 2a58 0cbd 3dfe 5fbc
00000250: f9c9 913d 72a1 08bd 7393 003e c3a3 403e
00000260: 8457 00bc 11d9 113e ad84 063e 87cb 2d3d
00000270: 70a4 bc3d 290c 70bd 8b46 8e3d d386 103e
00000280: 638f 85bd 0749 ff3d 995d 39bd 379c cb3d
00000290: db70 aa3d 6152 04be b32d ec3d fa78 d8bd
000002a0: baf6 233e 4759 073e e7c8 9abd 8d37 483d
000002b0: 4a64 0bbd f41e babd 5007 073e 8f07 05bd
000002c0: d231 193e 1aa7 293c 6699 06bc b792 9d3d
000002d0: b71d 61bd 1c71 c1bc de1e c8bb 9536 91bd
000002e0: bcfe 623d e08e 1c3e 9ea7 c6bd 0eb8 4e3d
000002f0: 841c 653d b9db adbd 7ce0 933d c381 2a3e
00000300: 5336 1abd 149b 5b3d d951 febd e161 c93c
00000310: 5bd7 0a3e dc0e c7bd cd38 e2bd 4ab4 bcbc
00000320: 2140 3a3d 34f6 0d3e 8e60 19bd a164 6d3d
00000330: 73b9 f9bd 0bd8 533d 6dbc 37bc e11a 89b9
00000340: 5dc0 0f3e e941 4abc c567 193e e2b7 bdbc
00000350: 2063 e0bc 2c0c 35bc d17f 57bd 7271 fa3d
00000360: 97cc e1bd 8a18 1cbe a62e 28bd dd36 123d
00000370: bd8f 50bd b789 af3d 0721 f43d 1f4c d2bd
00000380: 39e8 fe3d af59 133d dd6f 0b3e 4f1e 2cbd
00000390: d956 9f3c d735 35bb 2aed 91bd 9393 2b3c
000003a0: afd8 bf3d 4f19 b5bd bc0b b33d 3538 273e
000003b0: 1ace 2e3d 7682 053e 3118 28bd 8109 103e
000003c0: 95a9 953d 5769 123e 6a6f d3bd dd9b 363a
000003d0: e184 263e d997 21bd 39d6 76ba 7c28 ea3d
000003e0: cc94 f6bd 90d4 42bd 5f36 6abd 63d5 debd
000003f0: 0ee6 083b ea13 edbd 59eb 8e3c 72f8 cbb9

bias f4 [20]
0.04512764 0.022369502 0.07180681 -0.084313534 0.047114346 0.08912549 -0.07060245 -0.14389808
-0.104363784 -0.02375369 0.038998805 0.06654839 -0.059647847 0.052370332 0.12330773 -0.10632896
0.05717097 0.019918822 0.039926987 0.026723322
00000000: c3d7 383d 3f40 b73c 730f 933d 93ac acbd
00000010: f9fa 403d 6d87 b63d 0498 90bd 055a 13be
00000020: aebc d5bd 1997 c2bc 36bd 1f3d 864a 883d
00000030: 4d51 74bd 4682 563d c388 fc3d ffc2 d9bd
00000040: 1b2c 6a3d cc2c a33c 7b8a 233d deea da3c

weight f4 [20, 20]
-0.035317708 -0.11827838 -0.11558108 -0.124466315 -0.032198455 0.17632996 -0.0567131 -0.011300033
0.11449329 -0.22042753 0.13777718 0.12420842 -0.050876416 -0.034107853 0.023629047 -0.0075054835
-0.17939876 0.106084935 0.021351356 -0.05293757 -0.23675495 -0.27544597 0.23322561 -0.15038343
-0.20474912 -0.24459843 0.24105877 0.09772294 -0.23657632 0.109284535 0.2356734 -0.017360982
-0.04108744 -0.085799 0.18229078 -0.170705 0.048396815 0.1810757 -0.2961824 0.20318805
-0.07228508 -0.07886112 0.003328939 0.03929108 -0.22765964 -0.068625815 -0.05955548 -0.028498095
-0.003645938 0.021531539 -0.04576486 -0.010162562 -0.0026023064 0.15828449 0.02336612 -0.19871536
0.20379901 0.0002919492 0.10950058 -0.19374663 -0.17526853 -0.07927626 -0.07357251 -0.06369646
0.19622211 -0.07635308 -0.18736216 0.0020606285 -0.11275343 0.14753127 -0.21473312 0.1825595
0.13738805 0.03200862 -0.11902287 -0.040481284 -0.17072861 -0.15975654 -0.20443147 0.21567744
-0.08305258 -0.18466389 -0.18314119 0.11816974 -0.14412077 0.017437134 -0.1572823 -0.16547741
-0.13495785 -0.09673741 -0.17210338 -0.20521386 -0.07013577 0.1296023 -0.17243591 0.041690994
-0.010352315 -0.019809328 0.04549827 0.16399686 0.028932652 0.1288148 -0.035241935 -0.13917728
-0.07190067 -0.12595512 0.139583 -0.036815196 0.054415435 -0.21537976 -0.17423409 -0.06278655
0.19841608 -0.11390667 -0.1518875 0.117721744 -0.1472778 -0.009606215 -0.037177756 -0.045109894
-0.100018896 -0.20296563 0.15251602 -0.12986879 0.122908935 -0.07739229 0.17258927 -0.16865197
0.016913863 0.073435314 0.08283639 0.14395748 -0.18493748 0.15454252 0.3032088 0.048372917
0.15828352 -0.18608953 -0.21117228 0.16122434 -0.081349686 -0.044249408 -0.051658917 0.2036698
-0.0524426 0.13541202 -0.0647444 -0.027911576 -0.03895391 -0.046772435 0.19772388 -0.03585022
0.17690083 0.16880609 0.23565485 0.0052819937 -0.16461875 0.09389603 -0.012990775 -0.20360656
0.049223892 -0.14074261 0.034052964 0.07674491 -0.22727908 -0.17647335 0.0050365436 -0.009366328
0.14885604 0.12283006 0.06371576 0.061606728 -0.07929297 -0.22419459 0.050476786 -0.1586961
0.077260345 0.18914677 -0.015708454 0.06722838 -0.07050265 -0.09951654 0.053289454 -0.033372235
0.09305517 -0.026029155 0.14679123 -0.060800847 -0.089801975 0.16220865 0.11289025 -0.18423948
-0.03241544 0.055393167 0.25437564 -0.13774352 0.12458061 -0.15437356 -0.20611864 -0.078265384
-0.13468182 -0.1398825 0.18751451 -0.13770232 -0.09624787 -0.00560358 -0.02613539 0.22264889
0.064128645 -0.20939484 -0.13566932 -0.18357587 0.12271059 0.10470514 -0.20236793 0.11773713
-0.011939558 -0.02932287 -0.20393124 -0.09847526 -0.13009918 -0.05406308 0.078971386 -0.17883453
0.13345371 -0.12650383 0.20939553 -0.21293272 -0.21682705 0.20660695 -0.22248058 -0.028042635
-0.21112518 0.12901726 -0.13714679 -0.03966743 -0.08076817 0.025379397 -0.00042059872 -0.19706456
-0.09489146 -0.051710412 -0.04434156 0.116296865 0.08864674 0.034220487 0.071175754 -0.015029119
0.0025573627 -0.051987458 0.11037435 0.053179827 0.03220977 -0.12483833 0.23907551 0.21427839
00000000: 4da9 10bd ef3b f2bd c6b5 ecbd 32e8 febd
00000010: 87e2 03bd d78f 343e ff4b 68bd c623 39bc
00000020: 757b ea3d c1b7 61be 7615 0d3e fc60 fe3d
00000030: ca63 50bd adb4 0bbd b491 c13c 8ff0 f5bb
00000040: 4fb4 37be 0f43 d93d 0ae9 ae3c 11d5 58bd
00000050: e46f 72be 4107 8dbe b2d2 6e3e 1dfe 19be
00000060: c1a9 51be 0378 7abe 1cd8 763e f722 c83d
00000070: 1041 72be 92d0 df3d 5e54 713e 9e38 8ebc
00000080: 4e4b 28bd 63b7 afbd 6faa 3a3e 4bcd 2ebe
00000090: bd3b 463d e96b 393e 38a5 97be 8710 503e
000000a0: 330a 94bd f081 a1bd 542a 5a3b afef 203d
000000b0: 9c1f 69be b18b 8cbd 72f0 73bd d674 e9bc
000000c0: b0f0 6ebb e962 b03c ef73 3bbd e080 26bc
000000d0: 758b 2abb 5415 223e 4e6a bf3c 0a7c 4bbe
000000e0: b0b0 503e c210 9939 d741 e03d 8465 46be
000000f0: 9879 33be 985b a2bd 2fad 96bd 4a73 82bd
00000100: 73ee 483e 015f 9cbd dedb 3fbe 9c0b 073b
00000110: 45eb e6bd 7012 173e 00e3 5bbe e1f0 3a3e
00000120: 74af 0c3e 791b 033d 43c2 f3bd b4cf 25bd
00000130: 7bd3 2ebe 3897 23be 7c56 51be 8cda 5c3e
00000140: 7917 aabd 8818 3dbe 5d89 3bbe fa02 f23d
00000150: 6594 13be 52d8 8e3c 9c0e 21be e972 29be
00000160: 6432 0abe 431e c6bd de3b 30be 9523 52be
00000170: 58a3 8fbd 77b6 043e 0a93 30be 2dc4 2a3d
00000180: c29c 29bc 2c47 a2bc 655c 3a3d cbee 273e
00000190: 2b04 ed3c 07e8 033e d959 10bd 7d84 0ebe
000001a0: a940 93bd 61fa 00be d9ee 0e3e 88cb 16bd
000001b0: b8e2 5e3d 838c 5cbe 6c6a 32be 3c96 80bd
000001c0: 962d 4b3e e647 e9bd 6688 1bbe 1918 f13d
000001d0: fecf 16be 6363 1dbc b447 18bd 27c5 38bd
000001e0: b5d6 ccbd 39d6 4fbe 292d 1c3e 53fc 04be
000001f0: aeb7 fb3d d97f 9ebd 3ebb 303e 1ab3 2cbe
00000200: f18e 8a3c 4165 963d 20a6 a93d 9769 133e
00000210: 4060 3dbe 6540 1e3e 2f3e 9b3e ae22 463d
00000220: 1315 223e 418e 3ebe 8c3d 58be fe17 253e
00000230: aa9a a6bd de3e 35bd 4d98 53bd d18e 503e
00000240: 0dce 56bd 73a9 0a3e b698 84bd d1a6 e4bc
00000250: 238e 1fbd 7494 3fbd 2178 4a3e aed7 12bd
00000260: 7e25 353e 81db 2c3e 814f 713e 9314 ad3b
00000270: d191 28be 904c c03d 42d7 54bc 3d7e 50be
00000280: fe9e 493d d51e 10be 1f7b 0b3d 6f2c 9d3d
00000290: d9bb 68be 6eb5 34be 9709 a53b 3a75 19bc
000002a0: b86d 183e 548e fb3d 697d 823d 5657 7c3d
000002b0: 5a64 a2bd 4493 65be bfc0 4e3d 3b81 22be
000002c0: ac3a 9e3d b1af 413e 04af 80bc 08af 893d
000002d0: b263 90bd 54cf cbbd 0b46 5a3d 53b1 08bd
000002e0: b593 be3d 183b d5bc 7150 163e 4f0a 79bd
000002f0: 19ea b7bd 061a 263e 0133 e73d 46a9 3cbe
00000300: 0dc6 04bd f2e3 623d 863d 823e a30c 0dbe
00000310: 1e24 ff3d 1a14 1ebe c410 53be 9a49 a0bd
00000320: 08ea 09be 5c3d 0fbe ce03 403e d601 0dbe
00000330: 9a1d c5bd 3c9e b7bb e319 d6bc 12fe 633e
00000340: e155 833d 9a6b 56be e6ec 0abe 50fb 3bbe
00000350: b14f fb3d a66f d63d 8a39 4fbe 2a20 f13d
00000360: 239e 43bc 8436 f0bc 5ad3 50be 66ad c9bd
00000370: b838 05be 4071 5dbd c0bb a13d 6620 37be
00000380: 17a8 083e 388a 01be c86b 563e 090b 5abe
00000390: e907 5ebe c690 533e f3d1 63be abb9 e5bc
000003a0: 3331 58be 1a1d 043e 3570 0cbe 517a 22bd
000003b0: c869 a5bd 74e8 cf3c ce83 dcb9 4bcb 49be
000003c0: 7456 c2bd 4cce 53bd 7f9f 35bd 0d2d ee3d
000003d0: 6c8c b53d c82a 0c3d 98c4 913d b23c 76bc
000003e0: 6d99 273b cdf0 54bd f20b e23d 17d3 593d
000003f0: 64ee 033d 3dab ffbd 36d0 743e cb6b 5b3e

bias f4 [20]
-0.0022331993 0.13747986 0.1439603 -0.14658831 0.057915848 0.011604072 0.08334703 -0.042836364
0.13500811 -0.17975315 -0.13754497 -0.039580107 -0.006250056 -0.18464926 0.117489114 -0.002709482
0.21020098 0.04903892 0.107754916 -0.07495911
00000000: de5a 12bb 85c7 0c3e 546a 133e 3f1b 16be
00000010: 2b39 6d3d 011f 3e3c d9b1 aa3d 2f75 2fbd
00000020: 913f 0a3e 3611 38be 97d8 0cbe c01e 22bd
00000030: 45cd ccbb b214 3dbe 229e f03d 9191 31bb
00000040: ed3e 573e 09dd 483d 9cae dc3d 2984 99bd

weight f4 [20, 20]
0.15167686 -0.02054837 0.03546614 -0.21881543 -0.1356651 0.17532592 0.010043877 -0.21571259
-0.10352871 -0.0020635482 0.1941632 -0.04511436 -0.10748624 -0.073832825 0.20859802 -0.21850443
-0.16098155 0.027346399 -0.19657633 -0.20756793 -0.21068378 -0.15111776 -0.04081585 -0.12196789
0.098493226 0.077887416 -0.18023013 -0.1885938 -0.10577229 0.17148148 -0.032661878 -0.12749909
-0.064252935 -0.091603905 -0.009882631 -0.053583745 0.18754005 -0.08083633 -0.10985003 0.1547705
0.07839777 -0.11616861 0.06470198 0.119011916 -0.19911891 -0.08291052 -0.23076415 0.14116319
0.1782818 -0.24606246 0.21367948 0.05697154 -0.061518364 -0.023144398 0.25828877 -0.016397312
0.3343681 0.12652476 0.17384817 -0.009840587 0.17541094 0.18417609 0.139775 -0.22265022
-0.13556182 0.12436368 -0.023368897 -0.21052909 0.12643269 0.059347417 0.18646966 -0.20841135
-0.12248457 0.031156074 0.122617655 0.15195641 0.21431103 0.13008073 0.16710344 0.109738156
-0.17522134 -0.28775042 -0.10055461 -0.0733119 -0.019199852 -0.010525253 0.1566066 -0.13599299
0.13289069 0.1564917 0.14713882 0.059408486 -0.08048806 -0.046384998 0.14612266 -0.09583168
0.33346862 0.063429974 0.16107401 0.021539425 0.12680875 -0.14328296 0.067042716 -0.11729448
-0.11123075 0.18771754 0.008275122 -0.2009795 -0.057022464 0.15137947 0.1600728 0.15790418
-0.13866094 0.12718578 0.22029626 -0.003817903 -0.09544913 0.19891131 0.036716443 -0.02737547
-0.0040663737 -0.20579258 -0.0514636 0.08408223 0.09468437 0.13720687 0.14929673 -0.096134044
0.18968174 -0.014006745 -0.17620532 -0.18881768 -0.08737285 -0.1480185 -0.040313493 0.22146131
0.041060053 0.003588483 -0.21685979 0.19814405 0.16267726 -0.15998782 -0.026483538 0.13521539
0.059118785 -0.0059684142 -0.046966296 0.10808527 -0.09563298 0.050925292 -0.08591626 0.15653193
0.0005811822 0.18606307 0.069225445 -0.1591222 0.08261677 -0.19156127 0.068501495 -0.064911775
-0.14258999 -0.12787783 -0.023458775 0.09450573 0.15909052 -0.08561161 0.16100293 -0.17439626
-0.18280067 0.05256335 -0.030630764 0.22113274 -0.15396959 -0.12487092 0.083408855 -0.1927843
0.105345555 -0.06689998 0.06797001 -0.1414239 -0.15794021 -0.19446635 0.15270361 0.2171331
0.17378944 0.0930291 0.011445047 -0.17216994 -0.07958405 0.08302676 -0.11098556 -0.2013996
-0.018983586 -0.19525714 0.01468167 -0.12241101 0.12200056 -0.17620537 0.13603887 -0.02762725
-0.026915653 0.2628513 0.18939875 -0.09723165 -0.08390175 -0.22532298 0.19350359 -0.010766698
-0.12692232 0.25548175 0.11183613 0.009056021 -0.010349773 0.12018818 -0.04244302 0.13833366
-0.19607407 -0.20411538 0.08801355 -0.2567759 0.07865161 0.057503395 -0.20165324 0.07160981
-0.12230424 -0.21820156 0.20262331 0.20885754 0.21558233 0.11198108 0.18003859 0.03960016
-0.16617753 0.21564811 -0.2544473 -0.07841722 -0.14856541 0.17351356 0.01912386 -0.11221258
0.072153546 -0.19710353 -0.08305564 0.06524588 -0.04858777 0.0836159 -0.21601596 -0.11465644
-0.16580164 -0.14560743 0.18065628 0.18013816 -0.054366846 -0.019354288 0.049679067 0.036979053
00000000: 2e51 1b3e 0e55 a8bc f144 113d 2711 60be
00000010: cbeb 0abe a388 333e 138f 243c c3e3 5cbe
00000020: dc06 d4bd 983c 07bb b8d2 463e d6c9 38bd
00000030: bf21 dcbd aa35 97bd b89a 553e a0bf 5fbe
00000040: 59d8 24be 8e05 e03c 4e4b 49be b08c 54be
00000050: 7dbd 57be 9dbe 1abe 852e 27bd 4dca f9bd
00000060: d1b6 c93d 7083 9f3d 3f8e 38be bc1e 41be
00000070: 249f d8bd d798 2f3e 76c8 05bd 1f8f 02be
00000080: 0b97 83bd d49a bbbd c2ea 21bc a17a 5bbd
00000090: 800a 403e 858d a5bd 0df9 e0bd 287c 1e3e
000000a0: 038f a03d cfe9 edbd 7982 843d 85bc f33d
000000b0: d4e5 4bbe fecc a9bd 704d 6cbe 158d 103e
000000c0: 818f 363e ccf7 7bbe cbce 5a3e fd5a 693d
000000d0: aefa 7bbd 5299 bdbc 6d3e 843e a853 86bc
000000e0: 4c32 ab3e b58f 013e 4105 323e 6a3a 21bc
000000f0: ed9e 333e a898 3c3e 2d21 0f3e 6bfe 63be
00000100: b8d0 0abe 63b2 fe3d 2170 bfbc f094 57be
00000110: 9277 013e 4716 733d e7f1 3e3e c969 55be
00000120: 31d9 fabd 063b ff3c f71e fb3d 769a 1b3e
00000130: 5a74 5b3e e233 053e 2a1d 2b3e 66be e03d
00000140: 396d 33be 0654 93be 93ef cdbd 8d24 96bd
00000150: 0249 9dbc 1c72 2cbc 7b5d 203e bf41 0bbe
00000160: 7f14 083e 5c3f 203e 8fab 163e 5056 733d
00000170: edd6 a4bd 32fe 3dbd 2ea1 153e 6643 c4bd
00000180: 66bc aa3e 93e7 813d 96f0 243e 7373 b03c
00000190: 27da 013e c5b8 12be b14d 893d 1738 f0bd
000001a0: f3cc e3bd 0739 403e 6194 073c 92cd 4dbe
000001b0: 6390 69bd 3803 1b3e 20ea 233e a2b1 213e
000001c0: 22fd 0dbe fd3c 023e 5895 613e c935 7abb
000001d0: d57a c3bd 68af 4b3e fb63 163d 8642 e0bc
000001e0: 373f 85bb 4abb 52be 7fcb 52bd 4e33 ac3d
000001f0: e1e9 c13d f57f 0c3e 3ee1 183e ede1 c4bd
00000200: ee3b 423e 8c7c 65bc 2b6f 34be 6c59 41be
00000210: 89f0 b2bd 2992 17be c31f 25bd c1c6 623e
00000220: 962e 283d c12c 6b3b 7e10 5ebe 46e6 4a3e
00000230: de94 263e d9d3 23be 01f4 d8bc e775 0a3e
00000240: 8a26 723d b092 c3bb bb5f 40bd cf5b dd3d
00000250: 39db c3bd 0a97 503d ddf4 afbd e849 203e
00000260: 7a5a 183a 5187 3e3e 12c6 8d3d eef0 22be
00000270: fb32 a93d a328 44be 834a 8c3d 77f0 84bd
00000280: 1c03 12be 68f2 02be 9e2c c0bc 388c c13d
00000290: a0e8 223e 2455 afbd f4dd 243e ef94 32be
000002a0: 1930 3bbe ab4c 573d 5eed fabc 9f70 623e
000002b0: 34aa 1dbe 53bc ffbd 43d2 aa3d 3f69 45be
000002c0: 69bf d73d db02 89bd dc33 8b3d 6dd1 10be
000002d0: 14bb 21be 3022 47be 565e 1c3e 2458 5e3e
000002e0: dcf5 313e 0a86 be3d 0284 3b3c 514d 30be
000002f0: f6fc a2bd ef09 aa3d 664c e3bd b23b 4ebe
00000300: 7783 9bbc 7df1 47be 638b 703c a0b2 fabd
00000310: 6edb f93d 2e6f 34be c64d 0b3e 8b52 e2bc
00000320: 377e dcbc 7294 863e bff1 413e 6321 c7bd
00000330: aed4 abbd 11bb 66be ce25 463e ce66 30bc
00000340: edf7 01be 81ce 823e 570a e53d b55f 143c
00000350: 1892 29bc 3825 f63d bbd8 2dbd 57a7 0d3e
00000360: a4c7 48be 9f03 51be 7340 b43d 2178 83be
00000370: 1814 a13d ae88 6b3d 307e 4ebe 2aa8 923d
00000380: a57a fabd 3b70 5fbe 7c7c 4f3e c0de 553e
00000390: 9dc1 5c3e 5656 e53d 095c 383e c733 223d
000003a0: 712a 2abe dcd2 5c3e eb46 82be 3599 a0bd
000003b0: 8821 18be 8aad 313e a4a9 9c3c b6cf e5bd
000003c0: 3dc5 933d 82d5 49be 1319 aabd a29f 853d
000003d0: f803 47bd d03e ab3d 4a33 5dbe ffd0 eabd
000003e0: e8c7 29be 1d1a 15be f6fd 383e 2376 383e
000003f0: c5af 5ebd e28c 9ebc 477c 4b3d 5977 173d

bias f4 [20]
-0.1512195 0.08664551 0.31863713 -0.17016263 0.15439379 0.27055585 -0.10758882 -0.062148184
-0.14129141 -0.05850329 0.08329713 0.18979248 -0.15253079 0.1651118 -0.13109155 0.106774546
0.07646011 -0.21925066 0.17240392 0.033708252
00000000: 49d9 1abe 3373 b13d 6824 a33e 1d3f 2ebe
00000010: 6819 1e3e 4c86 8a3e 8757 dcbd 188f 7ebd
00000020: b2ae 10be 25a1 6fbd b097 aa3d f658 423e
00000030: 0831 1cbe 1113 293e dd3c 06be 9dac da3d
00000040: 1e97 9c3d 3f83 60be a78a 303e aa11 0a3d

weight f4 [20, 20]
0.14600945 0.03631248 0.13396437 0.21443275 0.19798358 -0.00032908257 0.092499964 0.05293589
0.15467747 -0.14758745 -0.20213966 -0.065669894 -0.031861685 0.093217745 -0.11974998 -0.047209915
0.11791455 0.210725 -0.16904937 0.123936966 -0.06373014 -0.11806993 0.08738573 -0.16080081
0.12711716 0.21950711 -0.14146708 0.015214442 0.092595465 0.058300957 -0.13100284 -0.09041779
0.037676774 0.1973633 -0.19329666 -0.21347259 0.076640025 0.03574224 0.029311154 0.17130359
-0.06666318 -0.1550906 -0.04809099 0.19713944 0.015567868 -0.16107851 -0.01616295 0.09219164
-0.04218052 -0.014723952 0.115265444 -0.083205216 -0.06540598 0.18276404 0.024161965 -0.16379464
0.16315219 -0.22069433 -0.13639861 0.074127376 -0.0076607764 0.06203062 -0.12585935 -0.11675589
0.23111446 0.14520472 -0.0926768 -0.21927208 -0.01524971 0.17729937 0.01772886 -0.1825552
-0.16310507 -0.07157612 0.032479625 -0.0038131443 0.12887101 0.061936118 0.06963995 -0.18789522
-0.026239693 -0.049250644 -0.0056426353 0.1500655 -0.049942657 -0.005089182 0.20413011 0.018820727
-0.05706637 -0.03057493 0.04550843 -0.07290603 0.04432073 0.20710242 0.18271302 -0.19654362
0.12811242 -0.023094505 -0.08076957 -0.079601444 -0.17811954 -0.015588843 0.21476457 0.07762577
0.108641736 -0.15929 -0.019696632 -0.09635051 -0.1497772 -0.19583383 0.012912925 0.08332988
0.063525714 -0.067172945 0.035027035 -0.20595789 0.12424823 -0.06814936 -0.12605044 0.038775194
-0.020562151 0.1656407 -0.18770231 0.044577494 -0.20931835 0.055559363 -0.07462945 -0.1046022
-0.09981572 -0.05747761 0.16831538 0.2512052 -0.20846477 0.16799156 -0.0039590034 0.0066744722
0.225092 0.054749813 -0.18113936 0.12121324 0.20727812 -0.027619831 0.23755197 -0.14757161
0.08656435 0.098418854 -0.1392405 0.13887314 0.01819097 0.19647671 -0.062456977 -0.104700886
-4.5181932e-05 0.041967675 -0.033502094 0.09284755 -0.19048831 0.06437826 -0.123380646 -0.032106854
-0.117401265 0.013621673 0.20313877 0.17656238 -0.10260835 -0.09634577 -0.070891514 0.15873596
-0.10368603 0.10624117 -0.08202789 -0.01995506 0.0021436228 -0.0129994415 0.1351065 -0.05220491
0.08173438 0.030084424 -0.09796632 0.14504416 -0.21883012 0.15194586 -0.16368222 -0.046267625
-0.070396416 0.03493606 -0.17654257 -0.20703211 -0.014280644 -0.12996708 -0.023546312 0.12691088
0.19127354 -0.16702062 0.11714726 0.13785717 -0.15821116 0.07054579 -0.025014892 0.24254172
0.148865 -0.09679262 -0.16021095 -0.07844189 -0.0572997 -0.021203015 -0.2135538 -0.13650398
0.14477421 0.053644653 0.118175864 -0.2145189 -0.076223016 -0.025911931 -0.15583542 -0.0876534
-0.2038525 -0.016511984 -0.22024398 -0.075680695 -0.014637587 -0.062557645 -0.2271913 0.14661461
-0.15749061 -0.22646992 -0.030838553 0.08119852 -0.07567822 0.11081428 0.249999 0.15679708
0.1519724 0.06399201 -0.103402466 -0.0068387776 0.32169202 0.19510122 -0.19579798 0.12938167
-0.15751408 0.06429645 -0.056503892 0.03858406 0.017658934 0.028192382 -0.16134681 0.055298686
0.069697246 0.072008885 -0.09067516 0.17099391 -0.16550945 -0.066835344 0.16296035 -0.15299436
00000000: 8083 153e 65bc 143d f52d 093e 4294 5b3e
00000010: 35bc 4a3e b788 acb9 9f70 bd3d 4ed3 583d
00000020: c563 1e3e 2a21 17be b3fd 4ebe f07d 86bd
00000030: 6681 02bd f2e8 be3d 7a3f f5bd 2f5f 41bd
00000040: 2f7d f13d 4bc8 573e 471b 2dbe aad2 fd3d
00000050: f384 82bd a6ce f1bd 4af7 b23d f8a8 24be
00000060: 002b 023e 79c6 603e bfdc 10be ff45 793c
00000070: b1a2 bd3d fccc 6e3d 9c25 06be f62c b9bd
00000080: f652 1a3d 9b19 4a3e 8fef 45be 8f98 5abe
00000090: 72f5 9c3d 7466 123d f21d f03c 356a 2f3e
000000a0: b586 88bd 12d0 1ebe 0ffb 44bd ecde 493e
000000b0: 5f10 7f3c c4f1 24be 2a68 84bc f8ce bc3d
000000c0: 7bc5 2cbd bb3c 71bc 4a10 ec3d 7f67 aabd
000000d0: 92f3 85bd 7f26 3b3e 50ef c53c c8b9 27be
000000e0: 5e11 273e b2fd 61be 14ac 0bbe 18d0 973d
000000f0: 4007 fbbb d213 7e3d 46e1 00be b61d efbd
00000100: 45a9 6c3e 8cb0 143e 56cd bdbd dc88 60be
00000110: ebd9 79bc f78d 353e 1d3c 913c c0ef 3abe
00000120: 0405 27be 8096 92bd 5b09 053d f2e5 79bb
00000130: c3f6 033e bab0 7d3d 649f 8e3d 9b67 40be
00000140: a0f4 d6bc 0bbb 49bd dbe5 b8bb c5aa 193e
00000150: ac90 4cbd 27c3 a6bb 7c07 513e ed2d 9a3c
00000160: 6dbe 69bd 4778 fabc 0c67 3a3d c24f 95bd
00000170: a789 353d a812 543e 1f19 3b3e bb42 49be
00000180: e72f 033e b030 bdbc 846a a5bd 1506 a3bd
00000190: f864 36be 5968 7fbc 3eeb 5b3e 42fa 9e3d
000001a0: 8f7f de3d eb1c 23be d55a a1bc 6b53 c5bd
000001b0: 325f 19be aa88 48be bc90 533c dba8 aa3d
000001c0: c519 823d f891 89bd 8278 0f3d a0e6 52be
000001d0: db75 fe3d e491 8bbd 5e13 01be bdd2 1e3d
000001e0: f571 a8bc b79d 293e 0935 40be e496 363d
000001f0: 8d57 56be 3792 633d 53d7 98bd ae39 d6bd
00000200: 2f6c ccbd a46d 6bbd de5a 2c3e f89d 803e
00000210: ca77 55be fb05 2c3e 87ba 81bb 88b5 da3b
00000220: 847e 663e 5741 603d 997c 39be a63e f83d
00000230: b740 543e fc42 e2bc d340 733e 031d 17be
00000240: a648 b13d d38f c93d 1095 0ebe c334 0e3e
00000250: 3b05 953c 3131 493e e3d2 7fbd 6b6d d6bd
00000260: bb81 3db8 4ce6 2b3d 7e39 09bd db26 be3d
00000270: 5e0f 43be c0d8 833d feae fcbd 7a82 03bd
00000280: 1370 f0bd 702d 5f3c 9c03 503e c5cc 343e
00000290: 5424 d2bd ee50 c5bd 922f 91bd ae8b 223e
000002a0: 5759 d4bd f894 d93d 3dfe a7bd cb78 a3bc
000002b0: 067c 0c3b 9cfb 54bc 5c59 0a3e d1d4 55bd
000002c0: 5b64 a73d 9c73 f63c 91a2 c8bd 7586 143e
000002d0: 0115 60be b297 1b3e 509c 27be 1f83 3dbd
000002e0: ff2b 90bd 1d19 0f3d 93c7 34be 3a00 54be
000002f0: 5df9 69bc 1716 05be 32e4 c0bc edf4 013e
00000300: 36dd 433e 7407 2bbe e7ea ef3d 6e2a 0d3e
00000310: 1b02 22be 507a 903d 08ec ccbc db5c 783e
00000320: 1170 183e 363b c6bd 570e 24be 24a6 a0bd
00000330: 17b3 6abd f2b1 adbc d9ad 5abe b3c7 0bbe
00000340: b13f 143e 7fba 5b3d 3006 f23d d8aa 5bbe
00000350: d01a 9cbd 4245 d4bc 5293 1fbe a083 b3bd
00000360: b6be 50be 2444 87bc a387 61be 7bfe 9abd
00000370: 7dd2 6fbc 391e 80bd d6a4 68be 2422 163e
00000380: 3845 21be bbe7 67be 22a1 fcbc 694b a63d
00000390: 2ffd 9abd 99f2 e23d bdff 7f3e 6a8f 203e
000003a0: a79e 1b3e 3e0e 833d acc4 d3bd d317 e0bb
000003b0: d1b4 a43e 9dc8 473e 447f 48be a17c 043e
000003c0: 5f4b 21be dbad 833d a070 67bd 520a 1e3d
000003d0: 78a9 903c b6f3 e63c 1938 25be e080 623d
000003e0: 6ebd 8e3d 6579 933d e6b3 b9bd 0719 2f3e
000003f0: 4f7b 29be f8e0 88bd 14df 263e 8eaa 1cbe

bias f4 [20]
0.15637258 -0.023565292 -0.15145145 0.18679065 0.10499179 0.15436846 -0.054363247 0.209559
-0.22310446 0.06807599 0.09625508 -0.008334063 -0.0121373935 0.07136983 0.32056826 0.14884913
-0.205268 0.09059792 0.096398436 0.14707366
00000000: 2220 203e 000c c1bc 1716 1bbe 0c46 3f3e
00000010: f005 d73d c412 1e3e ffab 5ebd a296 563e
00000020: 7f75 64be 6d6b 8b3d 6221 c53d 988b 08bc
00000030: ebdb 46bc 582a 923d 8621 a43e e86b 183e
00000040: c631 52be 678b b93d 8b6c c53d 7a9a 163e

weight f4 [8, 20]
0.042953152 -0.15156616 -0.20448332 0.07121311 -0.15160792 0.22201288 0.14595482 -0.1790272
0.031155009 -0.2057961 0.048103724 -0.06029518 -0.1372149 0.1786817 -0.015266487 -0.19604577
0.19781402 -0.203848 0.0014215292 0.17218705 -0.18701981 0.0873831 0.05106284 0.048657145
-0.028220575 0.061902452 0.13729768 0.008320991 -0.20851846 -0.112557024 0.062710844 -0.019858938
0.10602593 0.06802141 -0.1888755 -0.054939453 -0.18878806 0.06461647 0.17522472 0.027497286
-0.041666046 -0.017037649 0.1734841 0.01815553 0.12870075 -0.035094697 -0.09923054 -0.20006332
0.1419607 0.1983459 -0.10640297 -0.19011453 0.08245418 0.22683036 -0.19267844 -0.04237919
-0.04012473 -0.05175471 0.17111582 -0.1054586 -0.16195208 0.12298312 0.049031403 0.19836527
0.21127787 -0.19200452 -0.20610693 -0.041769873 0.07393611 -0.14571571 -0.047765326 -0.011068319
0.12908094 0.14177763 -0.14915083 0.09258362 -0.19672802 0.13211946 0.20335956 0.09844586
-0.1646672 -0.14829412 0.015167378 -0.2147105 0.18917182 -0.1627043 0.20287146 -0.030052336
0.045136403 0.1856924 0.098040156 -0.04314447 -0.04028056 -0.07001355 -0.16488352 0.13561337
0.07794216 -0.107181706 0.19609223 -0.13423166 0.051565897 0.18646343 -0.08093691 0.09982472
-0.20421715 0.14252862 -0.0062268632 -0.19991003 0.17875849 -0.2187644 0.17974812 0.0939289
-0.08235931 0.14657794 -0.10173019 -0.06858535 -0.14207605 0.10937977 0.03794014 -0.016336912
0.18705349 0.18457694 0.19103383 -0.1661523 0.06821104 -0.13241224 0.19574118 -0.08071473
-0.055953465 0.103590004 -0.042818185 -0.0339205 -0.013386358 0.033143945 -0.05534458 -0.2325922
0.17754282 0.2224974 -0.16857877 0.13494222 0.053754505 0.08317406 0.08146233 0.046341226
-0.0061393688 0.06748243 -0.23884289 0.214357 -0.16464251 -0.2133308 0.17339538 -0.48944923
-0.14018755 -0.354595 0.2845391 0.29676843 -0.17590131 0.21117218 -0.3198255 0.083436705
00000000: a5ef 2f3d 2934 1bbe 1364 51be 2ed8 913d
00000010: 1b3f 1bbe 5857 633e 2e75 153e e852 37be
00000020: ca38 ff3c 36bc 52be 6908 453d 14f8 76bd
00000030: 1082 0cbe 56f8 363e 4a20 7abc 39c0 48be
00000040: c28f 4a3e 88bd 50be 9b52 ba3a cd51 303e
00000050: 1f82 3fbe e9f5 b23d 4527 513d b74c 473d
00000060: d62e e7bc 6d8d 7d3d c397 0c3e c454 083c
00000070: dd85 55be 4c84 e6bd 8b6e 803d 36af a2bc
00000080: 1f24 d93d cf4e 8b3d 9468 41be 3108 61bd
00000090: a851 41be a455 843d 1c6e 333e fd41 e13c
000000a0: 04aa 2abd 8a92 8bbc d1a5 313e e8ba 943c
000000b0: 21ca 033e 75bf 0fbd 6239 cbbd 66dd 4cbe
000000c0: 255e 113e 301b 4b3e cde9 d9bd 62ad 42be
000000d0: bddd a83d 3846 683e 7f4d 45be cd95 2dbd
000000e0: d459 24bd bffc 53bd fc38 2f3e aefa d7bd
000000f0: c4d6 25be 93de fb3d 27d5 483d 4420 4b3e
00000100: 3a59 583e d59c 44be b20d 53be e316 2bbd
00000110: d16b 973d 8036 15be 93a5 43bd e557 35bc
00000120: cb2d 043e 282e 113e ffba 18be 7b9c bd3d
00000130: 1273 49be 534a 073e 7d3d 503e fc9d c93d
00000140: 859e 28be 6ada 17be 9880 783c 12dd 5bbe
00000150: 42b6 413e f59b 26be 89bd 4f3e 5130 f6bc
00000160: f3e0 383d 2626 3e3e 47c9 c83d 41b8 30bd
00000170: 3afd 24bd 4463 8fbd 3ad7 28be 3bde 0a3e
00000180: 24a0 9f3d 1582 dbbd 67cc 483e 0674 09be
00000190: c336 533d 45f0 3e3e 40c2 a5bd e770 cc3d
000001a0: 4d1e 51be 06f3 113e b70a ccbb 37b5 4cbe
000001b0: 770c 373e c603 60be e40f 383e cc5d c03d
000001c0: ffab a8bd 8718 163e eb57 d0bd 7a76 8cbd
000001d0: 627c 11be 8002 e03d 1f67 1b3d fdd4 85bc
000001e0: f38a 3f3e bd01 3d3e 5f9e 433e d423 2abe
000001f0: 3bb2 8b3d 1397 07be 6070 483e c44d a5bd
00000200: 762f 65bd ff26 d43d 1f62 2fbd 39f0 0abd
00000210: 7452 5bbc f2c1 073d 00b1 62bd a62c 6ebe
00000220: c9cd 353e 5cd6 633e ea9f 2cbe 4b2e 0a3e
00000230: af2d 5c3d 2957 aa3d b9d5 a63d 4cd0 3d3d
00000240: c22c c9bb 3a34 8a3d 3b93 74be 6780 5b3e
00000250: 0c98 28be 6473 5abe 8f8e 313e 1799 fabe
00000260: 538d 0fbe 7a8d b5be 1caf 913e 08f2 973e
00000270: 791f 34be 853d 583e 2bc0 a3be dde0 aa3d

bias f4 [8]
-0.07754399 0.009259589 0.041045975 0.21102488 0.12249212 -0.01409395 -0.11120844 0.06231506
00000000: 62cf 9ebd 88b5 173c d31f 283d e816 583e
00000010: 26dd fa3d 50ea 66bc 40c1 e3bd 143e 7f3d
